model/model88.pth (torch, 2591 bytes, 4 tensors)

fc1.weight f4 [8, 28]
00000000: 4ecc 47c1 fafa 9fc1 ab89 8ec0 121e d2c0
00000010: b975 96c0 0b9c 89c1 7d73 9ac1 d413 5f41
00000020: 3882 53c1 c47f 713f e2e6 2c41 2c4b 2641
00000030: a415 b6c0 aed0 b041 9954 04c1 964e 1e40
00000040: 9d59 bf40 029e f0c1 587d d2c0 e2c9 7f40
00000050: d8cc 2141 b9e1 8741 32e2 62c2 7804 6641
00000060: 7639 c8c1 a6d3 9641 5f9c 0441 04b3 20c1
00000070: bb0c b641 0a0a a3bf 7718 bdc0 dd92 b440
00000080: 0bc6 fd40 d5c3 8cc0 bac3 11c1 a2f2 23c0
00000090: f523 dbc1 2531 fb41 4c65 8bc0 0470 aabf
000000a0: dc31 a640 22ea a7c1 ea2e f041 a5bf 1042
000000b0: 01b9 bc41 3364 c641 662e 7741 d28b c841
000000c0: 608d 7341 2e8b 3b40 9a63 5240 62c9 8341
000000d0: 27e3 d1c1 d732 d53f a565 31c0 c0bd a0c1
000000e0: 8c17 8741 d6cc 7940 a85d 4ec0 4a66 49c0
000000f0: f192 9b41 84bd 50c1 6743 1940 0366 2641
00000100: 411e bdbf 68dc d241 7f71 b0c1 5437 f53e
00000110: 4ced 2bc1 434a 5a40 72f3 ae41 db69 e841
00000120: 250d ee41 20db bfc1 5cf0 d0c1 4c8e 9cc1
00000130: 5f54 16c1 753e fec0 7284 7440 ad8a 1d40
00000140: 44b2 7ac0 9944 0d41 be87 0e41 0b2b 7cc0
00000150: 193c 9541 7b0c 2f42 f75d 6640 f917 0cc0
00000160: de31 1cc1 4fa4 28c0 d23f 3c41 1f1a e340
00000170: 50a8 30c1 701b d8c0 95cb 69c1 3f98 9a41
00000180: 6e68 07c1 0199 3840 e78f ee41 1f29 a540
00000190: a93d c541 1074 32c0 613e e3c1 afa2 9f41
000001a0: ba47 ea40 1f8f bac1 5f71 85c1 f621 89bd
000001b0: 7b33 e241 683e 3a41 c772 4ec1 02da 24c1
000001c0: b8a1 c341 70f0 a73c 641c a1c0 9aa5 9fbe
000001d0: ffb7 8c3f 7f2a 853e 7c53 f6bf 6c50 b841
000001e0: a592 b6c0 2f36 9b41 f57f 09c1 5064 c240
000001f0: 204e bac1 9bfd 2841 680e 4b41 91a0 0240
00000200: 7ecd a940 5c08 3242 cce1 5740 8c69 8140
00000210: 6fac 5bc0 9ca8 9740 6721 f540 60a2 91bf
00000220: 1cbe bf41 3fe4 9141 37f5 4a41 e396 6740
00000230: c9e2 3c41 94b6 05c2 04a2 8e41 6ecf b1c0
00000240: 509d 4bc0 f0b0 9240 4264 9441 698a 61c0
00000250: f104 81c1 5e33 adc1 856d e941 d6e5 cec1
00000260: 140f ebbe 330a dbc0 9fbc 19c1 0493 40c1
00000270: 9c83 2441 e347 68c0 5755 5241 6985 0041
00000280: 3d47 c841 665b 1941 c0bc 08c2 bd43 abbf
00000290: 3ce9 53c1 00fd 5b40 0ca9 89bf 3d2d 44c1
000002a0: fffa 1742 f847 82c0 ae89 ec40 e8ec 05c2
000002b0: 5682 2ac1 1513 9abf 9bc6 56c1 39db cc41
000002c0: a259 92c1 ccfe 41c1 e996 1941 a7b1 5fc1
000002d0: f229 dc40 348f 8941 707b 34c2 96cc 2a3f
000002e0: ac71 e341 556f 10c1 2b58 d041 4630 6fc1
000002f0: 0a48 7e41 300d 6b40 62c4 37c1 8b35 d5c1
00000300: aaa0 aec0 ee13 c541 c1a5 3e41 e0eb a8c1
00000310: ad29 993f 4207 d341 fe48 5ac0 5a77 8b3e
00000320: fac2 3ac0 5beb 19c2 3557 a341 1f8f fdc1
00000330: 5320 13c1 4cdf 4f41 e1f4 2cc1 4ad3 a041
00000340: f4e9 8d41 b6dd 28c0 5201 4a41 bf1a 41c1
00000350: fa4b 16c2 7b5f 8941 97bd d73f 9308 29c0
00000360: f274 4b41 94dc ddc0 32b0 6dc1 1eae b640
00000370: 9fd9 06c1 f027 7241 1b9d b5bf a4cb 1cc1
-12.487379 -19.997547 -4.454305 -6.5661707 -4.7018704 -17.201193 -19.30639 13.942341
-13.219292 0.9433558 10.806368 10.3933525 -5.6901417 22.101894 -8.270654 2.4735465
5.979689 -30.077152 -6.5778008 3.996697 10.112511 16.985216 -56.720894 14.376091
-25.028057 18.853344 8.288177 -10.043705 22.756216 -1.2737439 -5.9092364 5.6429276
7.930425 -4.3989053 -9.110285 -2.5616841 -27.392557 31.398996 -4.3561153 -1.3315434
5.1935863 -20.989323 30.022907 36.187153 23.590334 24.798925 15.448828 25.068272
15.222015 2.9303699 3.2873292 16.473331 -26.235914 1.665614 -2.771829 -20.092651
16.886497 3.9031272 -3.2244663 -3.1468682 19.446749 -13.046268 2.394739 10.399905
-1.4774858 26.35762 -22.055418 0.47893775 -10.745434 3.4107826 21.86887 29.051687
29.756418 -23.981995 -26.117363 -19.56948 -9.395598 -7.945124 3.8205838 2.461589
-3.9171305 8.829247 8.90814 -3.9401271 18.654345 43.762188 3.5994852 -2.1889632
-9.762175 -2.6350286 11.765581 7.0969386 -11.041092 -6.7533493 -14.612203 19.324339
-8.462996 2.8843386 29.820265 5.1612697 24.655107 -2.788334 -28.405458 19.954435
7.3212557 -23.319883 -16.680357 -0.06695931 28.275137 11.640236 -12.903022 -10.303225
24.453964 0.020500392 -5.0347157 -0.3118103 1.0993651 0.26008984 -1.9244227 23.039268
-5.705401 19.401457 -8.5937395 6.074745 -23.288147 10.561915 12.691017 2.0410502
5.3063345 44.508163 3.3731565 4.044134 -3.4323995 4.739332 7.6603274 -1.1377678
23.967827 18.236448 12.684867 3.6185844 11.805367 -33.4283 17.82911 -5.556571
-3.1814766 4.584099 18.548954 -3.524073 -16.127413 -21.650082 29.178476 -25.862225
-0.4590994 -6.844995 -9.60855 -12.0358925 10.282131 -3.6293876 13.145835 8.032571
25.034784 9.584814 -34.184326 -1.3380047 -13.244442 3.437317 -1.0754714 -12.2610445
37.995113 -4.0712852 7.3918066 -33.481354 -10.65682 -1.2037073 -13.423488 25.607042
-18.293766 -12.124706 9.599343 -13.980872 6.8801203 17.194923 -45.120544 0.66718423
28.430504 -9.027181 26.04305 -14.9492855 15.892588 3.67268 -11.485445 -26.651144
-5.4571123 24.634731 11.915467 -21.115173 1.1965843 26.378544 -3.410705 0.27239496
-2.9181504 -38.47984 20.417582 -31.694883 -9.195392 12.992016 -10.809785 20.103168
17.739235 -2.6385322 12.625322 -12.06903 -37.574196 17.171621 1.6854733 -2.6411483
12.716051 -6.933176 -14.855516 5.7087545 -8.42813 15.13475 -1.418857 -9.799717

fc1.bias f4 [8]
00000000: e49a b7c1 eb72 22bf ae01 f9c0 8b75 9bc0
00000010: 3d3e c8c1 ad6a 1341 1379 3c41 f4da ddc1
-22.95063 -0.634566 -7.781455 -4.8580985 -25.03039 9.213544 11.779559 -27.73191

fc2.weight f4 [4, 8]
00000000: c180 23c1 3e8b 2dc2 bdb0 1f42 ccf3 1c41
00000010: 92a9 3340 f3d4 aa41 13ba 66c1 2724 0bc1
00000020: 0620 c241 72fd a2c0 e6a0 8941 74f8 9b41
00000030: 704b ff40 d7c3 0cc1 ea55 2dc2 6aeb 6540
00000040: b923 0241 307b 4ac1 ed2d ad41 aedb 34c2
00000050: 030c b740 76c9 28c1 dceb 0642 d406 95c0
00000060: bee9 9541 a7f3 3241 d40d 60c0 4384 2640
00000070: 9fbc ee41 d6ed c140 df26 3dc1 1435 17c2
-10.218934 -43.38598 39.922596 9.809521 2.8072248 21.35398 -14.420428 -8.696326
24.265636 -5.093438 17.203564 19.496315 7.9779587 -8.797812 -43.3339 3.5924935
8.133721 -12.655075 21.647425 -45.21453 5.7202163 -10.549185 33.73033 -4.6570835
18.739132 11.184485 -3.500844 2.6018226 29.8421 6.0602827 -11.82199 -37.801834

fc2.bias f4 [4]
00000000: f439 d8c1 a515 07bf 7211 02c1 fa6a 1fc1
-27.028297 -0.527674 -8.129259 -9.963617
