model/model3.pth (torch, 2585 bytes, 4 tensors)

fc1.weight f4 [8, 28]
00000000: 3c6c babe 5ac3 96c0 21c2 8e40 7c34 d2bf
00000010: c5d5 9cc0 b42c 0ec0 acb7 d8be 7204 3741
00000020: 605f 85bb 2e72 9cc0 126f d0c0 c257 2841
00000030: 5b2f 8d40 8eaf a940 dbc1 9e3f ff23 8240
00000040: 8487 8dc0 72b0 a1c0 6d1c 9040 6fec a340
00000050: 34eb 5bbf d9d9 79c0 940e 1d3f 3f7e 9d41
00000060: 58ac 47c0 5aac ffbf 44b8 0641 40d0 e1bd
00000070: b80b 0141 c2a9 6fc0 17b9 d0c0 1d65 da3f
00000080: 9ecb ad40 d914 9d40 178e 0ac0 8a44 f5bf
00000090: c7b4 37c1 6e64 fd40 a80c b8be 1b04 d9bf
000000a0: 536a 1541 ecb6 623f 644f d040 f4d2 0f41
000000b0: c297 0bc1 fdb6 2140 86b5 b140 de12 8a40
000000c0: 6e1f 93c0 61eb c540 80b0 8740 6d07 3ac0
000000d0: c595 b0bf 2bac fabf 0b3c 6540 a16f 5240
000000e0: 6bd4 aa40 ec05 e840 1ae5 5340 1370 97be
000000f0: f241 4c40 bb9c 07c1 dea9 833e e6f7 1cc0
00000100: 78f1 e13f 3981 1741 a048 293d cdb0 7b3f
00000110: 6a55 9b3f ddcf b140 2261 8fbf 6008 2e41
00000120: c4da 4241 d66c ddc0 04b3 f6c0 cac9 04c1
00000130: 37ee 93bf eff4 c8be 104a 2cc1 8440 21c1
00000140: 9dac 1e3f c564 9040 42b7 8340 7f11 79bf
00000150: d943 b0bf 3544 20c1 66d8 babf 59c2 ad40
00000160: d288 4540 6a1f 77c0 07e5 0b41 2018 a140
00000170: dd04 30c1 30d4 22c0 2939 5dc1 16ab e43f
00000180: ff32 79c0 6cdc 90c0 b455 a9bf 3f4b 5740
00000190: a5e5 0cc0 0904 a83f 8eac 9fbf 2e44 2e40
000001a0: 5b62 4d40 6ec4 bac0 ba1a e53f 1ecb dbc0
000001b0: a35b f640 1eae bf40 8296 6a3f e381 06bf
000001c0: 9840 1c41 0a16 79c0 3f62 a7c0 b08c cdbf
000001d0: 6cb9 2240 77e7 753f 8678 29c0 4be4 ec40
000001e0: 360b 1840 3ce5 9cc0 9116 6ec0 f2f8 6ebe
000001f0: 7b67 44c1 19cf a2c0 0c1a 4b40 cfd1 8f40
00000200: c240 f3c0 09b7 0141 fa33 41c0 b7d1 6240
00000210: f402 7a40 2877 87c0 dd69 a0c0 1694 323f
00000220: d195 a140 ca06 0c40 30a7 bd40 49fd cb40
00000230: e24f 5140 d70e 1740 7f8c d13f 0082 b140
00000240: 9d69 2440 de87 fa40 01a7 37be 0532 a5c0
00000250: c8af 093f 9b60 b0c0 cb5e 5540 c754 68c0
00000260: 6983 9e3f d57b bf3e a196 4440 be30 2f41
00000270: 702f a13e 7680 5940 795c 37c0 d27c 6041
00000280: 28ed f63f d172 19c1 d1c2 54c1 883f 143f
00000290: c81b bbbd d947 03c1 da8b 70c0 bf14 4dc1
000002a0: 154c 7fbf 4d2f f440 27a9 cc3f f29e 2e41
000002b0: 42a2 0fc0 5a92 783f 9915 95c0 31a8 0f41
000002c0: 56ef 9f40 39b2 9940 54a8 5741 3d1e 36c1
000002d0: 0c75 8e40 f06b bb3e 59cc 39c1 5221 b6c0
000002e0: 177b c2c0 e07f e8c0 e8d4 1641 b84c c7bf
000002f0: caef 1540 9070 51c0 0557 1bc1 9f5b 9dc0
00000300: d2be 8c3f 38d5 45c0 0ec7 d540 77dd 7c40
00000310: 8a22 fe3f 085c eec0 65be 77c0 c1ad 0941
00000320: d909 bfbf 5fec 83c1 1649 b240 bb60 5c40
00000330: 1bae cfbf bf47 1040 113a 583f e42c 5ec1
00000340: c41b 3841 3810 69c0 e0d4 7dbd 8dcc cc40
00000350: a382 9bc0 be4f db40 9884 6a40 e47e 2841
00000360: c46e a7c0 05d6 5740 cfd8 cac0 3af9 d1be
00000370: 0811 3c40 606e 9940 9f11 54c0 5004 e040
-0.364107 -4.7113466 4.4611974 -1.6422267 -4.901095 -2.2214785 -0.4232763 11.438585
-0.0040702075 -4.888938 -6.5135584 10.521425 4.4120307 5.30268 1.240291 4.066894
-4.4227924 -5.0527887 4.50347 5.1226115 -0.85905766 -3.9039214 0.6135037 19.686644
-3.119894 -1.9974473 8.419987 -0.11026049 8.065361 -3.7447362 -6.522594 1.7062107
5.4311056 4.908795 -2.1649225 -1.9161541 -11.481635 7.9185095 -0.35947156 -1.6954378
9.338458 0.88560367 6.509691 8.989002 -8.72455 2.5267937 5.5534086 4.314803
-4.5975866 6.184983 4.2402954 -2.9067032 -1.3795706 -1.9583791 3.5817897 3.2880633
5.33843 7.250723 3.3108582 -0.29577693 3.191525 -8.475764 0.25715536 -2.4526305
1.7651815 9.4690485 0.041329026 0.9831665 1.2135441 5.556624 -1.1201518 10.877045
12.17841 -6.9195356 -7.7093525 -8.299265 -1.1557072 -0.3924937 -10.768082 -10.078251
0.61982137 4.512301 4.1161203 -0.9729232 -1.3770705 -10.016652 -1.459729 5.429974
3.0864758 -3.8612924 8.743415 5.034195 -11.001187 -2.544201 -13.826455 1.7864711
-3.8937376 -4.526907 -1.322928 3.3639677 -2.2015164 1.3126231 -1.2474535 2.7229114
3.2091281 -5.836478 1.7898781 -6.8685446 7.698686 5.9900045 0.91635907 -0.5254194
9.76577 -3.8919702 -5.230743 -1.605856 2.5425673 0.9605631 -2.6479812 7.402868
2.3756843 -4.9029827 -3.7201273 -0.23337153 -12.275264 -5.0877805 3.1734648 4.4943614
-7.601655 8.107186 -3.0187974 3.54405 3.9064302 -4.2332954 -5.012923 0.6975721
5.049538 2.1879144 5.9266586 6.3746686 3.2705007 2.3602808 1.6371001 5.547119
2.5689461 7.8290854 -0.179348 -5.162356 0.53783846 -5.5117927 3.3339107 -3.6301744
1.2383853 0.37399164 3.0716937 10.9494 0.31481504 3.3984656 -2.865019 14.030474
1.9291124 -9.590531 -13.297563 0.5790944 -0.09136158 -8.205041 -3.7585359 -12.817565
-0.99725467 7.630774 1.5989121 10.913805 -2.2442784 0.97098315 -4.6588864 8.978562
4.997966 4.8030057 13.478596 -11.382382 4.451788 0.36605787 -11.61239 -5.6915674
-6.0775256 -7.2656097 9.426979 -1.5570288 2.3427606 -3.2724953 -9.708745 -4.917434
1.0995734 -3.0911388 6.6805487 3.9510171 1.985429 -7.4487343 -3.8709958 8.60492
-1.492488 -16.490416 5.5714216 3.443404 -1.6225008 2.254379 0.844636 -13.88596
11.506779 -3.641615 -0.06197059 6.3999696 -4.859697 6.853484 3.6643429 10.530979
-5.232271 3.3724377 -6.338966 -0.41010457 2.9385395 4.7947235 -3.3135755 7.0005264

fc1.bias f4 [8]
00000000: 4c86 e03e 71ab e0c0 6044 0ac1 327a aec0
00000010: 8ac7 0041 183e d240 f36c 9c40 1e4c 49c1
0.4385246 -7.020928 -8.641693 -5.4524164 8.048716 6.57008 4.8882995 -12.581083

fc2.weight f4 [4, 8]
00000000: 7c04 f7c0 4a6e a5c0 cb86 1b41 61bc a140
00000010: d8ac 4cc1 8402 3b41 3a10 1641 2e4a 90c0
00000020: 096a 4bc0 24c6 5a40 dbe7 0340 dc76 ad3f
00000030: 2bf0 dbc0 3cd6 8bc0 682f c0c0 2b79 bb40
00000040: ca0c 973f e298 7b40 1387 9bc0 8724 8dc1
00000050: 0f62 b2c0 f464 ad40 dcd4 5a41 03c8 a0c0
00000060: 2266 d33e 1a12 b040 e5f2 dbc0 3579 bc40
00000070: 7173 1541 7c38 fe3f f7db 8140 990b 1340
-7.7192974 -5.169713 9.720408 5.0542455 -12.792198 11.688114 9.378962 -4.509055
-3.1783469 3.4183435 2.0610263 1.3551898 -6.8730674 -4.3699017 -6.005787 5.858541
1.1800778 3.9312062 -4.8602386 -17.642836 -5.57447 5.4185734 13.676968 -5.0244155
0.4128886 5.5022097 -6.8734 5.889796 9.340684 1.9860988 4.058101 2.2975829

fc2.bias f4 [4]
00000000: 4ff3 aac0 fd32 b5c0 aea4 5840 6371 1041
-5.3422008 -5.662474 3.3850513 9.027682
