model/model98.pth (torch, 2591 bytes, 4 tensors)

fc1.weight f4 [8, 28]
0	0xc140bd04	-12.046146
1	0xc19e8649	-19.815569
2	0xc04bc977	-3.1841714
3	0xc0e426fa	-7.129758
4	0xc0d97d5c	-6.7965527
5	0xc192cac9	-18.349016
6	0xc18ecd4f	-17.850248
7	0x415591a9	13.348062
8	0xc15e2d87	-13.886115
9	0xbe456746	-0.19277677
10	0x4134bd50	11.296219
11	0x411a566e	9.646101
12	0xc0d64dd4	-6.6970005
13	0x41bba4da	23.455494
14	0xc0fa7230	-7.826439
15	0x403a78a2	2.9136128
16	0x40b26cc5	5.5757775
17	0xc1f1791b	-30.184134
18	0xc0c87b3a	-6.2650423
19	0x405efdf7	3.4842508
20	0x411bf838	9.7481
21	0x41923a19	18.278368
22	0xc2600b1f	-56.01086
23	0x41796fe9	15.589822
24	0xc1c6afa7	-24.835768
25	0x4198e3fc	19.11132
26	0x4112a301	9.164796
27	0xc1134178	-9.203484
28	0x41b65f8e	22.796658
29	0xbe8b761b	-0.27238545
30	0xc0cfcd41	-6.4938054
31	0x40be4481	5.9458623
32	0x40ff8aae	7.9856787
33	0xc0a64e88	-5.1970863
34	0xc1155c15	-9.334981
35	0xbee395f1	-0.44450334
36	0xc1ca9b9b	-25.32598
37	0x420714e6	33.77041
38	0xc0691083	-3.6416328
39	0xc018a0dc	-2.384818
40	0x40aabb0c	5.335333
41	0xc1b56bfd	-22.677729
42	0x41ecec8e	29.615505
43	0x420ef2da	35.73716
44	0x41b7be5f	22.967955
45	0x41caf844	25.371223
46	0x4183baa6	16.466137
47	0x41bf913a	23.945911
48	0x41773d83	15.4525175
49	0x4007e88a	2.123568
50	0x408e568e	4.4480658
51	0x4183729c	16.430962
52	0xc1d17f90	-26.187286
53	0x3fe2655d	1.7687184
54	0xc0552eff	-3.3309934
55	0xc1ae63d4	-21.798744
56	0x4185ee18	16.741257
57	0x405e7fdf	3.4765546
58	0xbfe6e51e	-1.8038671
59	0xbfd2731f	-1.6441382
60	0x418b8774	17.44114
61	0xc15a3c66	-13.639746
62	0x3fd9568e	1.6979539
63	0x4119e7b0	9.619064
64	0xbe4682bc	-0.19385809
65	0x41d26241	26.297976
66	0xc1b5d679	-22.729723
67	0x3fd00f77	1.625472
68	0xc11d3028	-9.824257
69	0x40381824	2.8764734
70	0x41aaf88d	21.371363
71	0x41f492ab	30.571615
72	0x41ef15c4	29.885628
73	0xc1c2bd97	-24.342573
74	0xc1cee7fc	-25.863274
75	0xc1ad720c	-21.680687
76	0xc12731ab	-10.449626
77	0xc102d390	-8.176651
78	0x408b450a	4.3521776
79	0x40402046	3.0019698
80	0xc09362bf	-4.605804
81	0x4115f6a6	9.372717
82	0x41107e2a	9.030802
83	0xc0b47695	-5.6394753
84	0x41827983	16.309332
85	0x422bc2f4	42.940384
86	0x4022e7dd	2.5454018
87	0xbfd55d60	-1.6669121
88	0xc111a67b	-9.103145
89	0xc011543c	-2.2707663
90	0x415ca81e	13.791044
91	0x41105d98	9.02285
92	0xc128a164	-10.539402
93	0xc0ecf9a9	-7.405476
94	0xc1680176	-14.500357
95	0x419c448f	19.533476
96	0xc10314d6	-8.192587
97	0x3cd23f50	0.025664955
98	0x41df59ce	27.91885
99	0x40badb49	5.839268
100	0x41c15e61	24.171083
101	0xc0963bd1	-4.694802
102	0xc1dca284	-27.579353
103	0x418ce015	17.609415
104	0x409d701c	4.919935
105	0xc1ab3039	-21.398546
106	0xc1768946	-15.408514
107	0x3ee456c1	0.44597438
108	0x41d357f5	26.417948
109	0x412aa2cb	10.664744
110	0xc1387824	-11.529331
111	0xc10fc768	-8.986183
112	0x41bbef84	23.491951
113	0x3de0d042	0.10977222
114	0xc08c476a	-4.3837175
115	0xbf31a10d	-0.6938637
116	0x3feb5173	1.8384231
117	0x3fe79911	1.8093587
118	0xc000b692	-2.0111432
119	0x41b91413	23.134802
120	0xc0b53d28	-5.6637154
121	0x419816b7	19.011091
122	0xc10854bb	-8.520686
123	0x40d79c0e	6.7377996
124	0xc1ad8709	-21.690935
125	0x4135f0c2	11.371279
126	0x415f713b	13.965144
127	0x3e8eea03	0.27912912
128	0x40aef1cc	5.467016
129	0x4234ac5d	45.168324
130	0x4086bd9a	4.2106447
131	0x409369cb	4.606664
132	0xc07df104	-3.9678354
133	0x406e4ce4	3.723443
134	0x40f7536a	7.7289324
135	0xc01b1f9a	-2.4238038
136	0x41b4f634	22.620216
137	0x4196d43e	18.853634
138	0x4148fae6	12.5612545
139	0x40511554	3.2669268
140	0x4144140e	12.254896
141	0xc20c7f79	-35.124485
142	0x418d799a	17.684376
143	0xc0dc1570	-6.877617
144	0xc09ed0a5	-4.9629693
145	0x40533e08	3.300661
146	0x4184178a	16.511494
147	0xc07ef43e	-3.9836574
148	0xc16bd501	-14.739503
149	0xc1a715c9	-20.885637
150	0x41e9dee0	29.233826
151	0xc1ce343b	-25.775503
152	0xbfe70332	-1.804785
153	0xc0ef7b02	-7.4837656
154	0xc10f0372	-8.938341
155	0xc145c8d4	-12.36153
156	0x412003fa	10.000971
157	0xc04ca90f	-3.1978185
158	0x414103b4	12.063404
159	0x40f5d609	7.6823773
160	0x41ccdbca	25.607319
161	0x40efe12f	7.496238
162	0xc20cc812	-35.19538
163	0xc02bb78c	-2.6830778
164	0xc15542a0	-13.328766
165	0x403512b9	2.8292677
166	0xc000cca6	-2.0124907
167	0xc14f162a	-12.942911
168	0x42191576	38.270958
169	0xc09efd1a	-4.968396
170	0x40e25995	7.0734353
171	0xc202aaee	-32.666924
172	0xc122a1ca	-10.164499
173	0xbe1d1854	-0.15341312
174	0xc164b45f	-14.294036
175	0x41d26c5a	26.302906
176	0xc18b64eb	-17.424276
177	0xc148beaf	-12.546554
178	0x40f30c0b	7.59522
179	0xc1615bf1	-14.084947
180	0x40b4f9c2	5.655488
181	0x418c88b9	17.56676
182	0xc22ecbd9	-43.69907
183	0x3e2cda96	0.16880259
184	0x41eb381f	29.402403
185	0xc0dba357	-6.863689
186	0x41da1625	27.260813
187	0xc1758109	-15.344003
188	0x417acf4c	15.67561
189	0x4091f86b	4.5615745
190	0xc141ec75	-12.120229
191	0xc1d9aa9b	-27.208303
192	0xc0d5d467	-6.682178
193	0x41c2ed04	24.36573
194	0x4137bb11	11.4831705
195	0xc1a9d014	-21.2266
196	0x4017e315	2.373235
197	0x41e34b74	28.411842
198	0xc0318c19	-2.774176
199	0x3e3685dc	0.17824501
200	0xc02f630b	-2.74042
201	0xc210aaa9	-36.16666
202	0x419fcbca	19.974506
203	0xc20384ec	-32.879807
204	0xc0fb9eb8	-7.863125
205	0x41642437	14.2588415
206	0xc12a4be0	-10.643524
207	0x41a4e4b9	20.611681
208	0x4182d34c	16.353172
209	0xc0024096	-2.035192
210	0x41290cc8	10.56562
211	0xc1447eb7	-12.280936
212	0xc215e23b	-37.47093
213	0x418aad6d	17.33468
214	0x3f3d3336	0.73906267
215	0xc099e69f	-4.809402
216	0x412ce041	10.8047495
217	0xc0f6ab22	-7.70839
218	0xc173e658	-15.243736
219	0x40b3a36f	5.6137004
220	0xc1142e22	-9.261263
221	0x4171b5b2	15.106859
222	0xbf8b4ee2	-1.0883448
223	0xc1258dc8	-10.347115

fc1.bias f4 [8]
0	0xc1b58496	-22.68974
1	0xbfdfdac2	-1.7488635
2	0xc0da6024	-6.824236
3	0xc070acc3	-3.7605445
4	0xc1cc970c	-25.573753
5	0x40ff4b6f	7.977958
6	0x414ad47c	12.676876
7	0xc1e1297e	-28.14526

fc2.weight f4 [4, 8]
0	0xc1430e56	-12.191
1	0xc227384c	-41.804977
2	0x421dd95e	39.462273
3	0x4108a6d2	8.540728
4	0x3f8a5db0	1.0809841
5	0x41b40363	22.501654
6	0xc18f8f01	-17.944826
7	0xc134c375	-11.297719
8	0x41bfcfbe	23.976437
9	0xbfe98a22	-1.824528
10	0x41a663fa	20.798817
11	0x4198ddc9	19.108294
12	0x4124dc8a	10.303843
13	0xc0f6e696	-7.7156477
14	0xc22c06f2	-43.006783
15	0x40864d86	4.1969633
16	0x40f2e276	7.590144
17	0xc16d510b	-14.832286
18	0x41aab15c	21.336601
19	0xc2326f51	-44.608707
20	0x400f5d82	2.2400823
21	0xc110a523	-9.040317
22	0x4207d79b	33.960552
23	0xc09b34d2	-4.850198
24	0x417acc1c	15.674831
25	0x4100595f	8.021819
26	0xc0864b1a	-4.1966677
27	0x4021f4e7	2.5305727
28	0x41e2d1c8	28.352432
29	0x40d1de24	6.558367
30	0xc1807c26	-16.06062
31	0xc21b9e37	-38.904507

fc2.bias f4 [4]
0	0xc1e3c51e	-28.471249
1	0xc032e376	-2.795133
2	0xc0c28961	-6.07927
3	0xc1325dc4	-11.147892
