model/model64.pth (torch, 2591 bytes, 4 tensors)

fc1.weight f4 [8, 28]
-2.6515326 -13.848774 -3.3820043 -6.7402797 -11.2070465 -19.81647 -26.48831 14.022548
-16.503717 -4.584451 13.920603 -1.9165224 -10.148817 14.928672 -10.142431 2.6585991
-3.1664867 -30.277931 -5.662247 7.226859 17.852074 7.1623125 -54.939137 12.711493
-28.27573 15.483329 6.4178767 -7.4794836 30.228632 2.143805 -14.162281 14.26239
18.653275 -1.6682515 -16.290789 1.4796686 -22.015135 33.372288 -11.311069 0.90347487
3.0306766 -24.807459 28.62082 33.6057 11.61287 31.964441 25.215704 22.1162
15.556854 -1.6099159 1.2924569 16.374044 -24.135223 0.9235581 -12.20422 -22.694805
27.104631 4.6494193 -1.8100135 -10.755285 27.5848 5.2072344 -2.5404592 15.112199
1.6249812 25.917639 -23.389496 8.463254 -5.5202546 -3.4926424 16.45144 31.247017
25.43674 -22.43533 -19.462442 -13.731925 -8.15164 -7.193871 7.7423763 3.5602374
-9.4793825 8.060684 7.639353 3.0803018 12.999953 42.88267 6.8886714 0.6446787
-10.7056465 5.6658344 4.1000857 4.427843 -8.857527 -11.855634 -16.847383 18.277117
-2.42541 -1.9475417 21.844112 -4.882157 21.647802 5.4230185 -30.308582 32.181282
4.8086743 -18.853718 -19.015905 -4.4442115 29.837189 8.4135685 -11.646205 -12.296793
30.420345 -1.6569345 -6.5241084 11.964622 0.66970813 -3.4037085 -11.129399 23.096548
-6.6404934 12.304538 -4.499871 3.7389247 -16.27288 11.119207 15.949591 1.570303
7.1616254 47.711613 1.820134 0.2337302 -5.5092344 -3.3789992 -2.4241793 2.566776
20.299603 12.464263 28.447618 -0.22839867 20.312254 -28.185833 15.210727 -4.3117075
-9.485161 13.821169 15.686685 -7.017921 -21.660868 -9.118976 38.867092 -28.22106
-4.137585 -13.971079 -5.8762527 -10.840518 22.701458 -12.081096 5.2164397 -3.1208909
29.457302 -2.6720424 -40.015594 -2.6771905 -11.659173 9.242972 -7.05459 -15.143415
37.953865 -4.3208385 5.6629534 -31.457771 -9.704158 -12.391283 -8.874662 25.240137
-27.64163 -13.631007 1.4649498 -15.915497 1.4689537 14.162509 -47.082893 -4.2236805
23.43869 -2.7044332 32.268482 -19.783848 20.451683 -0.7061714 -6.476829 -21.966488
-0.12757255 24.069485 16.93762 -27.476898 -3.2686243 28.578968 0.44680113 -0.5180367
7.3050475 -36.634052 3.5262182 -25.891407 -9.293943 13.108583 -16.209072 19.64737
24.455444 7.313353 6.2630715 -15.309531 -43.76955 13.851312 -5.278683 -1.4304683
19.42143 -10.454575 -14.316934 4.500769 -14.810199 15.860493 -8.930025 -11.796383
00000000: b6b2 29c0 9494 5dc1 c272 58c0 5fb0 d7c0
00000010: 1050 33c1 2188 9ec1 0fe8 d3c1 5b5c 6041
00000020: 9d07 84c1 d3b3 92c0 caba 5e41 9b50 f5bf
00000030: 8e61 22c1 d7db 6e41 6647 22c1 7d26 2a40
00000040: b8a7 4ac0 3439 f2c1 2131 b5c0 6e42 e740
00000050: 0cd1 8e41 aa31 e540 adc1 5bc2 4662 4b41
00000060: b234 e2c1 b7bb 7741 3f5f cd40 ee57 efc0
00000070: 3dd4 f141 1a34 0940 b498 62c1 c032 6441
00000080: e839 9541 4489 d5bf 8953 82c1 c865 bd3f
00000090: ff1e b0c1 397d 0542 23fa 34c1 214a 673f
000000a0: 9bf6 4140 ad75 c6c1 70f7 e441 3d6c 0642
000000b0: 51ce 3941 2db7 ff41 c3b9 c941 faed b041
000000c0: e0e8 7841 b911 cebf 3a6f a53f 0bfe 8241
000000d0: f014 c1c1 4e6e 6c3f 7c44 43c1 f68e b5c1
000000e0: 49d6 d841 0bc8 9440 86ae e7bf a615 2cc1
000000f0: acad dc41 aaa1 a640 e296 22c0 91cb 7141
00000100: 62ff cf3f 5357 cf41 b01d bbc1 7d69 0741
00000110: eda5 b0c0 7487 5fc0 8d9c 8341 e4f9 f941
00000120: 727e cb41 8e7b b3c1 15b3 9bc1 f7b5 5bc1
00000130: 1e6d 02c1 3134 e6c0 8cc1 f740 eeda 6340
00000140: 8dab 17c1 90f8 0041 9475 f440 aa23 4540
00000150: cfff 4f41 db87 2b42 ff6f dc40 aa09 253f
00000160: 544a 2bc1 844e b540 e733 8340 e4b0 8d40
00000170: 6eb8 0dc1 adb0 3dc1 71c7 86c1 8937 9241
00000180: eb39 1bc0 0c49 f9bf bec0 ae41 a13a 9cc0
00000190: b32e ad41 5e89 ad40 fa77 f2c1 a2b9 0042
000001a0: a9e0 9940 6ad4 96c1 9320 98c1 fb36 8ec0
000001b0: 90b2 ee41 fa9d 0641 db56 3ac1 aabf 44c1
000001c0: de5c f341 6e16 d4bf 7fc5 d0c0 176f 3f41
000001d0: fe71 2b3f 5cd6 59c0 0512 32c1 bbc5 b841
000001e0: ec7e d4c0 63df 4441 f1fe 8fc0 8b4a 6f40
000001f0: dc2e 82c1 46e8 3141 8631 7f41 b0ff c83f
00000200: 092c e540 b1d8 3e42 27fa e83f f856 6f3e
00000210: a64b b0c0 8641 58c0 c125 1bc0 0f46 2440
00000220: 9665 a241 9f6d 4741 b994 e341 57e1 69be
00000230: 7f7f a241 967c e1c1 235f 7341 82f9 89c0
00000240: 38c3 17c1 8223 5d41 a9fc 7a41 cf92 e0c0
00000250: 7549 adc1 53e7 11c1 e777 1b42 bbc4 e1c1
00000260: 1967 84c0 8a89 5fc1 430a bcc0 c372 2dc1
00000270: 969c b541 2b4c 41c1 13ed a640 adbc 47c0
00000280: 8ea8 eb41 be02 2bc0 f80f 20c2 1757 2bc0
00000290: f98b 3ac1 37e3 1341 34bf e1c0 6e4b 72c1
000002a0: c2d0 1742 4f44 8ac0 ea36 b540 84a9 fbc1
000002b0: 3b44 1bc1 b242 46c1 9efe 0dc1 cdeb c941
000002c0: 0f22 ddc1 9b18 5ac1 7a83 bb3f e0a5 7ec1
000002d0: ad06 bc3f a399 6241 e254 3cc2 6428 87c0
000002e0: 7082 bb41 6f15 2dc0 ed12 0142 5245 9ec1
000002f0: 0c9d a341 a6c7 34bf 2f42 cfc0 5ebb afc1
00000300: 61a2 02be 4e8e c041 3f80 8741 b0d0 dbc1
00000310: 2431 51c0 baa1 e441 1ec3 e43e 0e9e 04bf
00000320: f3c2 e940 4589 12c2 8fad 6140 9a21 cfc1
00000330: feb3 14c1 c2bc 5141 2eac 81c1 d02d 9d41
00000340: c0a4 c341 fd06 ea40 156b c840 d7f3 74c1
00000350: 0514 2fc2 f99e 5d41 f9ea a8c0 9619 b7bf
00000360: 175f 9b41 f045 27c1 2912 65c1 4d06 9040
00000370: 93f6 6cc1 94c4 7d41 62e1 0ec1 fcbd 3cc1

fc1.bias f4 [8]
-22.144451 -6.5470023 -6.8981953 0.55329347 -30.193913 4.7077174 13.173194 -28.73497
00000000: d627 b1c1 0b81 d1c0 04be dcc0 a4a4 0d3f
00000010: 228d f1c1 9fa5 9640 67c5 5241 38e1 e5c1

fc2.weight f4 [4, 8]
-5.7255106 -45.00629 36.070286 2.2432709 6.90282 35.222057 -15.374833 -14.793357
29.512287 1.0896286 18.951689 28.161259 8.176731 -11.85542 -45.86583 3.3300495
11.1152725 -15.522162 28.89899 -53.647682 9.207724 -4.8921804 27.312824 5.3801126
11.111922 16.697151 -4.226941 -0.25996292 29.315693 15.414882 -15.845672 -31.620983
00000000: 6237 b7c0 7106 34c2 f947 1042 c091 0f40
00000010: e7e3 dc40 63e3 0c42 51ff 75c1 97b1 6cc1
00000020: 2a19 ec41 f378 8b3f 0f9d 9741 424a e141
00000030: e4d3 0241 cdaf 3dc1 9c76 37c2 881f 5540
00000040: 28d8 3141 c75a 78c1 2231 e741 3a97 56c2
00000050: d652 1341 be8c 9cc0 aa80 da41 e229 ac40
00000060: 6fca 3141 c493 8541 1a43 87c0 dc19 85be
00000070: 8a86 ea41 5ba3 7641 df87 7dc1 c6f7 fcc1

fc2.bias f4 [4]
-26.335688 3.2279868 -1.9220475 -8.525562
00000000: 7daf d2c1 5697 4e40 a705 f6bf b468 08c1
