model/model87.pth (torch, 2591 bytes, 4 tensors)

fc1.weight f4 [8, 28]
00000000: 2fec 3bc0 ac28 9ac1 42d8 cabf 0177 c1c0
00000010: dad7 09c1 4349 8dc1 48f9 cac1 455d 3941
00000020: 53ee 76c1 e0e6 6cc0 06ae 8d41 f0d3 65bf
00000030: 4804 17c1 43ae 5941 f347 20c1 3d66 8a3f
00000040: adac 3fc0 0630 f2c1 bb3f 18c0 e707 f040
00000050: 9934 9841 f093 c340 1c17 58c2 d218 6141
00000060: 3d97 d1c1 180b 5c41 0ffc cd40 c373 e0c0
00000070: 2165 0542 129c 1f40 60a1 96c1 9e05 8641
00000080: f8f4 8b41 9f2c 34c0 8466 75c1 f08d fc3e
00000090: a903 9ec1 65bd 0d42 f05b 44c1 bcb0 ed3f
000000a0: 3f6d 8b40 038d c0c1 e2b8 e441 514a 0342
000000b0: d019 5541 1c0a e341 4d38 b541 4d5c bb41
000000c0: 4cb1 5941 96e4 afc0 9323 0840 a90c 5d41
000000d0: ae45 cfc1 c161 f93f a237 3ac1 7cd8 c2c1
000000e0: e2e7 e141 5536 a440 da7f 28bd b21a 06c1
000000f0: ce60 dc41 19ff 8140 3744 88c0 587b 6741
00000100: b86c d53e 81d6 e141 5b7c afc1 c92a 0441
00000110: 8713 a8c0 e15b 1ac0 5c8d 9141 56f8 0642
00000120: 5161 be41 f5bc bac1 4b1c 96c1 7e27 76c1
00000130: 9b43 d9c0 1b1d 9ac0 9bde f940 bbc5 ad40
00000140: d5d7 33c1 8876 e540 0360 0741 114d f93f
00000150: dabd 4441 5ff6 3142 ac72 cf40 bc9c 53bf
00000160: 11b3 4ec1 f795 f840 830d df3f 287b c340
00000170: 55a3 2fc1 986d fec0 03c2 89c1 0efd 8141
00000180: db7a b53f 48a9 dcbf 8679 c341 7829 e5c0
00000190: 1c71 a441 639a 6040 11c8 15c2 51fa fa41
000001a0: 1726 8440 09eb a6c1 de95 a5c1 86e4 75c0
000001b0: 8e98 dd41 fdab e140 2744 4fc1 ecf9 3bc1
000001c0: eef5 e841 8f3a fe3f 0906 e4c0 ddc4 4b41
000001d0: 3807 8540 d64a 2c40 8856 12c1 b7c7 8c41
000001e0: 3c8b a4c0 0f62 4941 c797 bcc0 244d 2e40
000001f0: 1e77 88c1 d0a5 1741 d906 9c41 05a2 ac3f
00000200: e347 b840 e826 3442 ae7a 0540 6683 dd3f
00000210: 166b a4c0 440d 37c0 ce77 03c0 1615 6640
00000220: f67a bc41 38c5 3341 d3d6 d741 4a8b 1e40
00000230: 68ba 9341 5205 dec1 6d5a 8041 cf1f a5c0
00000240: 8ed2 19c1 4be5 4441 733e 5c41 9dec b3c0
00000250: 1b2b 9cc1 56f0 04c1 e9f2 1242 f89b e6c1
00000260: 04bc 01c0 3189 45c1 e1f8 b5c0 457b 20c1
00000270: 2da2 c441 37cd 43c1 be43 ed40 d63f e7bf
00000280: 8440 ee41 ce41 bbc0 a757 28c2 7e3d 46c0
00000290: f958 3ac1 ff7d 0541 9e65 a4c0 04b5 67c1
000002a0: 7363 2242 0f70 d3c0 48f9 893f 561a f8c1
000002b0: 4946 c8c0 757a 41c1 ecc7 0bc1 d7f7 d441
000002c0: 0398 edc1 68a8 3ac1 f2b9 3840 cda8 80c1
000002d0: acec 2140 7fdb 6541 5755 31c2 53a1 66c0
000002e0: 2dc7 c041 d11f 15c0 50e2 0442 5a08 8dc1
000002f0: 50e7 9341 f1d5 ca3e 049d e2c0 7d2c bec1
00000300: fa7d 02c0 78ee 9241 4201 8741 ea96 ebc1
00000310: 17db 24c0 a7ad bd41 3d97 1a3e 94b2 11c0
00000320: 0bc5 1941 e7c4 11c2 72d9 9c40 ad52 d4c1
00000330: 7111 24c1 aa6e 2241 6744 7bc1 cd3d 9041
00000340: 65b3 ba41 ddf6 9d40 3717 ec40 c5dc 86c1
00000350: 3285 2cc2 398d 8141 cbe4 e4c0 64d9 eabf
00000360: 5738 a441 dc10 25c1 d3d0 57c1 f3ea aa40
00000370: 3415 5cc1 38dc 4f41 9ac3 1ec1 6b60 14c1
-2.9362905 -19.26986 -1.5847247 -6.045777 -8.615198 -17.660772 -25.37172 11.585271
-15.433185 -3.7015915 17.709972 -0.89776516 -9.438545 13.605044 -10.017566 1.0812451
-2.9949143 -30.273449 -2.3788898 7.5009646 19.025682 6.111809 -54.022568 14.06856
-26.198847 13.752708 6.437019 -7.014131 33.34876 2.4939008 -18.828796 16.752743
17.494614 -2.8152235 -15.337528 0.4932704 -19.751787 35.434956 -12.272446 1.856956
4.3570857 -24.068853 28.590275 32.822575 13.318802 28.379936 22.65249 23.420069
13.605785 -5.4966536 2.1271713 13.815591 -25.909023 1.9482957 -11.638582 -24.355705
28.238224 5.1316323 -0.041137554 -8.381517 27.547268 4.06239 -4.258327 14.467613
0.41684508 28.229738 -21.93572 8.260446 -5.2523837 -2.4118578 18.194023 33.742516
23.797518 -23.342264 -18.763815 -15.384642 -6.7895026 -4.816053 7.8084235 5.430387
-11.240193 7.170719 8.46094 1.9476644 12.2963505 44.490597 6.482748 -0.8266103
-12.918717 7.7683063 1.7425998 6.1087837 -10.977376 -7.950878 -17.219732 16.248562
1.4178118 -1.723916 24.434338 -7.161312 20.55523 3.509423 -37.445377 31.372225
4.1296496 -20.864763 -20.698177 -3.842073 27.69949 7.0522447 -12.954139 -11.748516
29.120083 1.9861621 -7.1257367 12.735562 4.157131 2.6920676 -9.146126 17.597517
-5.1419964 12.58644 -5.8935275 2.7234583 -17.058163 9.477982 19.503344 1.3486944
5.758775 45.037994 2.0856128 1.7305725 -5.138072 -2.8601847 -2.0541873 3.595037
23.56004 11.235649 26.979895 2.4772515 18.466019 -27.752598 16.044153 -5.160133
-9.613905 12.30598 13.765246 -5.6226335 -19.521048 -8.308676 36.737217 -28.826157
-2.0271006 -12.345994 -5.6866307 -10.030095 24.579187 -12.237601 7.4145193 -1.8066356
29.781502 -5.851783 -42.085598 -3.0975032 -11.646722 8.343261 -5.1374044 -14.481693
40.59712 -6.607429 1.07792 -31.01286 -6.2585797 -12.092397 -8.736309 26.621016
-29.699224 -11.666115 2.8863492 -16.082422 2.5300703 14.366088 -44.33334 -3.6035964
24.097254 -2.330067 33.22101 -17.629078 18.487946 0.3961635 -7.081667 -23.771723
-2.038939 18.36644 16.875614 -29.448689 -2.5758722 23.709791 0.15096755 -2.2765245
9.610606 -36.442287 4.9015436 -26.540369 -10.254258 10.152018 -15.7042 18.030176
23.337595 4.9363847 7.377834 -16.857798 -43.130074 16.193956 -7.152929 -1.8347592
20.52751 -10.316616 -13.488482 5.3411803 -13.755177 12.991264 -9.922754 -9.27354

fc1.bias f4 [8]
00000000: 0a26 c2c1 9506 f1c0 2b11 eec0 b496 ce3f
00000010: 8248 00c2 0327 a940 f2d8 5741 7979 e8c1
-24.268574 -7.5320535 -7.4395957 1.6139741 -32.07081 5.286012 13.490465 -29.059313

fc2.weight f4 [4, 8]
00000000: be84 a8c0 2cc8 36c2 83bd 1242 01be 3440
00000010: 3506 d440 e22d 0d42 8902 98c1 c2c2 7dc1
00000020: 43b3 e841 2431 59bf 144f 9941 b35b db41
00000030: cbd7 0e41 0af2 35c1 4000 3fc2 f4e0 ce40
00000040: fbe2 0541 988a 62c1 7cae f341 e503 56c2
00000050: 21b3 0741 9825 fbc0 2003 eb41 c086 a940
00000060: 3f46 2941 84cd 8941 4198 e2bf 8246 61be
00000070: d0cd 0242 05bd 6741 0fe5 81c1 6f09 07c2
-5.266204 -45.69548 36.68507 2.824097 6.6257577 35.294807 -19.001238 -15.860048
29.08753 -0.8484061 19.163612 27.419775 8.927684 -11.371592 -47.750244 6.46496
8.367915 -14.158836 30.460197 -53.503803 8.481233 -7.848339 29.376526 5.297699
10.57965 17.22535 -1.7702714 -0.21999553 32.70099 14.483647 -16.236845 -33.759212

fc2.bias f4 [4]
00000000: 4298 c0c1 525e 5540 1d27 24bf bb15 03c1
-24.074345 3.3338819 -0.6412218 -8.192805
