model/model85.pth (torch, 2591 bytes, 4 tensors)

fc1.weight f4 [8, 28]
000000 a9 f2 82 c0 78 03 86 c1 d8 89 5b c0 38 55 da c0
       -4.0921216 -16.751694 -3.4302883 -6.8229027
000010 34 3e 1d c1 5d 22 9c c1 ec d4 c7 c1 28 8c 5b 41
       -9.827686 -19.516779 -24.978966 13.721718
000020 f9 e8 7c c1 31 08 b1 c0 8b ff 65 41 a0 05 5b bf
       -15.806878 -5.53225 14.374888 -0.8555546
000030 c6 80 10 c1 3b 93 79 41 e6 f5 0e c1 64 bb 0a 40
       -9.031439 15.598445 -8.935034 2.1676874
000040 ae b2 38 c0 a3 29 f7 c1 db 8d 7c c0 a5 fb 02 41
       -2.8859057 -30.89533 -3.9461582 8.186437
000050 59 3b 89 41 ae 30 eb 40 15 cb 58 c2 ef d9 55 41
       17.153978 7.3496923 -54.198322 13.365706
000060 ed c5 dd c1 c7 fc 67 41 b6 24 e3 40 01 ea bd c0
       -27.721643 14.499213 7.0982313 -5.934815
000070 b5 a7 f8 41 de aa f7 3f f0 b9 89 c1 55 c0 6e 41
       31.081888 1.934902 -17.21579 14.921956
000080 38 90 96 41 38 8e 5b c0 67 58 72 c1 07 31 76 3f
       18.82042 -3.4305553 -15.146583 0.9616856
000090 d4 16 af c1 02 99 04 42 b4 4d 40 c1 85 9d 24 40
       -21.886147 33.14942 -12.0189705 2.5721142
0000a0 29 6b 0b 40 df 5f c7 c1 b5 ca dd 41 0d 2e f6 41
       2.1784155 -24.921812 27.723978 30.772486
0000b0 33 8d 53 41 56 f1 ff 41 d0 07 bf 41 b0 44 ba 41
       13.221972 31.99284 23.878815 23.283539
0000c0 b8 db 65 41 84 92 e8 bf 5a a8 30 40 4f 26 76 41
       14.366142 -1.8169713 2.7602754 15.384353
0000d0 b9 ba d0 c1 ca 8e 17 40 76 d8 47 c1 43 bb a8 c1
       -26.091173 2.3680902 -12.490347 -21.091436
0000e0 18 85 ea 41 ed 61 91 40 b4 51 96 bf 70 01 03 c1
       29.314987 4.543204 -1.1743684 -8.187851
0000f0 bf cc df 41 20 c1 35 40 1f 63 68 c0 d1 a2 62 41
       27.974974 2.8399124 -3.6310499 14.16475
000100 cc d3 f6 3f 98 80 dc 41 f0 5d bd c1 0d b3 01 41
       1.9283385 27.56279 -23.670868 8.106214
000110 3c f8 87 c0 a2 c4 3d c0 93 72 88 41 f5 2e f3 41
       -4.249052 -2.9651265 17.055944 30.397928
000120 13 b7 ce 41 1a 88 b2 c1 9c d8 aa c1 88 78 65 c1
       25.839392 -22.316456 -21.355766 -14.341927
000130 62 37 1c c1 8a 59 aa c0 6d 93 ed 40 6c 0a 8d 40
       -9.763521 -5.32343 7.4242463 4.407522
000140 f0 2c 39 c1 d9 62 a4 40 2f 33 09 41 b9 f1 d0 3f
       -11.573471 5.1370664 8.574996 1.6323768
000150 e8 a6 4d 41 6c 1a 28 42 74 d7 9e 40 c1 7a 12 bf
       12.853249 42.025803 4.9638004 -0.5721856
000160 ab 04 1e c1 d4 30 c5 40 8b 63 04 40 f0 33 96 40
       -9.87614 6.1622105 2.0685756 4.69384
000170 9a e0 27 c1 c1 b7 25 c1 39 0c 7a c1 87 1a 89 41
       -10.492334 -10.357362 -15.627984 17.137953
000180 85 9a 84 3f 06 22 4b c0 c3 69 b3 41 ff c9 ab c0
       1.0359656 -3.1739516 22.426641 -5.3684077
000190 a3 5f 95 41 14 2b 91 40 e4 ec 01 c2 09 3c 09 42
       18.671698 4.5365086 -32.48134 34.308628
0001a0 4b a6 9b 40 ca bf 97 c1 ab 19 98 c1 9d 9e 43 c0
       4.8640494 -18.968647 -19.012533 -3.056556
0001b0 42 6e ee 41 dc 7f 15 41 2a 8b 27 c1 57 82 2a c1
       29.803837 9.343716 -10.471476 -10.656821
0001c0 48 e2 f6 41 b7 bc c5 bf e7 01 ca c0 29 a4 5c 41
       30.860489 -1.5448216 -6.312732 13.790078
0001d0 76 0a a1 bd cd 95 50 c0 2f a0 27 c1 c4 03 a7 41
       -0.078633234 -3.259143 -10.476607 20.876839
0001e0 78 e7 90 c0 b9 90 54 41 97 74 62 c0 53 a0 9d 40
       -4.5282555 13.285333 -3.538366 4.925821
0001f0 fd 6a 79 c1 1b bc 1b 41 39 c8 91 41 21 2f 1e 40
       -15.58862 9.733424 18.222765 2.4716265
000200 fb fc cb 40 4a 59 3c 42 ff dd 1e 40 f6 43 d0 be
       6.3746314 47.087196 2.4822996 -0.4067685
000210 53 fa 8d c0 e1 64 05 c0 1a 1f 81 bf 3c ee c0 3f
       -4.436807 -2.0842822 -1.0087616 1.5072703
000220 c7 71 9b 41 0d e8 46 41 d8 8b d8 41 52 d0 23 3f
       19.430555 12.431653 27.068283 0.63989747
000230 3f 31 9c 41 93 b0 d6 c1 bf 33 5b 41 98 9e 94 c0
       19.524046 -26.836218 13.700133 -4.6443596
000240 f2 d5 1a c1 d9 d7 41 41 3c c1 82 41 bd ca 8b c0
       -9.677233 12.115197 16.344353 -4.3684983
000250 c3 be 9d c1 a6 21 09 c1 1f c8 16 42 40 e2 e6 c1
       -19.718145 -8.570715 37.69543 -28.860474
000260 58 f2 8b c0 8c 47 56 c1 26 56 e2 c0 67 dc 38 c1
       -4.373333 -13.3924675 -7.073016 -11.553809
000270 29 3f be 41 5e 3c 68 c1 38 23 f8 40 f4 0e d9 bf
       23.78084 -14.514738 7.754299 -1.6957688
000280 f7 cd e6 41 3d 7d 84 c0 63 e5 24 c2 7e 0e 96 c0
       28.850569 -4.140288 -41.22401 -4.689269
000290 24 cc 40 c1 9f 67 19 41 5d 99 bd c0 80 7c 5f c1
       -12.049839 9.587798 -5.924971 -13.9678955
0002a0 e6 5d 1c 42 f8 bb 27 c0 25 34 79 40 25 07 06 c2
       39.091698 -2.6208477 3.8938076 -33.506977
0002b0 dc a7 0a c1 d2 4d 3c c1 2c 61 13 c1 b3 97 e0 41
       -8.665981 -11.768999 -9.211224 28.074072
0002c0 e0 70 e0 c1 2e 9a 62 c1 ad 67 25 40 6f 32 74 c1
       -28.055115 -14.162642 2.5844529 -15.262313
0002d0 d0 f7 19 40 81 ef 6c 41 c9 e3 3b c2 4e 7e e6 bf
       2.4057503 14.808473 -46.972446 -1.8007295
0002e0 7c 1b be 41 8a 30 74 be 51 f8 07 42 ed 80 9a c1
       23.76342 -0.23846641 33.992496 -19.312952
0002f0 6c 0a 9c 41 45 7a 8c bf df 8e e6 c0 4c 3a b5 c1
       19.505089 -1.0974814 -7.2049403 -22.653465
000300 2f 29 eb bf 1b bb ae 41 88 b5 8d 41 76 5c d3 c1
       -1.8371943 21.84136 17.713638 -26.420147
000310 6a 92 b8 c0 f6 cf df 41 a2 14 0e be 93 61 4d c0
       -5.767873 27.976543 -0.13875058 -3.2090805
000320 d8 b6 04 41 dd 16 15 c2 da e9 a1 40 c7 17 d4 c1
       8.29464 -37.272327 5.0597963 -26.51161
000330 a1 51 1b c1 7f 0b 5c 41 4a 4e 72 c1 ff 38 96 41
       -9.707429 13.752807 -15.144114 18.77783
000340 fa d5 bd 41 0e d3 f2 40 6c 99 bb 40 3a 0b 71 c1
       23.72948 7.5882635 5.8624783 -15.065241
000350 35 36 2f c2 55 0d 72 41 f5 ca ac c0 48 24 91 bf
       -43.802937 15.128255 -5.399775 -1.1339197
000360 4d ec a6 41 bc 9d 26 c1 d4 cc 6c c1 8e d1 93 40
       20.865381 -10.413509 -14.800007 4.6193304
000370 24 8f 47 c1 4c d5 3b 41 48 8d e6 c0 1d 65 16 c1
       -12.472446 11.739574 -7.2047462 -9.399686

fc1.bias f4 [8]
000000 6f 08 b8 c1 a2 b7 c4 c0 fe 2c e7 c0 ba a8 a7 3e
       -23.004118 -6.147416 -7.224242 0.32745916
000010 72 e9 f7 c1 06 f8 a1 40 11 80 48 41 53 cd e9 c1
       -30.988987 5.0615263 12.531266 -29.225256

fc2.weight f4 [4, 8]
000000 a8 06 d5 c0 77 15 30 c2 1a 6e 11 42 64 9d 6b 3f
       -6.6570625 -44.02096 36.35752 0.92037034
000010 3f 5c e8 40 3f dc 0b 42 bc e7 73 c1 94 a7 7f c1
       7.2612605 34.965084 -15.244076 -15.978413
000020 99 36 e2 41 18 67 c2 be a7 96 91 41 2c f1 e0 41
       28.276659 -0.3796928 18.19856 28.11776
000030 af 6d 14 41 9a 86 43 c1 7f b1 3b c2 bc 32 b3 40
       9.276778 -12.220362 -46.923336 5.599943
000040 ab 9a 37 41 fb 70 61 c1 ea bf e2 41 b0 d5 50 c2
       11.475261 -14.090083 28.343708 -52.20868
000050 cf e6 ff 40 a3 0b d7 c0 f0 83 e2 41 9f 7f 8a 40
       7.996925 -6.7201705 28.314423 4.3280787
000060 7a 38 27 41 93 55 8e 41 8d 98 a4 c0 0e 19 79 3f
       10.451288 17.791784 -5.143622 0.97303855
000070 85 e9 ee 41 09 a7 59 41 74 d4 76 c1 05 a7 f2 c1
       29.864023 13.60328 -15.426868 -30.331553

fc2.bias f4 [4]
000000 a4 1e ca c1 57 d1 2e 40 06 61 87 c0 7d b7 e7 c0
       -25.264961 2.731527 -4.2305937 -7.2411485
