model/model73.pth (torch, 2591 bytes, 4 tensors)

fc1.weight f4 [8, 28]
000000 97 09 3c c0 02 d3 99 c1 80 be c4 bf f7 07 c2 c0
       -2.9380853 -19.228031 -1.5370636 -6.0634723
000010 ce 60 0a c1 fc 60 8d c1 51 ac ca c1 38 3e 39 41
       -8.648634 -17.672356 -25.334139 11.57769
000020 07 2b 77 c1 62 17 6b c0 36 90 8d 41 43 7d 6a bf
       -15.448005 -3.6733022 17.695415 -0.91597384
000030 ae f0 16 c1 eb d1 59 41 38 f2 1f c1 86 08 88 3f
       -9.43376 13.6137495 -9.996635 1.0627601
000040 34 b7 3f c0 84 ab f2 c1 f4 16 18 c0 79 b5 f0 40
       -2.9955568 -30.333748 -2.376401 7.5221524
000050 0c 58 98 41 91 34 c3 40 f6 12 58 c2 8d ee 60 41
       19.042992 6.100167 -54.018517 14.05824
000060 19 82 d1 c1 08 63 5b 41 53 32 cf 40 90 3d e0 c0
       -26.188524 13.711678 6.474893 -7.007515
000070 20 7a 05 42 90 07 21 40 c1 ba 96 c1 87 08 86 41
       33.369263 2.5160866 -18.841188 16.754164
000080 7c 88 8c 41 07 58 35 c0 37 cf 74 c1 0a b8 f1 3e
       17.566643 -2.8334978 -15.30059 0.47210723
000090 7a 15 9e c1 9c ce 0d 42 94 8b 44 c1 29 2b f2 3f
       -19.760487 35.451767 -12.284077 1.8919421
0000a0 59 bd 8b 40 55 94 c0 c1 d0 a9 e4 41 9e 5e 03 42
       4.3668637 -24.072428 28.582916 32.8424
0000b0 35 5e 55 41 15 11 e3 41 dc e6 b4 41 fd 15 bb 41
       13.3355 28.38334 22.612724 23.385736
0000c0 e2 ea 59 41 e5 06 af c0 82 c1 07 40 48 0c 5d 41
       13.619844 -5.4695916 2.1211858 13.815498
0000d0 9a 20 cf c1 1a b8 f4 3f d0 48 3a c1 0a b2 c2 c1
       -25.890919 1.9118683 -11.6427765 -24.336933
0000e0 6c 05 e2 41 15 3a a4 40 a0 e1 1a bd b9 c0 06 c1
       28.252647 5.13209 -0.03781283 -8.422051
0000f0 87 84 dc 41 d3 71 81 40 2f 93 87 c0 ca 82 67 41
       27.56471 4.0451446 -4.2367167 14.469431
000100 b2 5b e5 3e c4 b5 e1 41 fd 3f af c1 83 08 04 41
       0.4479652 28.213753 -21.906244 8.252078
000110 8c c6 a9 c0 c4 7d 19 c0 4d 62 91 41 c8 b4 06 42
       -5.3054867 -2.3983011 18.172998 33.676544
000120 29 53 be 41 02 f1 ba c1 ba 38 96 c1 6a 91 76 c1
       23.790606 -23.36768 -18.777699 -15.4105015
000130 82 c9 d9 c0 4d db 99 c0 ea 90 f8 40 59 cf ae 40
       -6.805848 -4.80802 7.7676897 5.462811
000140 dc ce 33 c1 d3 0d e6 40 4e 4d 07 41 1d ff f7 3f
       -11.238003 7.1891875 8.456373 1.9374729
000150 86 3e 45 41 77 e5 31 42 38 73 d0 40 00 b4 58 bf
       12.3277645 44.474087 6.514065 -0.8464966
000160 42 98 4e c1 6a 5c f7 40 64 16 de 3f f1 1a c4 40
       -12.912172 7.730031 1.7350583 6.1282887
000170 b0 85 30 c1 b7 99 fe c0 18 98 89 c1 fd c0 81 41
       -11.032639 -7.956264 -17.199265 16.219233
000180 c5 f9 bb 3f 02 c1 da bf 76 44 c3 41 3f be e4 c0
       1.4685599 -1.7090151 24.408428 -7.1482234
000190 5e 63 a4 41 fa 25 61 40 14 e2 15 c2 5d cc fa 41
       20.54852 3.517943 -37.47078 31.349787
0001a0 87 42 84 40 fd ab a6 c1 fb 80 a5 c1 09 29 76 c0
       4.133121 -20.833979 -20.687979 -3.8462546
0001b0 37 be dd 41 29 aa e1 40 80 ba 4f c1 6a 4c 3c c1
       27.717878 7.0520215 -12.983032 -11.768656
0001c0 d9 b6 e8 41 6d 44 fd 3f a4 ad e3 c0 70 ae 4b 41
       29.089281 1.9786507 -7.1149464 12.730087
0001d0 35 94 83 40 1a 8a 2c 40 6c 23 12 c1 37 db 8c 41
       4.1118417 2.695929 -9.133648 17.607038
0001e0 e3 e8 a4 c0 22 73 49 41 98 e1 bc c0 97 b7 2d 40
       -5.1534286 12.590609 -5.9025383 2.7143304
0001f0 bd 65 88 c1 87 aa 17 41 85 17 9c 41 21 23 af 3f
       -17.049677 9.479133 19.511484 1.3682595
000200 0e c9 b7 40 3c 37 34 42 0a ec 06 40 7d e6 de 3f
       5.743293 45.05394 2.1081567 1.741409
000210 79 4a a5 c0 0f 62 37 c0 c6 c0 03 c0 fb b7 64 40
       -5.165341 -2.86536 -2.058641 3.5737293
000220 b5 ae bc 41 5e 63 33 41 e6 45 d7 41 0f b7 1d 40
       23.585306 11.21176 26.90913 2.464298
000230 8d 11 94 41 a2 e4 dd c1 42 71 80 41 9b 21 a5 c0
       18.50857 -27.736637 16.055302 -5.160352
000240 3a 1a 19 c1 f9 b2 44 41 f7 7f 5c 41 03 dd b3 c0
       -9.568903 12.2936945 13.781241 -5.620729
000250 f7 1f 9c c1 8a 79 04 c1 0a f9 12 42 56 a1 e6 c1
       -19.515608 -8.279673 36.743202 -28.828777
000260 48 ba 01 c0 c1 d4 45 c1 5d f6 b6 c0 4c 80 1f c1
       -2.0269947 -12.364442 -5.7175736 -9.9688225
000270 dc 7f c4 41 7d af 43 c1 94 78 ec 40 ad f6 e8 bf
       24.562431 -12.230344 7.389719 -1.820028
000280 21 4a ee 41 0d 17 bc c0 b1 34 28 c2 5a 00 45 c0
       29.786196 -5.877814 -42.051456 -3.0781465
000290 c9 7d 3a c1 22 67 05 41 84 46 a3 c0 ca ea 67 c1
       -11.655709 8.337679 -5.102358 -14.494822
0002a0 8c 78 22 42 c8 8c d3 c0 c8 f2 85 3f 0b 47 f8 c1
       40.61772 -6.610935 1.0464716 -31.034689
0002b0 ee a1 c8 c0 5e 1f 41 c1 6d 84 0b c1 8d a3 d4 41
       -6.269767 -12.070158 -8.7198305 26.579859
0002c0 5b b2 ed c1 40 c4 3a c1 58 a0 38 40 7b e7 80 c1
       -29.712088 -11.672913 2.8847866 -16.113028
0002d0 95 63 1f 40 32 10 66 41 30 5e 31 c2 81 fd 63 c0
       2.490453 14.378954 -44.34198 -3.5623477
0002e0 be 09 c1 41 9a c1 15 c0 b3 f9 04 42 9b 36 8d c1
       24.129757 -2.3399415 33.243847 -17.651663
0002f0 92 f9 93 41 91 83 b9 3e b2 16 e2 c0 8f 26 be c1
       18.49686 0.3623319 -7.0652704 -23.768827
000300 d8 5c 02 c0 18 18 93 41 db cb 86 41 d8 d7 eb c1
       -2.0369167 18.386765 16.849539 -29.480392
000310 bd 15 26 c0 bf 92 bd 41 55 94 ca 3d cf 25 14 c0
       -2.5950768 23.696653 0.09891573 -2.3148077
000320 a2 62 19 41 5e e9 11 c2 af ed 9c 40 91 36 d4 c1
       9.58658 -36.477898 4.904014 -26.526644
000330 5d 1b 24 c1 eb 47 22 41 64 47 7b c1 24 7a 90 41
       -10.2566805 10.142558 -15.704929 18.059639
000340 a5 bb ba 41 9b aa 9e 40 62 67 eb 40 b5 c3 86 c1
       23.341623 4.958326 7.35637 -16.84556
000350 b2 8e 2c c2 db 88 81 41 c1 f4 e4 c0 f3 9e ee bf
       -43.13935 16.191824 -7.154877 -1.8642257
000360 50 2c a4 41 7f 90 24 c1 44 48 58 c1 3b 07 ab 40
       20.521637 -10.285277 -13.517643 5.3446326
000370 18 e9 5c c1 13 f5 4f 41 37 bb 1e c1 22 b5 14 c1
       -13.806908 12.997333 -9.920707 -9.294222

fc1.bias f4 [8]
000000 a9 2a c2 c1 a6 b8 f1 c0 66 9e ed c0 14 6e d0 3f
       -24.27083 -7.55379 -7.4255857 1.6283593
000010 65 49 00 c2 bc b6 a8 40 38 f0 57 41 ab 3a e8 c1
       -32.071674 5.2723064 13.496147 -29.028646

fc2.weight f4 [4, 8]
000000 91 9c a7 c0 88 d6 36 c2 55 9d 12 42 4f 2d 36 40
       -5.237862 -45.709503 36.653645 2.8465154
000010 9a 36 d5 40 88 1b 0d 42 47 b9 97 c1 b9 0d 7e c1
       6.662915 35.276886 -18.965467 -15.87835
000020 3f 7f e8 41 a3 12 63 bf 72 47 99 41 04 58 db 41
       29.062132 -0.8870031 19.159885 27.417976
000030 cb 58 10 41 4b 3a 35 c1 f6 ef 3e c2 14 9e ce 40
       9.021678 -11.326732 -47.734337 6.4567966
000040 94 88 05 41 98 20 62 c1 57 ed f3 41 aa 23 56 c2
       8.345844 -14.132957 30.490889 -53.53483
000050 85 b1 07 41 b7 e2 fa c0 ad 97 ea 41 03 cb a8 40
       8.48084 -7.840175 29.32406 5.2747817
000060 8f 7d 2a 41 ef 0b 8a 41 0b 86 dd bf 60 52 88 be
       10.655654 17.255827 -1.7306532 -0.26625347
000070 5c b5 02 42 70 b8 66 41 7c 65 81 c1 86 cf 06 c2
       32.67711 14.420029 -16.174553 -33.70266

fc2.bias f4 [4]
000000 b8 81 c0 c1 31 78 75 40 52 35 2e bf d0 45 f2 c0
       -24.06334 3.835461 -0.6805011 -7.571022
