model/model98.pth (torch, 2591 bytes, 4 tensors)

fc1.weight f4 [8, 28]
000000 56 07 3c c0 0e 3f 9a c1 c3 14 cb bf 1b 86 c1 c0
       -2.9379478 -19.280788 -1.5865711 -6.0476203
000010 5c ea 09 c1 d0 3d 8d c1 00 e0 ca c1 6d 2b 39 41
       -8.619717 -17.655182 -25.359375 11.573102
000020 3e f6 76 c1 a4 f3 6c c0 3b b3 8d 41 31 e7 63 bf
       -15.435118 -3.7023706 17.712515 -0.89024645
000030 c2 13 17 c1 81 de 59 41 01 47 20 c1 01 5c 8b 3f
       -9.442324 13.616822 -10.017335 1.0887452
000040 b1 20 3f c0 51 30 f2 c1 fd 83 17 c0 5f 04 ef 40
       -2.9863703 -30.273592 -2.367431 7.4692836
000050 85 37 98 41 a4 b6 c3 40 ba 04 58 c2 76 40 61 41
       19.02711 6.116045 -54.004616 14.078238
000060 93 8b d1 c1 0f 08 5c 41 f7 89 ce 40 4f 13 e0 c0
       -26.193151 13.751967 6.4543414 -7.002357
000070 04 65 05 42 9b ef 1e 40 31 94 96 c1 75 f1 85 41
       33.348648 2.4833744 -18.82236 16.742899
000080 39 28 8c 41 33 da 33 c0 26 5e 75 c1 af a1 ff 3e
       17.51964 -2.8101928 -15.335485 0.49928042
000090 70 02 9e c1 22 c5 0d 42 08 86 44 c1 83 8a ed 3f
       -19.75119 35.442513 -12.282722 1.8557895
0000a0 c7 7a 8b 40 60 64 c0 c1 19 a8 e4 41 41 54 03 42
       4.3587375 -24.049011 28.582079 32.83228
0000b0 d8 41 55 41 aa 05 e3 41 15 3e b5 41 84 4e bb 41
       13.328575 28.377766 22.655313 23.413338
0000c0 fb a6 59 41 5a 42 b0 c0 d0 f0 07 40 e4 15 5d 41
       13.603267 -5.5080996 2.124073 13.817844
0000d0 35 43 cf c1 21 5b fa 3f 3c 2f 3a c1 36 00 c3 c1
       -25.907816 1.955906 -11.636532 -24.375103
0000e0 01 d1 e1 41 07 46 a4 40 bd 7c 57 bd e5 09 06 c1
       28.227053 5.1335483 -0.052609194 -8.377416
0000f0 63 8f dc 41 05 8d 82 40 02 0d 88 c0 4b b8 67 41
       27.570013 4.0797143 -4.251588 14.482493
000100 59 cb ce 3e 35 d2 e1 41 1f 7f af c1 25 5d 04 41
       0.40389517 28.22764 -21.93707 8.27274
000110 79 35 a8 c0 83 0e 1a c0 64 80 91 41 16 f0 06 42
       -5.2565274 -2.4071357 18.18769 33.73446
000120 8f 75 be 41 ac c4 ba c1 e8 1c 96 c1 ca d2 75 c1
       23.807402 -23.346031 -18.764114 -15.363962
000130 76 39 d9 c0 c0 ef 99 c0 db 6d fa 40 e3 aa ad 40
       -6.7882643 -4.8105164 7.82591 5.42711
000140 50 df 33 c1 11 df e5 40 26 83 07 41 b2 9b fa 3f
       -11.24202 7.18348 8.469519 1.9578764
000150 7f a2 44 41 c7 ff 31 42 72 1d cf 40 14 a6 4f bf
       12.289672 44.499783 6.4723444 -0.8111279
000160 50 cf 4e c1 a9 84 f8 40 2c 10 dd 3f c5 b0 c3 40
       -12.925613 7.766194 1.727056 6.1153283
000170 67 a2 2f c1 9a a4 fe c0 28 ce 89 c1 07 da 81 41
       -10.977149 -7.957593 -17.225662 16.231459
000180 97 20 b5 3f 99 1d dc bf 37 93 c3 41 e3 2d e5 c0
       1.4150571 -1.7196532 24.446882 -7.1618514
000190 42 6c a4 41 17 7f 60 40 6f c4 15 c2 9d 0f fb 41
       20.55286 3.507757 -37.44183 31.382624
0001a0 81 86 84 40 d0 ef a6 c1 7c ae a5 c1 26 68 75 c0
       4.141419 -20.867096 -20.710197 -3.8344817
0001b0 73 a1 dd 41 f5 c2 e1 40 f4 28 4f c1 00 3a 3c c1
       27.703833 7.0550485 -12.947498 -11.76416
0001c0 39 0f e9 41 c7 fc fd 3f f9 0c e4 c0 96 85 4b 41
       29.132433 1.9842767 -7.1265836 12.720114
0001d0 cb c1 85 40 49 99 2d 40 2f 0a 12 c1 4b cc 8c 41
       4.1799064 2.7124808 -9.127486 17.599752
0001e0 34 43 a4 c0 46 de 48 41 30 53 bd c0 43 81 2d 40
       -5.1332035 12.554266 -5.9164047 2.7110145
0001f0 f2 93 88 c1 e7 a9 17 41 2f 0e 9c 41 8b ab ac 3f
       -17.072239 9.47898 19.506926 1.3489851
000200 8a 33 b8 40 bd 31 34 42 80 1d 06 40 7a bc e0 3f
       5.7562914 45.048573 2.0955505 1.7557518
000210 c7 81 a3 c0 9e 25 37 c0 bb 86 03 c0 1c 6f 65 40
       -5.109592 -2.861671 -2.0550983 3.5849066
000220 4b 7c bc 41 fd af 33 41 9d c8 d7 41 70 38 1f 40
       23.56069 11.230466 26.972956 2.4878197
000230 42 b2 93 41 85 ff dd c1 91 40 80 41 af b7 a4 c0
       18.46204 -27.749765 16.031527 -5.1474223
000240 d2 d8 19 c1 f4 c4 44 41 f6 45 5c 41 ba cc b3 c0
       -9.615435 12.298084 13.76708 -5.618741
000250 20 39 9c c1 35 c8 04 c1 2d 03 13 42 79 91 e6 c1
       -19.527893 -8.298879 36.7531 -28.821032
000260 0a 67 01 c0 8c 93 45 c1 b3 5b b6 c0 5a 7b 20 c1
       -2.021914 -12.348522 -5.6986938 -10.030115
000270 f4 b2 c4 41 6e ba 43 c1 ae 3a ed 40 0f 1c e8 bf
       24.58738 -12.233015 7.413413 -1.8133563
000280 77 19 ee 41 33 ae ba c0 db 4b 28 c2 aa 02 46 c0
       29.762434 -5.8337646 -42.074078 -3.0939126
000290 b6 92 3a c1 8a 80 05 41 11 86 a4 c0 e9 b4 67 c1
       -11.660818 8.343882 -5.1413655 -14.4816675
0002a0 7c 63 22 42 96 cf d3 c0 d2 d0 87 3f dc 1f f8 c1
       40.597153 -6.61909 1.0610602 -31.015556
0002b0 14 44 c8 c0 d4 a9 41 c1 0d a2 0b c1 d4 ef d4 41
       -6.2583103 -12.103962 -8.727063 26.617104
0002c0 c6 87 ed c1 86 b6 3a c1 33 02 38 40 ac bf 80 c1
       -29.691296 -11.669561 2.8751342 -16.09359
0002d0 84 22 22 40 08 cd 65 41 0f 55 31 c2 b7 67 66 c0
       2.5333567 14.362556 -44.333065 -3.6000803
0002e0 e2 e2 c0 41 d2 b7 15 c0 9f d2 04 42 e4 08 8d c1
       24.110783 -2.3393445 33.205685 -17.629341
0002f0 2d d0 93 41 14 a9 c5 3e b8 41 e2 c0 be 1d be c1
       18.476648 0.3860556 -7.0705223 -23.764523
000300 a8 32 01 c0 ac db 92 41 be f9 86 41 4f 78 eb c1
       -2.0187168 18.357262 16.871944 -29.433744
000310 6a af 24 c0 10 90 bd 41 24 ab 1b 3e 1d 35 11 c0
       -2.5732064 23.695343 0.15202004 -2.2688668
000320 e1 ff 19 41 a2 c1 11 c2 d3 df 9c 40 36 51 d4 c1
       9.62497 -36.439095 4.9023223 -26.539654
000330 f4 2b 24 c1 c2 72 22 41 21 1b 7b c1 b5 51 90 41
       -10.260731 10.153017 -15.694123 18.039896
000340 c5 c3 ba 41 af fd 9d 40 d9 14 ec 40 39 d7 86 c1
       23.34559 4.937217 7.377545 -16.85509
000350 fb 7c 2c c2 0b a2 81 41 ce 06 e5 c0 18 42 ea bf
       -43.12205 16.204123 -7.1570807 -1.830142
000360 5b 35 a4 41 4c 0d 25 c1 68 d0 57 c1 c3 f3 aa 40
       20.526052 -10.315746 -13.48838 5.342256
000370 7d 0f 5c c1 0a cb 4f 41 43 b0 1e c1 76 61 14 c1
       -13.753781 12.98707 -9.918033 -9.273794

fc1.bias f4 [8]
000000 8f 24 c2 c1 04 3f f1 c0 0c 8a ed c0 f9 be cb 3f
       -24.26785 -7.5389423 -7.4231014 1.5917655
000010 35 3c 00 c2 ed 7d a7 40 9c 80 57 41 06 fe e7 c1
       -32.058796 5.234122 13.468899 -28.999035

fc2.weight f4 [4, 8]
000000 b5 6e a9 c0 ad d6 36 c2 17 82 12 42 27 ab 34 40
       -5.294764 -45.709644 36.62704 2.8229463
000010 7e 2d d4 40 56 31 0d 42 87 3a 98 c1 66 d2 7d c1
       6.6305532 35.29818 -19.028578 -15.863867
000020 f0 0f e9 41 ac b1 60 bf e8 ff 98 41 5e 0e db 41
       29.132782 -0.87771106 19.124954 27.382015
000030 10 ad 0e 41 f0 8d 35 c1 a6 da 3e c2 5f 95 ce 40
       8.917252 -11.347153 -47.713524 6.455734
000040 c0 37 06 41 21 fd 61 c1 00 c8 f3 41 8c fa 55 c2
       8.388611 -14.124299 30.472656 -53.494675
000050 ef 8d 07 41 04 6f fd c0 15 78 ea 41 d1 df a9 40
       8.472152 -7.9198017 29.308634 5.3085713
000060 c5 1c 29 41 e9 cd 89 41 ff cf db bf c1 de 4b be
       10.569524 17.225542 -1.717285 -0.19909193
000070 33 ba 02 42 67 54 67 41 8d a6 81 c1 03 f6 06 c2
       32.681835 14.458106 -16.206324 -33.740246

fc2.bias f4 [4]
000000 df d4 c6 c1 4a e2 0a 40 6f 60 55 3c de d7 f3 c0
       -24.853941 2.1700616 0.01302348 -7.620101
