model/model89.pth (torch, 2591 bytes, 4 tensors)

fc1.weight f4 [8, 28]
000000 ba 13 24 c0 6a 25 5d c1 28 27 64 c0 8e 56 db c0
       -2.563704 -13.821634 -3.56489 -6.8543158
000010 36 8e 2d c1 18 a6 9c c1 83 09 ca c1 ea 7b 6a 41
       -10.847219 -19.5811 -25.254644 14.655252
000020 24 b8 73 c1 e9 31 8c c0 a0 dd 64 41 0c 18 00 c0
       -15.232456 -4.3810925 14.304108 -2.0014677
000030 1c d7 25 c1 ab 26 60 41 43 30 11 c1 74 25 3d 40
       -10.365017 14.00944 -9.074283 2.955411
000040 8d 72 81 c0 29 08 f5 c1 06 15 96 c0 82 18 e5 40
       -4.0452332 -30.628984 -4.6900663 7.1592417
000050 93 f3 99 41 29 c7 e5 40 65 87 5b c2 75 2d 4a 41
       19.243933 7.1805615 -54.88222 12.636098
000060 d2 e6 e6 c1 97 3c 6f 41 21 fd cf 40 fd b8 d9 c0
       -28.862705 14.952292 6.4996495 -6.8038316
000070 d0 84 f6 41 34 35 cb 3f 97 e7 65 c1 47 12 64 41
       30.81485 1.5875611 -14.3690405 14.254462
000080 2f bf 92 41 fb b8 dd bf 34 52 86 c1 1a 5e a7 3f
       18.343351 -1.7322077 -16.790138 1.3075593
000090 99 08 b0 c1 e6 f5 02 42 d5 c8 30 c1 4b e6 c5 3f
       -22.004198 32.740135 -11.049031 1.5460905
0000a0 18 e2 2f 40 e2 86 c0 c1 8d 13 e4 41 04 89 05 42
       2.7481747 -24.06586 28.509546 33.383804
0000b0 94 b0 32 41 49 8e fe 41 5b 03 c4 41 24 c0 ae 41
       11.16811 31.819475 24.501638 21.843819
0000c0 a3 14 76 41 8e 91 c1 bf d4 2b c9 3f 0a a3 80 41
       15.380038 -1.5122545 1.57165 16.079609
0000d0 6f 11 c4 c1 7c 43 22 3f 60 ec 4c c1 bf 97 b6 c1
       -24.508512 0.63384223 -12.807709 -22.824095
0000e0 3a 08 e1 41 58 a3 96 40 31 bc a7 bf 6b 4b 1b c1
       28.129017 4.7074394 -1.3104306 -9.705913
0000f0 5d 11 d5 41 24 e0 86 40 40 c3 4e c0 fd 91 72 41
       26.633478 4.214861 -3.230667 15.160642
000100 09 5a dc 3f 37 60 ce 41 9d 3f ba c1 77 da 0a 41
       1.7214977 25.79698 -23.281061 8.678336
000110 36 d9 ae c0 86 f0 62 c0 45 79 79 41 23 da f3 41
       -5.464015 -3.5459304 15.592107 30.481512
000120 1f 17 c8 41 ec d8 b8 c1 14 05 9c c1 d3 ae 63 c1
       25.01129 -23.105919 -19.50248 -14.230182
000130 37 22 05 c1 25 ef ef c0 58 6a f6 40 04 5a 94 40
       -8.320853 -7.4979424 7.7004814 4.635988
000140 68 60 1f c1 05 54 e3 40 5c 04 ea 40 c5 ee 43 40
       -9.961037 7.1040063 7.313032 3.0614483
000150 bb 43 59 41 da 57 2c 42 b9 72 ae 40 ac 30 c4 3e
       13.579036 43.085793 5.451504 0.38318384
000160 6a e4 33 c1 fb 89 c5 40 fe 4c 6b 40 bb 35 78 40
       -11.243265 6.1730933 3.6765742 3.8782794
000170 f3 e4 23 c1 de 20 43 c1 4e 92 84 c1 ce 61 96 41
       -10.243396 -12.195524 -16.571438 18.797756
000180 4d 53 11 c0 38 bc 2c c0 56 fc ab 41 35 82 ae c0
       -2.2707093 -2.698988 21.49821 -5.4533944
000190 c2 b4 ad 41 7c 20 8d 40 a4 dd fa c1 ca 93 05 42
       21.71326 4.4102154 -31.358223 33.394325
0001a0 ca a9 a2 40 3e 74 90 c1 41 e8 92 c1 cf 6b 91 c0
       5.083226 -18.056759 -18.363405 -4.54441
0001b0 be c8 e8 41 0f 06 06 41 2f d0 3d c1 fe 70 3b c1
       29.098019 8.376479 -11.863326 -11.715086
0001c0 61 0b f5 41 a2 e4 43 bf 7c 9b da c0 a7 9e 45 41
       30.630556 -0.7652074 -6.83148 12.3512335
0001d0 2b 0a 33 3e c7 00 5c c0 36 66 23 c1 f1 67 b3 41
       0.17484348 -3.4375474 -10.212454 22.425753
0001e0 e8 6e a9 c0 f4 94 3f 41 ac 06 97 c0 09 dd 7c 40
       -5.2947884 11.9738655 -4.7195644 3.950991
0001f0 b9 99 80 c1 3c 46 30 41 9d 8a 85 41 f6 f1 8f 3f
       -16.07506 11.017147 16.692682 1.1245716
000200 42 f0 e2 40 bb 5d 3e 42 6f 95 16 40 e8 64 14 3f
       7.0918283 47.591534 2.3528707 0.5796647
000210 1d 57 cd c0 66 ca 4e c0 e2 41 a9 bf 79 12 b2 3f
       -6.416884 -3.2311034 -1.3223231 1.3911887
000220 af 0e a2 41 f9 3c 4a 41 cc c3 e1 41 fc d9 f2 be
       20.25717 12.639886 28.220604 -0.47431934
000230 0c 6e a3 41 04 94 db c1 f8 e1 6d 41 eb 7d 90 c0
       20.428734 -27.447273 14.867668 -4.515371
000240 1a 82 25 c1 ca 1c 5c 41 08 e7 83 41 45 ba c9 c0
       -10.344263 13.757029 16.487808 -6.303988
000250 7e 4e a4 c1 2f 7c 0f c1 34 76 1b 42 f8 79 e6 c1
       -20.538326 -8.967818 38.865433 -28.809555
000260 41 78 8b c0 1d 31 66 c1 c6 c0 c0 c0 79 d0 2d c1
       -4.3584294 -14.386991 -6.023532 -10.863397
000270 96 83 b8 41 6e 26 42 c1 14 f1 ac 40 4a 74 16 c0
       23.06425 -12.134382 5.4044285 -2.3508477
000280 40 bc ef 41 7f 0a 2a c0 99 a2 21 c2 1e 0a 56 c0
       29.966919 -2.6568906 -40.408787 -3.3443675
000290 a6 10 42 c1 3e db 0d 41 9a 1b ce c0 09 73 74 c1
       -12.129065 8.866026 -6.4408693 -15.278085
0002a0 06 36 15 42 bd b9 5c c0 c2 48 8f 40 8a 44 fc c1
       37.302757 -3.4488366 4.4776316 -31.533466
0002b0 d0 62 19 c1 ae 5d 44 c1 ab a1 08 c1 77 dd cd 41
       -9.586624 -12.272871 -8.53947 25.733137
0002c0 fb 1f e2 c1 46 e1 60 c1 45 94 4b 3f 7f 88 70 c1
       -28.265615 -14.054998 0.79523116 -15.033324
0002d0 a3 a6 61 3f e0 43 4f 41 a1 55 3c c2 7c 7a 72 c0
       0.8814489 12.954071 -47.083622 -3.7887259
0002e0 3c 34 bc 41 90 5c 12 c0 f9 49 01 42 3f e0 97 c1
       23.525505 -2.2868996 32.32224 -18.984495
0002f0 09 40 9e 41 6d ac 7c bf 67 0b d8 c0 db 49 af c1
       19.781267 -0.987006 -6.751392 -21.911062
000300 98 47 61 bf a4 2e b9 41 43 74 87 41 9f 10 da c1
       -0.8799987 23.147774 16.931768 -27.258116
000310 c2 e7 3b c0 e1 bb e0 41 38 cc 7f 3f b0 a4 b7 bf
       -2.9360204 28.091738 0.9992099 -1.4347134
000320 8b d4 e5 40 8b 0f 16 c2 67 eb 7b 40 0b b8 d0 c1
       7.182195 -37.51518 3.9362428 -26.089865
000330 36 3a 1a c1 62 b1 5a 41 f8 7f 75 c1 89 3a 9b 41
       -9.639212 13.668306 -15.343742 19.403582
000340 38 bb bd 41 63 ad e1 40 e6 91 db 40 cc df 82 c1
       23.716415 7.0524154 6.86156 -16.359276
000350 34 e5 30 c2 26 05 67 41 a1 75 ac c0 86 9d a0 bf
       -44.22383 14.438757 -5.389359 -1.2548072
000360 56 50 98 41 76 d6 1e c1 e5 a3 71 c1 50 3e 68 40
       19.039227 -9.927359 -15.102513 3.6288033
000370 c9 f0 5a c1 c9 6c 6a 41 e6 3e 0f c1 19 c2 42 c1
       -13.683785 14.651559 -8.952856 -12.172387

fc1.bias f4 [8]
000000 94 7d b7 c1 25 c8 e9 c0 8b 9d ed c0 ba d5 1c 3f
       -22.936317 -7.3056817 -7.4254813 0.6126362
000010 50 44 f5 c1 7d 26 b7 40 7c 39 49 41 f5 aa e7 c1
       -30.658356 5.7234483 12.576534 -28.958475

fc2.weight f4 [4, 8]
000000 04 5e 8e c0 e6 92 32 c2 6c 0e 0d 42 6c d1 52 3f
       -4.4489765 -44.643456 35.264084 0.823508
000010 0d c4 db 40 cb 7b 0f 42 e5 e6 66 c1 80 25 5d c1
       6.867682 35.87089 -14.431371 -13.821655
000020 ce 14 f1 41 fc 85 25 bf 0b 70 94 41 d6 d3 e5 41
       30.135159 -0.6465757 18.554708 28.728436
000030 89 bf f6 40 f8 71 2b c1 1f 8d 3a c2 ba 47 6d 40
       7.7108808 -10.715324 -46.637814 3.7075028
000040 d6 68 2d 41 b8 fe 75 c1 f3 cc e8 41 38 b3 55 c2
       10.838095 -15.374687 29.100073 -53.42502
000050 b8 04 07 41 51 04 91 c0 52 8a e0 41 f4 52 ad 40
       8.438652 -4.531777 28.06754 5.416376
000060 f7 fc 30 41 6b 9a 85 41 f9 aa 9c c0 d9 04 f8 3e
       11.061759 16.7004 -4.8958707 0.48441198
000070 cf 26 f0 41 bf e7 70 41 59 27 7f c1 0b d7 f6 c1
       30.01895 15.056579 -15.947106 -30.855001

fc2.bias f4 [4]
000000 4d 99 d8 c1 a9 4d 2e 40 23 be d5 bf 81 a0 05 c1
       -27.074854 2.72349 -1.669865 -8.351686
