model/model86.pth (torch, 2591 bytes, 4 tensors)

fc1.weight f4 [8, 28]
0	0xc1371afb	-11.444087
1	0xc1a75281	-20.915285
2	0xc08d0fe3	-4.4081893
3	0xc0fe549b	-7.947828
4	0xc09bb53b	-4.865873
5	0xc18ea417	-17.830122
6	0xc194627d	-18.54809
7	0x4156f88d	13.435681
8	0xc150876e	-13.033064
9	0x3e5be586	0.21474275
10	0x41323acd	11.139356
11	0x410c9f40	8.788879
12	0xc0b27887	-5.577213
13	0x41b76ee4	22.929146
14	0xc107edcc	-8.495556
15	0x406f63e1	3.7404711
16	0x4062b1c7	3.5421007
17	0xc1ee69a3	-29.80158
18	0xc0ac94bc	-5.393156
19	0x408606f3	4.1883483
20	0x412f129f	10.942046
21	0x41803769	16.027056
22	0xc2659286	-57.39309
23	0x4179da33	15.615771
24	0xc1ca474b	-25.284811
25	0x41a0ac61	20.08417
26	0x40e2e9fd	7.091063
27	0xc10c7109	-8.777596
28	0x41afe998	21.98906
29	0xbf7998da	-0.9749886
30	0xc0d4e5f1	-6.653069
31	0x40d29368	6.580494
32	0x40d8bb40	6.7728577
33	0xc0784abe	-3.879562
34	0xc110f08b	-9.058726
35	0xbfaf59ae	-1.3699243
36	0xc1cfd5e0	-25.979431
37	0x41ff9610	31.948273
38	0xc094dc24	-4.6518726
39	0xbfd7cc6b	-1.6859258
40	0x408461ce	4.136939
41	0xc1b7fa18	-22.997116
42	0x41f80a35	31.004984
43	0x420f27a1	35.7887
44	0x41afdc63	21.98261
45	0x41bdd2b7	23.727888
46	0x4172cab9	15.174493
47	0x41b32640	22.393677
48	0x41872756	16.894207
49	0x3febeec8	1.8432245
50	0x408e60da	4.4493227
51	0x4180ef0b	16.11672
52	0xc1d59020	-26.695374
53	0x3fa2adc5	1.270928
54	0xc03185b4	-2.7737856
55	0xc1aec215	-21.844767
56	0x417ebe2e	15.921431
57	0x3fcb9a72	1.5906508
58	0xc0479862	-3.1186757
59	0xbfdd1fd9	-1.7275344
60	0x4187c82a	16.972736
61	0xc14217b8	-12.130791
62	0x3f8baeb3	1.0912689
63	0x411cef87	9.808478
64	0xbe0a2aa8	-0.13492835
65	0x41e02c48	28.021622
66	0xc1b68715	-22.815958
67	0x3fa540a2	1.2910349
68	0xc10e45d8	-8.892052
69	0x402aec86	2.6706862
70	0x419f9fb4	19.95298
71	0x41fbe1ca	31.485249
72	0x41f1aed0	30.210358
73	0xc1c0f9ab	-24.121908
74	0xc1cbcf43	-25.476202
75	0xc1a4f9ef	-20.622038
76	0xc11de665	-9.868749
77	0xc104728d	-8.2779665
78	0x40566e06	3.3504653
79	0x40401ebe	3.0018764
80	0xc0a54c63	-5.1655746
81	0x411961c1	9.586366
82	0x411eb87d	9.920041
83	0xc0236c40	-2.553482
84	0x41883be8	17.029251
85	0x422272c9	40.612095
86	0x402ac915	2.668523
87	0xc014c55e	-2.3245463
88	0xc1056991	-8.338273
89	0xc0230197	-2.546972
90	0x41433249	12.199777
91	0x4107daaf	8.49089
92	0xc1249130	-10.285446
93	0xc0c5b054	-6.1777744
94	0xc158b844	-13.544987
95	0x4190f9db	18.122
96	0xc1016dfe	-8.089354
97	0x3f7dbe95	0.9911893
98	0x41e111ed	28.133753
99	0x40d7834c	6.7347775
100	0x41bce2a2	23.61066
101	0xc0baf07d	-5.8418565
102	0xc1df39ea	-27.903278
103	0x419f51fa	19.915028
104	0x40c03784	6.006777
105	0xc1b5a5e4	-22.706001
106	0xc17969cd	-15.58833
107	0x3f018836	0.50598466
108	0x41e59e23	28.702215
109	0x413d1ed0	11.820023
110	0xc15d673d	-13.837705
111	0xc1193d88	-9.577522
112	0x41b7da6f	22.981657
113	0x3faa4d60	1.3304863
114	0xc092b2de	-4.5843344
115	0xbf98a42f	-1.1925105
116	0x3fad9da9	1.3563739
117	0x3fd400c8	1.6562738
118	0xc0008510	-2.0081215
119	0x41b94fe6	23.164013
120	0xc0c0bdf2	-6.0231867
121	0x41912a4b	18.14565
122	0xc100c8d1	-8.049027
123	0x40d260c4	6.574312
124	0xc1ac0003	-21.500006
125	0x4144d99f	12.30313
126	0x414b8884	12.720829
127	0x3f9f5343	1.2447284
128	0x40a1e24a	5.058873
129	0x42366bdd	45.605335
130	0x405eb55a	3.4798188
131	0x40c2ea9f	6.0911403
132	0xc035c6cd	-2.8402588
133	0x406dd7ec	3.7163038
134	0x40e10a5b	7.032514
135	0xc0896812	-4.293954
136	0x41c000ce	24.000393
137	0x419668ba	18.801136
138	0x41533c7a	13.202265
139	0x40881b8d	4.253363
140	0x414292c2	12.16083
141	0xc2098e46	-34.38894
142	0x41880af4	17.005348
143	0xc0ee2e2d	-7.4431367
144	0xc0a272cc	-5.0765133
145	0x408478e1	4.1397557
146	0x4195449e	18.658504
147	0xc00bf0eb	-2.1865795
148	0xc16f87a4	-14.970615
149	0xc1b191f7	-22.196272
150	0x41e86039	29.046984
151	0xc1cb24e5	-25.393015
152	0xc01f1ce7	-2.486139
153	0xc0ed35be	-7.4128103
154	0xc1111b8e	-9.069227
155	0xc1448972	-12.283556
156	0x411f1e7a	9.944941
157	0xc080fbf6	-4.030757
158	0x4148f72d	12.560346
159	0x4107804a	8.468821
160	0x41cb57f8	25.417953
161	0x40f72426	7.7231627
162	0xc208412e	-34.063652
163	0xc03e10f8	-2.9697857
164	0xc14f5abf	-12.959655
165	0x4002ec3e	2.045669
166	0xc014b762	-2.3236928
167	0xc1465e26	-12.397985
168	0x421ac1c3	38.68922
169	0xc0976926	-4.7315855
170	0x4108bb8f	8.545791
171	0xc200eaff	-32.22949
172	0xc1227c52	-10.155352
173	0x3e6771e8	0.22602046
174	0xc172b0cb	-15.168162
175	0x41d4fef2	26.624485
176	0xc1877cbf	-16.935911
177	0xc1442e96	-12.2613735
178	0x4111be35	9.108937
179	0xc17dde7c	-15.866817
180	0x40c8fcd6	6.280864
181	0x4195137b	18.634512
182	0xc22d1b1a	-43.276466
183	0x3f5e75e1	0.8689862
184	0x41e7f99d	28.996881
185	0xc0f281f0	-7.5783615
186	0x41cdb7a6	25.714672
187	0xc17d40ce	-15.828321
188	0x41769b5f	15.412932
189	0x40bae8b3	5.8409057
190	0xc151b6dd	-13.107144
191	0xc1db8f31	-27.444918
192	0xc09baa6d	-4.864554
193	0x41cb030c	25.376488
194	0x41446cdc	12.276577
195	0xc1a9d95b	-21.23113
196	0x3f83e174	1.0303178
197	0x41d0966e	26.073452
198	0xc0572ecf	-3.362232
199	0x3ef8157c	0.4845389
200	0xc080e90f	-4.0284495
201	0xc20f9213	-35.89265
202	0x419f8ac9	19.942766
203	0xc20123a7	-32.284817
204	0xc12ade51	-10.679276
205	0x4164638d	14.274304
206	0xc13757a6	-11.458899
207	0x41ab962d	21.448328
208	0x418e551c	17.791557
209	0xc005c8a6	-2.0903716
210	0x41395540	11.583313
211	0xc14cb449	-12.794015
212	0xc211cf50	-36.452454
213	0x419572a6	18.68098
214	0x3fed1fcf	1.8525332
215	0xc08890cc	-4.2676754
216	0x41377bc3	11.467715
217	0xc0fbbba1	-7.866654
218	0xc1690eff	-14.566161
219	0x40934673	4.6023498
220	0xc10d0d67	-8.815772
221	0x41800636	16.003033
222	0xc02fc15d	-2.746177
223	0xc1149105	-9.285405

fc1.bias f4 [8]
0	0xc1b84bc0	-23.036987
1	0xbf18ec93	-0.59735984
2	0xc0fa386e	-7.8193884
3	0xc08dbbd1	-4.429177
4	0xc1c9f616	-25.24516
5	0x4110a8b7	9.04119
6	0x412f991a	10.974878
7	0xc1d9aa43	-27.208136

fc2.weight f4 [4, 8]
0	0xc128e2ad	-10.555341
1	0xc2299aca	-42.40116
2	0x4221c2c1	40.44019
3	0x4102950f	8.161391
4	0x400c5b93	2.1930892
5	0x41b1fc31	22.24814
6	0xc190c268	-18.094925
7	0xc12e8e15	-10.909688
8	0x41c7e75b	24.987967
9	0xbffe3aa4	-1.9861646
10	0x41a7546c	20.916222
11	0x418d59b3	17.668798
12	0x41172194	9.445698
13	0xc0e3f11f	-7.1231837
14	0xc22ee6dc	-43.72545
15	0x4073bc71	3.8083766
16	0x4105e9d9	8.369592
17	0xc1676599	-14.462304
18	0x41aceefc	21.616692
19	0xc23316ac	-44.77214
20	0x4065784c	3.5854673
21	0xc11bdc87	-9.74134
22	0x4208b592	34.177315
23	0xc08f349a	-4.475171
24	0x41720869	15.127053
25	0x410de8a9	8.869302
26	0xc0d2124b	-6.564733
27	0x40395bc6	2.8962264
28	0x41d74f4f	26.913725
29	0x40c701a0	6.2189484
30	0xc1658cbb	-14.346858
31	0xc21c7a68	-39.119537

fc2.bias f4 [4]
0	0xc1e41d46	-28.514294
1	0xc0150ac8	-2.328783
2	0xc0e1dba5	-7.058062
3	0xc12d55c6	-10.833441
