model/model11.pth (torch, 2591 bytes, 4 tensors)

fc1.weight f4 [8, 28]
00000000: a1ed d83f 3cb0 74c0 3c2d 1040 a122 0f3f
00000010: a8ab b4c0 710b 93bf 6b19 f3be 6f99 5341
00000020: 381e dcbd e581 e0c0 251b a9c0 1d06 3141
00000030: 0cc1 c33f 01fe 0241 1cff 63bd 7157 8340
00000040: e82d b0c0 9c3d c2c0 909c a240 4c73 ba40
00000050: 9c62 e93f e8c7 82c0 f5e4 3bbf de19 9641
00000060: d415 32c0 c9cd 7cbf ff35 d840 9849 0040
00000070: 9b15 0741 d79f 34c0 1221 94c0 9d59 0640
00000080: 10bf 8b40 1197 a640 4e68 07be 004f c3bf
00000090: c70e 45c1 7c36 cd40 609b 57bf ea51 0bc0
000000a0: 7309 3241 7bee 4ebe 6098 e740 c62e 2741
000000b0: 06f1 ebc0 c139 ca3f 7340 a440 5a61 4a40
000000c0: a92e 36c0 ae6d 9740 583f 5640 15e4 65c0
000000d0: bb42 3fbf e92f 53c0 6232 aa40 8edc 4040
000000e0: 4587 c140 099c 2341 24f6 8740 1c06 eebf
000000f0: 2a0c e140 ac3e fcc0 d4c7 8b3f 0951 27c0
00000100: 2ae2 5040 ab18 2d41 894d 883f 1ad2 d23f
00000110: eaeb e93f 16d5 ce40 237e 5dbf 6446 3341
00000120: 80ba 5b41 5ddb b4c0 ed5d c7c0 716e 04c1
00000130: 2cd6 463e f49d 9abe 0c17 24c1 eb41 37c1
00000140: 1ebe 0a40 8269 b040 7ffd 5940 a61f 06bf
00000150: 1aee ac3f dd76 25c1 fb26 fdbf c4c0 f540
00000160: 21b7 463f 7e3e aac0 6ab0 fe40 6f21 ed40
00000170: d909 29c1 ae43 48c0 05d2 65c1 e5ee 1dbe
00000180: c682 8dc0 d9fe a7c0 eccf f73e 7ad6 7340
00000190: 0ede e3be 00ca 2a40 c162 c03e 3f25 7e40
000001a0: effb 8840 93d4 a6c0 20c5 de3d a174 c1c0
000001b0: 2ca0 0641 97ef 7140 6d51 f93e 739b 1dbf
000001c0: 22a4 1741 65a8 a1bf 8bde d6c0 b489 d2bf
000001d0: 674f b43f 5e09 6940 9c4e 41c0 0b2c ef40
000001e0: 296c 50bf bd67 80c0 fb23 26c0 a0e6 21bc
000001f0: aa57 46c1 9067 00c1 bee2 6740 b5a6 9f40
00000200: 6347 eac0 a81f 0c41 591b 3bc0 7b93 9d40
00000210: 6c34 e540 05d0 c2c0 52f5 afc0 dcc4 bf3e
00000220: 5df9 7340 28e9 2940 680c 9840 91b3 c040
00000230: 9861 7640 6a54 e73f 7f22 3340 732b 9240
00000240: 46be 43be 6954 db40 70dd c5be cec8 78c0
00000250: 3967 fa3f 78d5 c6c0 7ed2 013f bc35 42c0
00000260: 8f5c 1940 c18b 92bf 3b66 1840 8461 1041
00000270: 23fe 8a3f 3bf6 0d40 ea2d 88bf 197d 5f41
00000280: bbf6 2040 1eb3 31c1 9111 69c1 a626 09bf
00000290: 69ad c0be 35fa d5c0 3093 a5c0 81f0 10c1
000002a0: a2f3 20bf 3186 bb40 5cd3 0540 6996 3241
000002b0: 91f3 b8c0 ba1d 4b40 679e 83c0 1ebe 0b41
000002c0: c086 1c40 9c5a cf40 0860 4441 33c3 2dc1
000002d0: 9d7f 8340 711b f73f 9c49 72c1 9e03 a7c0
000002e0: 0d02 d3c0 f380 f8c0 919c 2341 9e5a 32c0
000002f0: 80e4 0440 def2 e3bf c18e 32c1 98fe 75c0
00000300: c695 c43f f53c 02c0 925a a140 f1e0 0340
00000310: 04d1 903f 0f5c 0cc1 bc3d 3fc0 b91f 0441
00000320: 201f 1e3f db40 76c1 22ce be40 c27e 7440
00000330: 0a86 89bf 1c9c 9e3f 10ad da3f d939 38c1
00000340: ec6d 4741 10bb 31c0 9adc 2dc0 fb66 5040
00000350: ee56 bec0 c1ed d240 047f 6140 b04c 0f41
00000360: ea04 67c0 ae56 2640 71da 89c0 e3d1 cdbf
00000370: dab1 b040 fa15 8e40 f3db 9c3e f88c dd40
1.6947519 -3.8232565 2.252761 0.55912215 -5.645954 -1.1487867 -0.4748033 13.224959
-0.10747951 -7.0158563 -5.2845635 11.0639925 1.5293288 8.187013 -0.055663213 4.104424
-5.505604 -6.0700207 5.0816116 5.8265743 1.8233218 -4.0869026 -0.73396236 18.76263
-2.7825823 -0.98751503 6.7565913 2.0044918 8.442775 -2.8222558 -4.629037 2.0992196
4.367073 5.2059407 -0.13223383 -1.5258484 -12.316108 6.412901 -0.8422146 -2.1768746
11.127307 -0.2020816 7.2373505 10.448919 -7.373172 1.5798875 5.1328673 3.1621919
-2.846598 4.7321386 3.3476162 -3.592046 -0.747112 -3.2997992 5.3186502 3.0134616
6.0477624 10.2255945 4.2487965 -1.8595614 7.032735 -7.8826504 1.0920358 -2.614321
3.263804 10.818522 1.0648662 1.6470368 1.827512 6.4635115 -0.86520594 11.204685
13.733032 -5.6517777 -6.2302155 -8.276963 0.19417638 -0.30198634 -10.255627 -11.453593
2.1678538 5.5128794 3.4060972 -0.5239204 1.3510163 -10.341519 -1.9777521 7.679781
0.7762318 -5.3201284 7.959035 7.4103312 -10.564904 -3.1291308 -14.363774 -0.15423162
-4.4222136 -5.2498593 0.4840082 3.8099656 -0.44505352 2.668579 0.37575343 3.9710233
4.2807536 -5.213449 0.10877442 -6.045487 8.414104 3.7802484 0.48694935 -0.6156532
9.4775715 -1.2629515 -6.714666 -1.6448274 1.4086732 3.6411967 -3.020423 7.4741263
-0.8141504 -4.0126634 -2.595946 -0.009881645 -12.396402 -8.025284 3.6232142 4.9891
-7.321214 8.757729 -2.9235442 4.924253 7.162649 -6.087893 -5.4986963 0.3745488
3.812095 2.6548557 4.7515144 6.0219197 3.8497066 1.8072636 2.7989805 4.567804
-0.19115552 6.854054 -0.38645506 -3.8872561 1.9562751 -6.213558 0.5071181 -3.0345297
2.3962743 -1.14489 2.3812397 9.023808 1.0858806 2.2181537 -1.0639012 13.968041
2.5150592 -11.10623 -14.566789 -0.535746 -0.376323 -6.686793 -5.174217 -9.058717
-0.62871754 5.860131 2.0910254 11.161721 -5.779732 3.1736894 -4.113086 8.733915
2.4457245 6.4798107 12.273445 -10.860156 4.109328 1.930525 -15.142971 -5.2191916
-6.5940003 -7.765741 10.225724 -2.7867808 2.0764465 -1.7808492 -11.159852 -3.8436642
1.5358207 -2.0349705 5.042306 2.0606043 1.1313787 -8.772475 -2.988143 8.257745
0.61766243 -15.390834 5.9626627 3.8202367 -1.074403 1.2391391 1.7084064 -11.514123
12.464336 -2.7770424 -2.7165895 3.2562854 -5.9481115 6.5915227 3.5233774 8.956223
-3.609675 2.5990405 -4.307915 -1.6079677 5.5217104 4.4401827 0.30636558 6.923458

fc1.bias f4 [8]
00000000: 0c81 e53f ebba 04c1 1365 f6c0 1c35 bcc0
00000010: 2e30 d540 dece 0241 2e92 b040 9637 4dc1
1.7930007 -8.295634 -7.699838 -5.881483 6.6621313 8.175505 5.517844 -12.826071

fc2.weight f4 [4, 8]
00000000: 5656 77c0 fc0d 19c1 ce73 d940 d0cc b140
00000010: 42c2 21c1 6830 3b41 4180 f140 7de4 b3bf
00000020: e91a 2fc0 25e1 d740 6a56 813e ee06 2e40
00000030: 1eb2 19c1 82f0 c3c0 92d4 12c1 ec1c 9840
00000040: a3f6 c03e d88b 0c41 9fcc 7fc0 f43a 6ec1
00000050: 65ae 58c0 a9d9 1b40 20d4 5541 ad71 cec0
00000060: 0912 4a3f 8bc6 c540 1808 10c1 0c3d a040
00000070: df7f 2d41 2267 0640 a657 fa3f daed d340
-3.8646445 -9.565914 6.7953863 5.5562515 -10.109926 11.699318 7.546906 -1.4054104
-2.7360175 6.7462335 0.2526124 2.719173 -9.605986 -6.123109 -9.176897 4.7535305
0.3768817 8.784142 -3.996864 -14.889393 -3.3856442 2.43516 13.364288 -6.4513764
0.7893377 6.180486 -9.001976 5.007452 10.843719 2.1000447 1.9557998 6.6227846

fc2.bias f4 [4]
00000000: 8a04 a0c0 b160 cfc0 ea81 b240 52e6 4441
-5.000554 -6.480553 5.5783587 12.306231
