model/model70.pth (torch, 2591 bytes, 4 tensors)

fc1.weight f4 [8, 28]
000000 aa bf 3d c0 b9 dd 99 c1 5d 02 ca bf 68 47 c1 c0
       -2.9648232 -19.233263 -1.5781971 -6.0399666
000010 b5 89 0a c1 52 4d 8d c1 3f 0b cb c1 23 77 39 41
       -8.65862 -17.662754 -25.380491 11.591586
000020 e7 57 76 c1 0a 42 6d c0 8d 71 8d 41 02 9c 62 bf
       -15.396461 -3.7071557 17.680445 -0.885193
000030 2a 3c 17 c1 08 b0 59 41 37 cb 1f c1 25 ea 87 3f
       -9.4521885 13.605476 -9.987113 1.061833
000040 cb 40 3e c0 a9 4b f2 c1 1d 82 17 c0 ff f3 ef 40
       -2.9727046 -30.286943 -2.3673165 7.4985347
000050 dc 26 98 41 34 ed c2 40 ec 1e 58 c2 dc 95 60 41
       19.018974 6.0914555 -54.030197 14.036587
000060 61 fb d1 c1 85 9c 5b 41 d1 31 ce 40 57 38 e0 c0
       -26.247744 13.725713 6.443581 -7.0068774
000070 3b 68 05 42 b2 c8 1e 40 ab ea 96 c1 94 cb 85 41
       33.351788 2.4809995 -18.864584 16.724403
000080 d5 e4 8b 41 65 9e 34 c0 25 72 75 c1 f9 ac 02 3f
       17.486734 -2.8221676 -15.340367 0.51045185
000090 ea 26 9e c1 26 a1 0d 42 88 d9 44 c1 40 a6 f0 3f
       -19.769001 35.40737 -12.303108 1.8800735
0000a0 52 1a 8c 40 c6 5b c0 c1 d1 88 e4 41 ee 36 03 42
       4.378213 -24.044811 28.566805 32.803642
0000b0 a9 3a 55 41 b5 ce e2 41 f1 2f b5 41 54 81 bb 41
       13.326821 28.350931 22.648409 23.438148
0000c0 57 db 59 41 98 9f b0 c0 b5 3a 09 40 4d de 5c 41
       13.61605 -5.5194817 2.1442082 13.804273
0000d0 eb 56 cf c1 9c ef f5 3f b5 20 3a c1 87 3e c3 c1
       -25.91744 1.9213748 -11.632985 -24.40553
0000e0 42 fd e1 41 da 4c a3 40 50 dd 26 bd f0 ff 05 c1
       28.248661 5.1031313 -0.040738404 -8.374985
0000f0 e9 60 dc 41 bd d1 81 40 b1 6f 87 c0 4b 95 67 41
       27.54732 4.056853 -4.232384 14.4739485
000100 ef 27 e0 3e 76 f7 e1 41 ad 83 af c1 0d 01 04 41
       0.43780467 28.24583 -21.939295 8.250257
000110 6d 2f a8 c0 32 27 19 c0 d3 c7 91 41 a8 cc 06 42
       -5.2557893 -2.3930173 18.22257 33.69986
000120 b9 8b be 41 b5 8a ba c1 6d 39 96 c1 42 51 76 c1
       23.818224 -23.317728 -18.77804 -15.394838
000130 b0 2d d9 c0 43 41 9a c0 2a e6 f9 40 12 ea ac 40
       -6.786827 -4.8204665 7.809346 5.403573
000140 4b 0a 33 c1 2f 90 e5 40 95 6e 07 41 c5 36 fb 3f
       -11.190013 7.1738505 8.464498 1.9626089
000150 0b df 44 41 51 06 32 42 55 ba cf 40 ef 13 4a bf
       12.304454 44.50617 6.4914956 -0.78936666
000160 c4 84 4e c1 c5 5d f8 40 25 c5 dd 3f 44 5b c3 40
       -12.9074135 7.7614465 1.7325789 6.104891
000170 3a aa 2f c1 e5 73 ff c0 ef 4a 89 c1 dd 00 82 41
       -10.979059 -7.9828973 -17.161589 16.250422
000180 9d ea b5 3f 19 52 db bf 11 04 c3 41 c7 96 e4 c0
       1.4212223 -1.7134429 24.376986 -7.1434054
000190 f7 a1 a4 41 8a ca 5f 40 d1 d7 15 c2 e8 c4 fa 41
       20.579084 3.496737 -37.46076 31.346146
0001a0 68 a6 84 40 5a fe a6 c1 33 79 a5 c1 a0 d3 73 c0
       4.1453133 -20.874195 -20.68418 -3.8097916
0001b0 65 9c dd 41 a8 99 e1 40 41 dd 4e c1 0e 31 3c c1
       27.701365 7.050007 -12.929017 -11.761976
0001c0 63 da e8 41 e9 35 00 40 a0 14 e3 c0 8c 6d 4b 41
       29.106634 2.0032904 -7.0962677 12.714245
0001d0 45 99 84 40 da 44 2b 40 0a a1 12 c1 59 98 8c 41
       4.1437097 2.6760774 -9.164316 17.574389
0001e0 9c 82 a3 c0 30 b6 49 41 26 57 bb c0 8e 45 2f 40
       -5.1096935 12.606979 -5.854388 2.7386203
0001f0 48 2f 88 c1 c2 ba 17 41 5c 2c 9c 41 29 57 b2 3f
       -17.023087 9.483095 19.52166 1.3932849
000200 f2 9a b7 40 09 4b 34 42 b4 0e 04 40 49 1b dd 3f
       5.737664 45.073277 2.0633974 1.7273952
000210 5f 00 a5 c0 3e 38 36 c0 0d bc 03 c0 eb 8c 66 40
       -5.1562953 -2.8471828 -2.0583527 3.602351
000220 e6 6a bc 41 8d c4 33 41 ab f4 d7 41 1d 3f 1e 40
       23.552197 11.235486 26.994467 2.4726021
000230 69 9f 93 41 ce f8 dd c1 ae 84 80 41 43 2c a5 c0
       18.452837 -27.746487 16.064785 -5.161653
000240 04 cb 19 c1 6f f6 44 41 d9 bc 5b 41 0e 57 b4 c0
       -9.612064 12.310164 13.733605 -5.635627
000250 62 2b 9c c1 4b be 04 c1 f4 cb 12 42 0d 8b e6 c1
       -19.521183 -8.296458 36.699173 -28.817896
000260 8b 00 04 c0 97 08 46 c1 ea ae b6 c0 dc 0a 20 c1
       -2.0625331 -12.377097 -5.708852 -10.002651
000270 57 cb c4 41 ce 26 44 c1 15 85 ec 40 54 19 e9 bf
       24.599287 -12.259474 7.3912454 -1.8210855
000280 ad 32 ee 41 e3 c4 bb c0 12 41 28 c2 a0 09 47 c0
       29.774744 -5.867784 -42.063545 -3.1099625
000290 b9 04 3a c1 4a f6 05 41 6e da a3 c0 a2 1f 68 c1
       -11.626153 8.372629 -5.120414 -14.507723
0002a0 14 82 22 42 7e 22 d3 c0 6b 57 89 3f dc 32 f8 c1
       40.62703 -6.5979605 1.0729803 -31.024834
0002b0 88 3d c8 c0 6d 58 41 c1 e2 a4 0b c1 e6 ea d4 41
       -6.257511 -12.084088 -8.727755 26.614697
0002c0 f4 4d ed c1 15 3e 3a c1 70 c5 38 40 b5 c3 80 c1
       -29.663063 -11.640157 2.8870506 -16.09556
0002d0 6b 61 20 40 56 bd 65 41 71 45 31 c2 11 c6 67 c0
       2.505946 14.358725 -44.317814 -3.621464
0002e0 75 b8 c0 41 ae e0 14 c0 e5 ed 04 42 56 f8 8c c1
       24.090067 -2.3262134 33.23232 -17.621258
0002f0 7d fa 93 41 ff 2e c8 3e 23 65 e2 c0 f5 7c be c1
       18.497309 0.39098355 -7.074846 -23.811014
000300 24 d9 01 c0 1a 02 93 41 01 2e 87 41 0e b3 eb c1
       -2.0288782 18.376026 16.897463 -29.46243
000310 47 16 24 c0 d9 de bd 41 d1 fa 15 3e 00 d8 13 c0
       -2.5638597 23.733812 0.1464646 -2.3100586
000320 8f 57 19 41 42 b0 11 c2 d9 06 9d 40 68 2d d4 c1
       9.583877 -36.422127 4.907086 -26.522171
000330 af b3 23 c1 8a dd 22 41 ed 54 7b c1 a5 57 90 41
       -10.231368 10.179087 -15.708234 18.042795
000340 74 ca ba 41 dc 29 9d 40 be 38 eb 40 d0 20 87 c1
       23.348854 4.91136 7.3506765 -16.891022
000350 71 49 2c c2 a2 6e 81 41 4e a4 e4 c0 41 79 ea bf
       -43.07172 16.17902 -7.1450567 -1.8318254
000360 b8 60 a4 41 8e 7f 24 c1 53 d4 57 c1 32 f9 a9 40
       20.547226 -10.281141 -13.489337 5.3116693
000370 02 d7 5b c1 c1 fb 4f 41 90 28 1f c1 bd 38 14 c1
       -13.739992 12.998963 -9.947403 -9.263852

fc1.bias f4 [8]
000000 b0 5e c2 c1 6d 36 f2 c0 dd a3 ed c0 16 d5 d0 3f
       -24.296234 -7.569144 -7.426253 1.6315029
000010 66 53 00 c2 62 4c a7 40 58 a7 57 41 e2 45 e8 c1
       -32.081444 5.228074 13.478355 -29.034122

fc2.weight f4 [4, 8]
000000 92 4f a8 c0 62 b0 36 c2 ca b5 12 42 f6 d3 35 40
       -5.259713 -45.67225 36.67753 2.841062
000010 70 b1 d4 40 95 2b 0d 42 d5 cb 97 c1 8a 31 7e c1
       6.64666 35.29256 -18.974527 -15.8870945
000020 69 a2 e8 41 9d 46 65 bf 45 80 99 41 08 fe da 41
       29.079302 -0.8956087 19.187632 27.374039
000030 86 fd 0f 41 ee d6 34 c1 e7 bc 3e c2 2e 8a ce 40
       8.999395 -11.302473 -47.684475 6.4543676
000040 62 5c 05 41 26 fd 61 c1 83 f8 f3 41 5c 21 56 c2
       8.335054 -14.124304 30.496344 -53.532578
000050 73 3c 08 41 10 65 fb c0 04 4c ea 41 3d 0e a9 40
       8.514758 -7.8560867 29.287117 5.282988
000060 bc 53 2a 41 c3 a8 89 41 bc a0 dc bf 5b 0a 6e be
       10.645443 17.207403 -1.7236552 -0.23246138
000070 81 cb 02 42 f8 d3 66 41 00 95 81 c1 1d ce 06 c2
       32.698734 14.42675 -16.197754 -33.701283

fc2.bias f4 [4]
000000 31 73 c7 c1 cf 1e 0a 40 c5 05 36 bd 2e e2 f3 c0
       -24.931246 2.1581304 -0.044439096 -7.62136
