model/model36.pth (torch, 2591 bytes, 4 tensors)

fc1.weight f4 [8, 28]
00000000: 7d38 3dc1 9754 a9c1 9ae2 8dc0 8d77 f3c0
00000010: d0de b5c0 7334 8bc1 f66f 9cc1 fce7 4b41
00000020: e1bc 57c1 45dc 8b3f d7eb 2f41 02eb 0841
00000030: 75ce abc0 c8ec b141 4f0b 04c1 491e 8640
00000040: ea2e 4040 7a96 f0c1 481c 95c0 1deb 8240
00000050: ad36 1941 7cb7 8441 71b2 62c2 5749 6b41
00000060: 692b ccc1 035f a641 3ead f540 1445 14c1
00000070: e57f b441 bbd3 abbf 11fd d7c0 7edc e540
00000080: 3fda c340 9214 61c0 f2c5 15c1 d985 71bf
00000090: 968d cfc1 3d62 fb41 fd3d 50c0 de29 adbf
000000a0: a9b0 8540 9488 b7c1 1f1f f241 2eaf 1042
000000b0: dcbc b641 9bdd bf41 6a51 8041 1772 c241
000000c0: a4f3 8841 07ed 9d3f 837a 8440 405e 8241
000000d0: 8f03 d5c1 8098 363f 69fb 66c0 d02a a9c1
000000e0: 54e7 8141 20f5 903f c1a5 5dc0 dcf1 97bf
000000f0: 98df 9541 6e2f 60c1 2377 f73f 50ca 2441
00000100: 1274 43bf 6e58 da41 de80 bcc1 ec9d 773f
00000110: f07f 0bc1 c2aa 9940 5cdf a441 efdc f741
00000120: 728a e941 ba29 bbc1 a4d7 ccc1 34d6 abc1
00000130: 2a32 14c1 930c ebc0 96c3 8d40 1ea2 3b40
00000140: b75e aac0 9fb0 1b41 909f 1e41 3cde 92c0
00000150: 6e69 8641 13f5 2742 c65d e83f dd5a e4bf
00000160: 4c2b f4c0 2e2e b9bf 745c 5541 2dec fb40
00000170: 4236 20c1 6bd9 f9c0 25cc 58c1 c3a0 9941
00000180: d497 03c1 2a26 743f f653 dd41 fcd2 db40
00000190: 0895 c941 f0ed adc0 2cc9 e6c1 2f8c a141
000001a0: 6417 bb40 612b b0c1 6eb6 7ec1 4292 ea3f
000001b0: 2642 e941 7ee7 4841 f0ba 58c1 e450 15c1
000001c0: ec2c b241 6366 0c3f 0cc1 4fc0 9b47 dcbf
000001d0: c4a7 2740 3ffe 0640 86ea 4ec0 1d68 b941
000001e0: 8ae9 c6c0 4103 9f41 1541 f0c0 7025 dc40
000001f0: 60d1 b0c1 9290 4341 3da1 4941 e09c 7dbc
00000200: 2911 8840 a560 3642 1ece 8a40 a24b af40
00000210: e423 2ac0 3f4a 7340 c4f2 d540 8628 18c0
00000220: 3bde bb41 9471 9c41 c0fa 5941 c46f 6d40
00000230: 363d 4141 2fb6 0ac2 a1a0 8b41 8d75 e9c0
00000240: b7b8 6fc0 b1e8 9540 647a 9241 f7f6 f1bf
00000250: 168c 5dc1 169d aec1 fd11 ec41 676e cfc1
00000260: d4f9 abbf 792f f9c0 7c95 0ec1 2c09 43c1
00000270: b00d 2341 737c 9cc0 f0b3 4441 244c fd40
00000280: 6d14 c141 cf57 e840 2573 08c2 701f 09c0
00000290: fe38 60c1 d372 5d40 7b4e 55c0 c83a 4ac1
000002a0: 01a1 1b42 978e 90c0 d8d9 db40 4f31 02c2
000002b0: cf16 2dc1 e674 db3e fa6f 61c1 649b d241
000002c0: e273 80c1 f79a 3ec1 3ee5 1341 5b85 73c1
000002d0: 310a dd40 50c6 9641 7b9f 30c2 fa1b 2cbf
000002e0: 83f2 e941 2e6a 00c1 cea4 d241 87fb 69c1
000002f0: c215 6941 984e ab40 7988 41c1 8fd4 d3c1
00000300: b600 c2c0 eec6 c741 6f49 5041 2bbe acc1
00000310: c71b bdbe be89 d441 99d4 52c0 55da 8f3e
00000320: f0bd 67c0 1d6b 11c2 1bed a141 64b7 f9c1
00000330: 17bb 26c1 e5be 5a41 77f1 24c1 25aa af41
00000340: 1974 8b41 46ae 1ec0 5a7f 4441 9f47 46c1
00000350: ffb0 16c2 0e97 9741 d742 3a40 a435 94c0
00000360: ab06 2a41 ce29 f0c0 569c 7fc1 c768 9a40
00000370: bd60 10c1 d2c2 7441 1f9d 67c0 8d7d 24c1
-11.826291 -21.166304 -4.4339113 -7.6083436 -5.683449 -17.40061 -19.554668 12.744137
-13.483613 1.0926596 10.995078 8.557375 -5.3689523 22.240616 -8.252761 4.191197
3.0028634 -30.073475 -4.6597023 4.0912004 9.575849 16.589592 -56.67426 14.705405
-25.521196 20.796392 7.6773977 -9.266865 22.562449 -1.342399 -6.749642 7.1831656
6.1203914 -3.5168805 -9.3608265 -0.9434486 -25.944134 31.422968 -3.2537835 -1.3528402
4.177815 -22.941689 30.265196 36.171074 22.842216 23.983206 16.039753 24.305708
17.118965 1.233796 4.139955 16.29602 -26.626738 0.71326447 -3.6090949 -21.145905
16.237953 1.1324806 -3.4632418 -1.1870685 18.734177 -14.0115795 1.9333233 10.299393
-0.76348984 27.293179 -23.562923 0.96725345 -8.718735 4.8020945 20.609062 30.982878
29.1926 -23.395374 -25.605293 -21.479591 -9.262247 -7.345285 4.430125 2.9317698
-5.324062 9.73062 9.913956 -4.589628 16.80148 41.98933 1.8153617 -1.7840229
-7.6302853 -1.4467218 13.335072 7.87258 -10.013247 -7.8077903 -13.54984 19.203497
-8.224567 0.95370734 27.665997 6.869505 25.19777 -5.435295 -28.848228 20.193449
5.8466053 -22.021181 -15.9195385 1.8325884 29.157299 12.556517 -13.545639 -9.332249
22.271935 0.5484373 -3.2461576 -1.7209352 2.6196146 2.109268 -3.2330642 23.175837
-6.216008 19.876589 -7.5079446 6.87957 -22.102234 12.2227955 12.601865 -0.015479296
4.2520947 45.59438 4.337661 5.4779825 -2.6584406 3.8014066 6.6858845 -2.3774734
23.483511 19.555458 13.623718 3.7099466 12.077444 -34.677914 17.453432 -7.2955995
-3.745649 4.6846547 18.309761 -1.8903493 -13.846701 -21.826702 29.508783 -25.928907
-1.3435616 -7.787045 -8.911495 -12.189739 10.190842 -4.8901916 12.29393 7.9155445
24.134974 7.260719 -34.112446 -2.1425438 -14.013914 3.4601333 -3.332915 -12.639351
38.90723 -4.517406 6.8703423 -32.548153 -10.8180685 0.42862624 -14.089838 26.325874
-16.056583 -11.912833 9.243467 -15.2200575 6.907494 18.846832 -44.155743 -0.6723019
29.243414 -8.025923 26.330471 -14.623908 14.567812 5.353344 -12.0958185 -26.478788
-6.062587 24.972134 13.017928 -21.592855 -0.36935255 26.567257 -3.294226 0.28096262
-3.6209679 -36.354603 20.240774 -31.214546 -10.420676 13.671605 -10.308951 21.958078
17.431688 -2.4793868 12.281092 -12.392486 -37.672848 18.948757 2.9103296 -4.631548
10.626628 -7.505103 -15.975668 4.82529 -9.023618 15.297564 -3.618965 -10.280652

fc1.bias f4 [8]
00000000: 1f70 bbc1 efa9 9ebe bd16 08c1 3891 9ec0
00000010: eea7 cfc1 0847 e340 e9da 3941 e725 e1c1
-23.429747 -0.30989024 -8.505551 -4.955227 -25.956997 7.102421 11.615945 -28.143507

fc2.weight f4 [4, 8]
00000000: 2dd0 22c1 a92e 2ac2 a414 1f42 8731 1c41
00000010: 29c7 1d40 4442 a741 bd58 73c1 e956 08c1
00000020: 9fb0 c041 988a afc0 b5a3 8a41 90bb 9a41
00000030: 5e3a e740 b591 09c1 7b40 2dc2 79c2 4e40
00000040: 4dd3 fb40 eb32 48c1 fae3 b441 4605 36c2
00000050: 80d3 b440 2b36 2bc1 0400 0b42 2671 b7c0
00000060: 5f8e 9241 50f7 2d41 90ec 8ec0 736c 4540
00000070: d62e ec41 ba2a ad40 75fb 49c1 9c34 18c2
-10.175824 -42.545567 39.770157 9.762092 2.4652808 20.907356 -15.209165 -8.521218
24.08624 -5.485668 17.329935 19.341583 7.225875 -8.598073 -43.31297 3.2306197
7.8695436 -12.512431 22.611317 -45.50515 5.650818 -10.700725 34.750015 -5.732562
18.319517 10.872879 -4.4663773 3.0847442 29.52287 5.4114656 -12.623891 -38.051376

fc2.bias f4 [4]
00000000: 9265 ddc1 949d a2bf dc93 e9c0 0b6b 2fc1
-27.674595 -1.2704339 -7.2992992 -10.963634
