model/model17.pth (torch, 2591 bytes, 4 tensors)

fc1.weight f4 [8, 28]
000000 ca a0 bc 3e ea 48 cd bf 36 6e 9d 40 64 70 3e bf
       0.36841422 -1.6037877 4.9197035 -0.74390244
000010 ec b1 9f c0 82 83 9a bf a9 40 47 c0 08 a1 54 41
       -4.990469 -1.2071383 -3.1133215 13.289314
000020 5e b2 2b 3f ce 38 b4 c0 c1 97 bd c0 13 42 26 41
       0.6706904 -5.631934 -5.9247746 10.391131
000030 b2 b2 0c 40 ab 62 cb 40 8d 43 4e 3f 93 50 97 40
       2.1984067 6.3557944 0.80571824 4.7285857
000040 10 9d 9f c0 c7 e8 ba c0 4d dc 09 40 fa 09 7b 40
       -4.9879227 -5.840915 2.154071 3.922484
000050 e7 86 82 3f 63 e6 38 c0 b8 b9 27 3e 38 e1 8b 41
       1.0197419 -2.8890617 0.1637944 17.48497
000060 64 36 14 c0 57 0b 1e c0 a7 07 00 41 44 f7 a7 3e
       -2.3158197 -2.4694421 8.001868 0.32805836
000070 14 f9 1e 41 66 92 5b c0 ff 2c db c0 c4 4a a0 3f
       9.93581 -3.4308105 -6.8492427 1.2522817
000080 6d a3 99 40 9d 3f 89 40 e6 46 b5 3f 05 c7 04 c0
       4.8011994 4.2890153 1.4162261 -2.0746472
000090 0d 1d 4a c1 50 28 e6 40 51 53 15 c0 8c 96 45 bf
       -12.632092 7.192421 -2.3332102 -0.7718284
0000a0 63 92 11 41 0f 86 d9 3e 36 6e bd 40 3c 5f 08 41
       9.098239 0.4248509 5.9197035 8.523251
0000b0 60 bf 10 c1 e4 a3 f6 3f b2 b1 a5 40 92 da 32 40
       -9.046722 1.9268765 5.1779413 2.7945905
0000c0 44 f4 48 c0 21 2b 77 40 48 a7 81 40 af a0 84 bf
       -3.1399088 3.8620074 4.05167 -1.0361537
0000d0 22 3c 7f 3f d8 cc df bf 7a a7 8d 40 1c ec 96 40
       0.9970113 -1.7484388 4.426694 4.716322
0000e0 d9 90 c2 40 a0 c0 11 41 70 34 7a 40 ca 70 92 bf
       6.0801816 9.109528 3.9094505 -1.144067
0000f0 6c 1e d8 40 fa fa fc c0 1b 26 85 bf 91 e1 4d c0
       6.7537136 -7.905637 -1.0402254 -3.2168925
000100 f3 27 f1 3f 38 40 24 41 a5 73 2c bf b0 25 3c bf
       1.8840317 10.265678 -0.6736396 -0.73495007
000110 4e 9c 56 40 5c 9e ca 40 71 16 6c bf 17 6a 47 41
       3.35329 6.331831 -0.9222174 12.463401
000120 49 58 4b 41 41 fb ba c0 17 d7 be c0 2e 27 b9 c0
       12.709054 -5.8431706 -5.963756 -5.7860327
000130 8d cc 24 c0 1b 20 29 bf 0e 55 3c c1 12 26 28 c1
       -2.5749848 -0.66064614 -11.770765 -10.5092945
000140 56 0a b7 3e b0 15 b0 40 74 db a9 40 e8 e3 d9 bd
       0.35750073 5.5026474 5.3080387 -0.10639173
000150 c3 b3 9b 3e 8e da 26 c1 7c 29 f2 bf 5c b1 df 40
       0.30410585 -10.428358 -1.891891 6.9904003
000160 29 e2 59 40 71 55 a9 c0 f1 d7 e3 40 a6 01 e5 40
       3.4044287 -5.29168 7.12011 7.156451
000170 a2 3d 12 c1 57 a5 44 c0 74 f5 4b c1 5f 00 9f 3f
       -9.140047 -3.0725915 -12.747425 1.2421988
000180 35 02 aa c0 a6 4e 5d c0 76 ec f7 bf 2a f5 9c 40
       -5.3127694 -3.4579253 -1.9369037 4.9049273
000190 78 a3 34 bf 5c e7 28 40 fa 90 63 c0 40 32 54 40
       -0.70561934 2.639121 -3.5557237 3.315567
0001a0 6c 2d a2 40 af ca 84 c0 52 32 14 40 1e 76 a6 c0
       5.0680447 -4.1497416 2.3155713 -5.2019186
0001b0 01 1d fe 40 b9 51 84 40 c7 d6 c9 3f 88 72 55 bf
       7.9410405 4.134976 1.576867 -0.83377886
0001c0 4b 4f 13 41 a9 96 a3 c0 14 8b 92 c0 2c 7a 37 bf
       9.206859 -5.112141 -4.5794773 -0.71670794
0001d0 ca 43 89 3f a8 35 df 3f b5 03 d6 bf 88 2f ec 40
       1.0723813 1.743825 -1.6719881 7.380802
0001e0 cf 0f 0c 40 a0 e9 fe bf 56 3a 15 c0 5e 1f 50 bf
       2.1884649 -1.9915047 -2.3316855 -0.8129786
0001f0 af 54 3e c1 b5 22 ac c0 3e 00 8d 40 3f 90 7b 40
       -11.895675 -5.3792367 4.4062796 3.930679
000200 a7 c5 c2 c0 e9 e1 d8 40 02 70 1e c0 50 ce 89 40
       -6.0866275 6.777577 -2.4755864 4.3064346
000210 a7 ce be 40 91 5e a7 c0 34 c8 af c0 1a 16 81 3f
       5.962726 -5.2302938 -5.493189 1.008487
000220 47 49 b7 40 eb e6 d7 3f 29 c0 a3 40 dc b8 af 40
       5.727695 1.6867346 5.117207 5.491316
000230 a2 3d 37 40 a8 45 69 40 f4 21 39 40 84 99 85 40
       2.8631368 3.6448765 2.8926973 4.1749897
000240 26 97 9c bf 88 c9 07 41 90 3c 55 bf 78 56 e7 c0
       -1.2233627 8.486702 -0.83295536 -7.2293053
000250 ec 82 c0 3f 3a d7 e0 c0 30 2e 74 3c 31 8b 2c c0
       1.5039954 -7.026273 0.01490359 -2.6959956
000260 b9 bb 24 40 22 05 84 bf 48 93 61 40 59 60 34 41
       2.5739577 -1.0314066 3.5246143 11.273522
000270 31 6a 03 3f 5b 55 88 40 ca 2a 24 c0 2a 1b 5d 41
       0.5133391 4.2604194 -2.5651116 13.819132
000280 f3 5e 1d 40 86 f6 0c c1 a7 3b 4e c1 a4 fa 62 3f
       2.4589202 -8.810186 -12.889564 0.886637
000290 b2 fd 74 bf 52 ea fe c0 66 48 b5 c0 1a 4e 34 c1
       -0.9569961 -7.9661036 -5.6650877 -11.269068
0002a0 75 09 c5 bf b0 38 9d 40 81 da 36 40 6e c2 3d 41
       -1.5393511 4.91317 2.8570864 11.859968
0002b0 8a 5c 5c c0 74 97 99 3f e9 b1 9d c0 5b aa 01 41
       -3.4431481 1.1999345 -4.9279675 8.104091
0002c0 df 01 73 40 f1 9e fc 40 fa fd 4c 41 e9 d5 47 c1
       3.7969892 7.894402 12.812006 -12.489724
0002d0 16 06 ac 40 04 7b d0 3e 0f 0b 50 c1 e2 3e 91 c0
       5.375743 0.40718853 -13.0027 -4.538926
0002e0 5c 72 e9 c0 1c cb d8 c0 f2 36 10 41 d3 6b 2b c0
       -7.29521 -6.7747936 9.013414 -2.678456
0002f0 63 0d 62 3f bb 0c 95 bf e3 07 30 c1 22 e9 72 c0
       0.88301677 -1.164451 -11.001925 -3.7954793
000300 f9 af 86 3f 2a d8 de bf 48 72 d9 40 da a8 10 40
       1.0522453 -1.7409718 6.7952003 2.260306
000310 00 93 8a 3f 1f 0c 03 c1 68 6a 57 c0 47 27 f7 40
       1.0826111 -8.190459 -3.3658695 7.7235446
000320 64 78 fc bf 20 3f 8e c1 27 b5 16 41 19 81 64 40
       -1.972424 -17.780823 9.419227 3.5703795
000330 d4 99 00 c0 47 91 ab 3f 7b 70 1f 40 ab 15 64 c1
       -2.009389 1.340371 2.4912403 -14.25529
000340 ad ba 37 41 19 64 b2 c0 dd b9 a2 bf 75 3c c8 40
       11.483075 -5.574719 -1.2712971 6.25738
000350 a4 ca 99 c0 ce 32 ce 40 06 8e 50 40 09 65 2a 41
       -4.8059864 6.4437017 3.2586684 10.649667
000360 7d 5d 5b c0 51 01 32 40 03 14 a5 c0 ab 2c 48 bf
       -3.427581 2.7813303 -5.158693 -0.7819316
000370 3f fb 80 40 4e 03 87 40 93 b6 d8 bf 94 be e5 40
       4.0306697 4.2191534 -1.6930717 7.179514

fc1.bias f4 [8]
000000 82 5f 3d 3e 23 a7 fb c0 c1 01 07 c1 00 fb 9c c0
       0.18493465 -7.8641524 -8.437928 -4.9056396
000010 7d 5a f5 40 05 e4 db 40 74 0e 99 40 c7 04 51 c1
       7.667296 6.8715844 4.7830143 -13.063666

fc2.weight f4 [4, 8]
000000 72 d3 d4 c0 41 a5 a3 c0 ee c2 0e 41 39 e2 d1 40
       -6.650811 -5.1139226 8.92259 6.558865
000010 52 07 38 c1 f4 89 62 41 40 03 34 41 32 5c 7d c0
       -11.501787 14.15868 11.250793 -3.9587522
000020 8b 27 01 c0 04 ff 81 40 47 26 dd 3f 2f bc 1c 40
       -2.0180385 4.06238 1.7277306 2.4489858
000030 3f c7 c0 c0 40 b1 9f c0 f7 a7 00 c1 d8 61 b5 40
       -6.024322 -4.990387 -8.041007 5.668194
000040 5f 10 ba 3f 45 12 0a 41 e0 82 6b c0 30 54 87 c1
       1.4536246 8.62946 -3.679863 -16.916107
000050 f0 ce ab c0 84 21 97 40 86 73 68 41 66 83 02 c1
       -5.369011 4.7228413 14.528204 -8.15708
000060 14 8c e0 3f 1e 54 9d 40 f1 ae 95 c0 33 6d 05 41
       1.7542748 4.916518 -4.677605 8.33916
000070 9b 13 ee 40 ff 32 17 40 73 7f 3e 40 c9 37 94 40
       7.4398932 2.3624876 2.976529 4.6318097

fc2.bias f4 [4]
000000 29 cf 75 c0 bd 18 c4 c0 c5 6e 8d 40 dd 74 52 41
       -3.840769 -6.12802 4.4197717 13.153531
