model/model42.pth (torch, 2591 bytes, 4 tensors)

fc1.weight f4 [8, 28]
000000 a3 c7 36 c1 4d 44 a2 c1 f1 fc 52 c0 fe 30 cd c0
       -11.423739 -20.28335 -3.2966883 -6.4122305
000010 b1 13 ae c0 7e dc 82 c1 06 83 9e c1 69 4c 46 41
       -5.4399037 -16.357662 -19.813976 12.393655
000020 b9 e3 5f c1 47 63 cf 3d 6f ac 36 41 e6 35 17 41
       -13.993096 0.101263575 11.417098 9.450659
000030 cb 6e a1 c0 14 b8 ad 41 fd 55 01 c1 b0 42 3f 40
       -5.0447745 21.714882 -8.083493 2.9884453
000040 ab 44 a5 40 5a 35 fb c1 d2 d9 db c0 b8 06 84 40
       5.1646323 -31.40105 -6.8703394 4.12582
000050 c1 5d 2c 41 23 b7 8a 41 54 ab 61 c2 b5 48 69 41
       10.772889 17.339422 -56.417313 14.580251
000060 36 ef c8 c1 5d 65 99 41 c7 99 05 41 39 69 1c c1
       -25.116802 19.174494 8.350043 -9.775689
000070 cc d4 b0 41 92 2b 18 bf 6c 3c d2 c0 b5 45 b6 40
       22.103905 -0.59441483 -6.5698757 5.696009
000080 98 23 03 41 2f 15 8d c0 f5 34 17 c1 74 e0 d3 bf
       8.19619 -4.408836 -9.450429 -1.6552873
000090 9d f1 d9 c1 29 9c 01 42 14 78 6d c0 06 5b b2 bf
       -27.242975 32.4025 -3.710454 -1.3934028
0000a0 d4 80 91 40 bc 0a ab c1 2c 57 f5 41 a8 48 0a 42
       4.546976 -21.380241 30.667564 34.570953
0000b0 32 1c b9 41 38 8e c2 41 c9 9f 79 41 5d ff c8 41
       23.138767 24.319443 15.60151 25.12469
0000c0 22 d3 7b 41 7c 72 29 40 c2 c6 70 40 25 9e 86 41
       15.739046 2.6476126 3.7621312 16.827219
0000d0 e3 00 da c1 f2 82 83 3f f8 db 96 c0 b3 01 ac c1
       -27.250433 1.0274336 -4.7143517 -21.50083
0000e0 0a d4 75 41 e2 cf 3c 40 e3 12 2e c0 94 63 0a c0
       15.364267 2.9501882 -2.7199028 -2.1623278
0000f0 4f 95 97 41 f9 6a 48 c1 e4 9d a0 3f 1d 83 1a 41
       18.947905 -12.526116 1.2548184 9.65701
000100 1c 45 95 3e d5 87 db 41 35 87 b3 c1 a8 23 76 3f
       0.2915429 27.441324 -22.44102 0.9614816
000110 c7 b2 18 c1 9c 03 2f 40 f2 c3 a3 41 c8 2d e7 41
       -9.543647 2.7345953 20.470676 28.897354
000120 dd 3a f7 41 51 11 c2 c1 bf 92 d5 c1 35 ef aa c1
       30.903742 -24.258455 -26.696653 -21.3668
000130 0a 41 17 c1 10 be 01 c1 89 c7 8e 40 8c 11 ee 3f
       -9.453379 -8.108902 4.4618573 1.8599105
000140 97 6a 83 c0 e2 68 09 41 8b 8d 17 41 76 2f 58 c0
       -4.1067615 8.588106 9.472056 -3.3778968
000150 82 60 94 41 1b 46 2a 42 1c 40 89 40 71 d1 9b bf
       18.547123 42.568462 4.289076 -1.2173291
000160 31 be 14 c1 a6 db 4c c0 d0 9b 50 41 9a 0a fd 40
       -9.296433 -3.2009063 13.03804 7.907544
000170 58 14 2a c1 d0 fb ca c0 1f 22 63 c1 f0 df 9e 41
       -10.629967 -6.343239 -14.19583 19.859344
000180 02 d6 0c c1 c5 2b 07 40 ce 3a e3 41 45 2e 87 40
       -8.802248 2.1120465 28.403713 4.224398
000190 dc 03 c9 41 a7 d1 8c c0 b3 69 dc c1 e4 b4 a2 41
       25.126884 -4.4005923 -27.55161 20.338326
0001a0 9c cb cc 40 5e a0 ae c1 ad d4 82 c1 8d e2 3b 3e
       6.3998547 -21.828304 -16.353846 0.18348141
0001b0 66 2f df 41 7e fb 34 41 13 9f 40 c1 90 87 1c c1
       27.898144 11.311399 -12.0388365 -9.783096
0001c0 52 08 bc 41 fa 31 45 be 62 d7 8a c0 67 05 1a bf
       23.504063 -0.19257346 -4.338792 -0.60164493
0001d0 af 96 27 3f 36 94 fc 3e 08 b6 18 c0 bc 96 b6 41
       0.654643 0.49331826 -2.3861103 22.8236
0001e0 eb 81 ac c0 9e 19 95 41 d5 8f 14 c1 8a 97 d0 40
       -5.390859 18.637508 -9.285115 6.5184984
0001f0 92 23 bb c1 5e 0d 20 41 65 93 50 41 fa 0d eb 3f
       -23.392368 10.003263 13.035985 1.836364
000200 dc 41 89 40 d4 00 35 42 8f 25 86 40 2b 99 4a 40
       4.2892895 45.25081 4.192085 3.1655986
000210 c7 fe 9a c0 10 82 6d 40 e5 b8 06 41 c3 c0 da bf
       -4.8436007 3.7110634 8.42014 -1.7090076
000220 04 eb b5 41 cb 0e 8e 41 af 51 3f 41 70 2e 68 40
       22.739754 17.757223 11.957442 3.6278343
000230 90 14 2d 41 09 57 0b c2 31 8a 92 41 4e e3 d1 c0
       10.81752 -34.834995 18.317476 -6.558997
000240 ae 56 87 c0 be 64 9b 40 3b 6f 95 41 9f 14 72 c0
       -4.229331 4.8560476 18.679312 -3.7825086
000250 80 12 6f c1 f0 04 ae c1 64 0e ee 41 ed ae ca c1
       -14.942017 -21.75241 29.757027 -25.335413
000260 77 d0 21 c0 8a f9 c8 c0 88 29 14 c1 48 8f 41 c1
       -2.5283487 -6.2804613 -9.260139 -12.097481
000270 47 97 35 41 bb 2f 85 c0 2f 15 44 41 24 71 ff 40
       11.349433 -4.1620765 12.255172 7.982561
000280 73 4f ca 41 5a c4 18 41 de c9 08 c2 72 04 18 c0
       25.288794 9.547937 -34.197136 -2.3752713
000290 ed 43 49 c1 e5 20 40 40 5b c1 02 c0 d9 ce 52 c1
       -12.579083 3.0020077 -2.0430515 -13.1755
0002a0 51 d5 16 42 8f a9 a2 c0 61 7e f8 40 36 b0 04 c2
       37.708317 -5.083198 7.765427 -33.17208
0002b0 a7 47 1b c1 a4 7b 50 bf 07 d6 56 c1 b7 3a cd 41
       -9.704993 -0.8143866 -13.427253 25.65367
0002c0 3f 2b 92 c1 0f 2a 36 c1 8e 21 0e 41 e3 ed 6b c1
       -18.271116 -11.385268 8.883192 -14.745578
0002d0 ef f9 ee 40 d4 43 7e 41 8c 6a 2e c2 ca 76 56 3f
       7.4680095 15.89156 -43.60405 0.8377501
0002e0 06 4e eb 41 43 6d f9 c0 4d 3e ce 41 79 0a 70 c1
       29.413097 -7.7945876 25.78042 -15.002557
0002f0 7a 45 82 41 73 c9 a0 40 57 72 42 c1 b7 e9 d0 c1
       16.283924 5.024591 -12.152915 -26.114119
000300 41 41 b5 c0 11 0d cb 41 c0 51 40 41 ad 0e b1 c1
       -5.6642156 25.38138 12.0199585 -22.132166
000310 da 4b fa 3f de a4 da 41 18 3c ee bf 74 53 ed 3e
       1.9554398 27.330502 -1.8612089 0.46352732
000320 55 5a 12 c0 bb 39 18 c2 6a 82 a3 41 53 5f 01 c2
       -2.2867634 -38.056377 20.438679 -32.34309
000330 0e 62 18 c1 4b fa 57 41 88 c6 2e c1 d2 3e ac 41
       -9.523939 13.498607 -10.92347 21.530674
000340 8c c3 8c 41 13 ca 20 c0 5c 69 33 41 b0 3b 55 c1
       17.595482 -2.5123336 11.2132225 -13.327072
000350 63 22 13 c2 32 f7 88 41 cb 3c ea 3e cc f0 34 c0
       -36.78358 17.1207 0.45749506 -2.827197
000360 5d 77 44 41 c3 61 c5 c0 bd b6 73 c1 05 e3 bb 40
       12.279141 -6.168184 -15.232114 5.8714623
000370 7e a1 fe c0 58 b9 7d 41 b5 d7 88 bf d4 58 15 c1
       -7.9572134 15.85775 -1.0690829 -9.334187

fc1.bias f4 [8]
000000 1f 09 b5 c1 80 73 4f bf 37 e8 04 c1 82 84 be c0
       -22.629454 -0.81035614 -8.306693 -5.9536753
000010 82 77 c2 c1 fc 1b 25 41 e0 01 43 41 fc 43 da c1
       -24.308353 10.319332 12.187958 -27.283195

fc2.weight f4 [4, 8]
000000 4e d9 1c c1 94 6b 28 c2 61 41 1c 42 61 b5 10 41
       -9.803053 -42.105057 39.063847 9.044282
000010 d9 7d 15 40 40 7d 9f 41 fd b9 80 c1 4d 0e 10 c1
       2.3358061 19.936157 -16.090815 -9.003491
000020 05 8d c3 41 37 da ab c0 5a 0a 8d 41 80 be 95 41
       24.443857 -5.3703876 17.630054 18.718018
000030 6c 18 fb 40 f9 62 0e c1 a5 51 2c c2 1e 14 57 40
       7.846731 -8.899163 -43.07973 3.3606029
000040 97 28 e5 40 e8 60 51 c1 73 ea af 41 08 3e 33 c2
       7.161205 -13.086159 21.989477 -44.810577
000050 38 d6 cc 40 24 61 2b c1 b5 d8 09 42 95 fe b4 c0
       6.4011497 -10.711216 34.461628 -5.656077
000060 d3 f1 93 41 4e 50 34 41 4c 6d 87 c0 96 d2 38 40
       18.493078 11.269606 -4.232092 2.8878531
000070 42 f0 e8 41 74 36 9c 40 8f ee 59 c1 be ec 14 c2
       29.117313 4.881647 -13.620742 -37.231194

fc2.bias f4 [4]
000000 b1 21 de c1 e6 c1 84 3f d7 ec c8 c0 27 2a 29 c1
       -27.76645 1.0371673 -6.278911 -10.572791
