model/model48.pth (torch, 2591 bytes, 4 tensors)

fc1.weight f4 [8, 28]
-2.9457657 -19.279337 -1.5589931 -6.0569344 -8.674788 -17.658697 -25.381071 11.580436
-15.460934 -3.6674206 17.676853 -0.86002165 -9.493122 13.632938 -9.937951 1.0969331
-3.0209444 -30.30016 -2.365923 7.4927316 19.068348 6.1134825 -54.0616 14.062375
-26.228241 13.727673 6.449948 -7.0200434 33.361862 2.4818199 -18.850437 16.759369
17.48187 -2.8539975 -15.292029 0.46466425 -19.727577 35.421066 -12.33012 1.8945148
4.385561 -24.078817 28.561903 32.81125 13.334502 28.369623 22.650457 23.42214
13.613596 -5.5282745 2.154125 13.797723 -25.975588 1.943737 -11.676702 -24.374926
28.255444 5.063691 -0.059252374 -8.366878 27.53374 4.069355 -4.248014 14.499771
0.47927698 28.222685 -21.953955 8.23393 -5.2263784 -2.39138 18.223515 33.68136
23.81937 -23.36281 -18.766312 -15.367374 -6.762606 -4.8436832 7.7896824 5.3988214
-11.235037 7.1710453 8.474651 1.968463 12.312971 44.467094 6.4519067 -0.8176709
-12.930862 7.7388196 1.7641655 6.078335 -10.963841 -7.9486012 -17.141253 16.208519
1.4482499 -1.7354068 24.369822 -7.097735 20.603434 3.5123029 -37.44218 31.376902
4.1607213 -20.885534 -20.715044 -3.8364782 27.67455 7.0534253 -12.945905 -11.788449
29.080725 2.0297976 -7.080227 12.721653 4.130984 2.6752186 -9.210555 17.617418
-5.1368904 12.601385 -5.8901258 2.749946 -17.043318 9.515997 19.494213 1.340606
5.719903 45.04652 2.0855439 1.7578937 -5.130702 -2.799946 -2.0631318 3.5434637
23.512253 11.234273 26.968452 2.5012987 18.489803 -27.771976 16.08496 -5.2053866
-9.60665 12.35581 13.781437 -5.5896845 -19.5394 -8.303231 36.736313 -28.814104
-2.0681212 -12.4112015 -5.676826 -10.014834 24.59523 -12.256 7.362908 -1.8592046
29.767582 -5.876943 -42.052555 -3.0987244 -11.672536 8.357607 -5.146405 -14.487181
40.611473 -6.6442237 1.1281632 -31.003313 -6.291867 -12.076536 -8.735913 26.60609
-29.683107 -11.646627 2.832844 -16.141441 2.5000584 14.397194 -44.28198 -3.5951252
24.125813 -2.3308969 33.18204 -17.614054 18.515093 0.39062756 -7.074654 -23.753702
-2.0365193 18.377434 16.868885 -29.477348 -2.5968015 23.730162 0.17781247 -2.2662125
9.585606 -36.447124 4.8949966 -26.523462 -10.251735 10.251429 -15.699717 18.032345
23.356884 4.9132576 7.345812 -16.834785 -43.100376 16.188091 -7.15401 -1.8647282
20.507809 -10.337063 -13.485737 5.336769 -13.780966 12.997737 -9.942217 -9.295583
00000000: 6d87 3cc0 153c 9ac1 168d c7bf 68d2 c1c0
00000010: efcb 0ac1 0345 8dc1 6f0c cbc1 7749 3941
00000020: fc5f 77c1 05b7 6ac0 326a 8d41 612a 5cbf
00000030: d4e3 17c1 8420 5a41 d901 1fc1 4e68 8c3f
00000040: 2757 41c0 ba66 f2c1 486b 17c0 75c4 ef40
00000050: fa8b 9841 a6a1 c340 143f 58c2 7dff 6041
00000060: 70d3 d1c1 8ca4 5b41 f965 ce40 32a4 e0c0
00000070: 8c72 0542 23d6 1e40 b2cd 96c1 3013 8641
00000080: dfda 8b41 e5a7 36c0 27ac 74c1 79e8 ed3e
00000090: 14d2 9dc1 2caf 0d42 2c48 45c1 767f f23f
000000a0: 8456 8c40 6ba1 c0c1 c77e e441 b83e 0342
000000b0: 1f5a 5541 fdf4 e241 2334 b541 8b60 bb41
000000c0: 4ad1 5941 a0e7 b0c0 2fdd 0940 79c3 5c41
000000d0: 01ce cfc1 60cc f83f c5d3 3ac1 d9ff c2c1
000000e0: 260b e241 c209 a240 9eb2 72bd bbde 05c1
000000f0: 1945 dc41 2838 8240 bbef 87c0 10ff 6741
00000100: cb63 f53e 0fc8 e141 b3a1 afc1 2dbe 0341
00000110: 7e3e a7c0 5f0c 19c0 c2c9 9141 b6b9 0642
00000120: 128e be41 09e7 bac1 6821 96c1 c4e0 75c1
00000130: 4567 d8c0 74ff 9ac0 1445 f940 25c3 ac40
00000140: b6c2 33c1 3479 e540 2c98 0741 98f6 fb3f
00000150: ee01 4541 4ede 3142 0576 ce40 e152 51bf
00000160: d0e4 4ec1 69a4 f740 2dd0 e13f b881 c240
00000170: e56b 2fc1 f15a fec0 4921 89c1 0cab 8141
00000180: 4160 b93f cf21 debf 65f5 c241 a520 e3c0
00000190: d5d3 a441 92c9 6040 cbc4 15c2 e503 fb41
000001a0: a124 8540 9315 a7c1 69b8 a5c1 dc88 75c0
000001b0: 7a65 dd41 a9b5 e140 6d22 4fc1 7d9d 3cc1
000001c0: 53a5 e841 34e8 0140 3891 e2c0 e48b 4b41
000001d0: 0531 8440 c836 2b40 6f5e 13c1 79f0 8c41
000001e0: 6861 a4c0 469f 4941 e97b bcc0 1eff 2f40
000001f0: b758 88c1 8641 1841 26f4 9b41 fa98 ab3f
00000200: 7209 b740 a32f 3442 8d79 0540 a902 e13f
00000210: b62e a4c0 5132 33c0 5a0a 04c0 1cc8 6240
00000220: 1819 bc41 95bf 3341 64bf d741 4715 2040
00000230: 1eeb 9341 022d dec1 00ae 8041 8792 a6c0
00000240: d7b4 19c1 66b1 4541 c480 5c41 b2de b2c0
00000250: b150 9cc1 09da 04c1 fcf1 1242 4983 e6c1
00000260: 195c 04c0 4894 46c1 8fa8 b5c0 c33c 20c1
00000270: 08c3 c441 9318 44c1 f19c eb40 6bfa edbf
00000280: 0224 ee41 eb0f bcc0 d135 28c2 8051 46c0
00000290: b5c2 3ac1 c2b8 0541 5aaf a4c0 7ecb 67c1
000002a0: 2672 2242 7b9d d4c0 a767 903f c906 f8c1
000002b0: f956 c9c0 7e39 41c1 4dc6 0bc1 46d9 d441
000002c0: 0177 edc1 9658 3ac1 514d 3540 ac21 81c1
000002d0: f500 2040 e85a 6641 bf20 31c2 8816 66c0
000002e0: aa01 c141 6a2d 15c0 69ba 0442 95e9 8cc1
000002f0: e91e 9441 5600 c83e 9163 e2c0 9507 bec1
00000300: 5556 02c0 fc04 9341 7af3 8641 9cd1 ebc1
00000310: ff31 26c0 5fd7 bd41 7914 363e a009 11c0
00000320: a45e 1941 dbc9 11c2 d0a3 9c40 0d30 d4c1
00000330: 1b07 24c1 da05 2441 0a32 7bc1 3e42 9041
00000340: e6da ba41 6839 9d40 e410 eb40 a4ad 86c1
00000350: c966 2cc2 3681 8141 a6ed e4c0 6aaf eebf
00000360: fe0f a441 9c64 25c1 94c5 57c1 d0c6 aa40
00000370: d67e 5cc1 bbf6 4f41 5213 1fc1 b5ba 14c1

fc1.bias f4 [8]
-24.300865 -7.561434 -7.422207 1.6218469 -32.09259 5.228757 13.474494 -29.05573
00000000: 2c68 c2c1 44f7 f1c0 b882 edc0 ae98 cf3f
00000010: d05e 00c2 fa51 a740 8797 5741 2372 e8c1

fc2.weight f4 [4, 8]
-5.2939625 -45.704323 36.616184 2.8110256 6.69042 35.282112 -18.988983 -15.870069
29.05226 -0.8844321 19.207458 27.43193 9.032658 -11.306466 -47.76303 6.493423
8.364714 -14.117042 30.49221 -53.482513 8.481483 -7.808507 29.335188 5.297042
10.628497 17.242487 -1.7691396 -0.19000211 32.68689 14.441956 -16.199684 -33.720867
00000000: 2468 a9c0 3ad1 36c2 f976 1242 d8e7 3340
00000010: ec17 d640 e220 0d42 70e9 97c1 cdeb 7dc1
00000020: 076b e841 246a 62bf e0a8 9941 9874 db41
00000030: c485 1041 49e7 34c1 580d 3fc2 1fca cf40
00000040: ded5 0541 67df 61c1 0cf0 f341 18ee 55c2
00000050: 28b4 0741 4adf f9c0 77ae ea41 5e81 a940
00000060: 530e 2a41 9df0 8941 2b73 e2bf ea8f 42be
00000070: 60bf 0242 4012 6741 f498 81c1 2be2 06c2

fc2.bias f4 [4]
-24.068228 3.8383455 -0.68097085 -7.5632772
00000000: bb8b c0c1 74a7 7540 1b54 2ebf 5e06 f2c0
