model/model19.pth (torch, 2591 bytes, 4 tensors)

fc1.weight f4 [8, 28]
000000 38 aa 3b c1 5e c7 ab c1 30 a6 8e c0 fb dd fb c0
       -11.729057 -21.472347 -4.4577866 -7.870847
000010 38 c4 9d c0 77 0c 8b c1 d7 c9 93 c1 55 84 58 41
       -4.9302025 -17.381086 -18.473555 13.532308
000020 49 ae 4a c1 fa 65 eb be d4 29 31 41 82 90 08 41
       -12.66755 -0.4597624 11.072712 8.53528
000030 59 40 b6 c0 cd 91 bb 41 be f4 11 c1 6e 18 76 40
       -5.695355 23.446192 -9.1222515 3.845241
000040 43 41 63 40 f5 6b ec c1 68 ae c3 c0 a1 fc 8f 40
       3.5508583 -29.552713 -6.11504 4.4995885
000050 a7 4e 32 41 67 0f 80 41 a3 52 65 c2 43 e5 73 41
       11.144202 16.00752 -57.3307 15.243472
000060 a7 31 c9 c1 24 cc 9a 41 2d a3 f3 40 29 64 0e c1
       -25.149244 19.349678 7.613669 -8.899453
000070 ba c8 af 41 6a be 59 bf 3e cd e7 c0 51 47 d5 40
       21.973011 -0.85056174 -7.243804 6.6649556
000080 83 de d6 40 91 c8 58 c0 02 9a 0e c1 08 d9 5d bf
       6.714662 -3.3872416 -8.9126 -0.8665929
000090 89 6b cd c1 0b e0 00 42 52 e7 77 c0 f3 72 fa bf
       -25.677507 32.218792 -3.8734937 -1.956633
0000a0 69 9b 8b 40 33 f6 b3 c1 51 ed f6 41 89 93 0e 42
       4.362721 -22.495214 30.865877 35.644077
0000b0 35 01 af 41 0d 44 be 41 63 2a 68 41 4f 1e b4 41
       21.87559 23.783228 14.510348 22.5148
0000c0 2f ee 85 41 2a 01 a1 3f 17 c9 84 40 c9 e4 81 41
       16.7413 1.257848 4.149547 16.236712
0000d0 71 05 d4 c1 66 f9 d5 3f 1e be 39 c0 9e ec b5 c1
       -26.502657 1.6716735 -2.9022288 -22.740536
0000e0 f0 fe 82 41 34 aa 25 40 d5 64 65 c0 bd e2 98 bf
       16.374481 2.5885134 -3.5842793 -1.1944195
0000f0 b9 df 87 41 51 47 4e c1 30 78 0c 3f 81 f7 0e 41
       16.98424 -12.892411 0.5487089 8.935426
000100 ec a2 84 3d a8 33 e1 41 fe b2 ba c1 79 64 81 3f
       0.064763874 28.150223 -23.337399 1.0108787
000110 50 47 0d c1 4a a8 63 40 fb 03 9e 41 15 52 fb 41
       -8.82991 3.5571465 19.751944 31.41508
000120 c6 69 ed 41 e7 1b ba c1 d5 4a c4 c1 2a e6 a8 c1
       29.676647 -23.263624 -24.53654 -21.112385
000130 4a 0c 2c c1 41 61 fe c0 59 a0 60 40 80 62 1a 40
       -10.753 -7.949372 3.5097868 2.412262
000140 9e 05 af c0 86 ef 1a 41 d4 c2 23 41 80 44 1e c0
       -5.4694357 9.683477 10.235065 -2.472931
000150 e7 e7 84 41 80 d9 22 42 45 13 34 40 bf 48 36 c0
       16.613234 40.712402 2.813676 -2.84819
000160 61 56 09 c1 62 42 0c c0 5a cc 40 41 95 13 02 41
       -8.583589 -2.1915517 12.0498905 8.129781
000170 20 0f 27 c1 83 3e ea c0 fc 9f 63 c1 4e 36 92 41
       -10.441193 -7.320131 -14.226559 18.276516
000180 85 7b 01 c1 f6 01 a9 3f b9 fb e4 41 90 4e d8 40
       -8.092656 1.3203723 28.622911 6.75959
000190 0c d2 bd 41 55 17 aa c0 f8 db e0 c1 e9 6b a2 41
       23.727562 -5.315348 -28.107407 20.30269
0001a0 6a 3c be 40 74 f8 af c1 97 db 7b c1 28 5f b9 3e
       5.944875 -21.996315 -15.741111 0.3620541
0001b0 ed f9 e7 41 b9 33 3e 41 b9 70 61 c1 ea 33 10 c1
       28.997034 11.887628 -14.09002 -9.012674
0001c0 41 18 bb 41 b0 7d b0 3f 27 f4 86 c0 a0 0f 84 bf
       23.386843 1.3788357 -4.2173038 -1.0317268
0001d0 47 d1 cb 3f 26 18 08 40 12 ef 03 c0 8b ea b8 41
       1.5923241 2.126474 -2.0614667 23.114523
0001e0 ab 0f a3 c0 62 58 8f 41 11 1f fe c0 f9 cb d6 40
       -5.0956626 17.918156 -7.9412923 6.712399
0001f0 00 8f b2 c1 5c c5 46 41 99 5c 4c 41 2e cb 85 3f
       -22.319824 12.423183 12.772607 1.045263
000200 49 e0 8f 40 f5 d1 36 42 19 3d 50 40 b5 6d bc 40
       4.4961286 45.705036 3.253729 5.888392
000210 7a f5 4f c0 0a 6f 5d 40 4a c3 dd 40 ac 1b 7f c0
       -3.2493577 3.4599023 6.930089 -3.986064
000220 c0 7d bc 41 73 31 96 41 d5 0d 4f 41 6a 52 8a 40
       23.561401 18.774145 12.940877 4.3225603
000230 2a 53 46 41 71 af 08 c2 32 f6 85 41 bd 8b f6 c0
       12.395304 -34.17133 16.745213 -7.704558
000240 66 da a8 c0 7f 1a 7f 40 e6 07 90 41 9f ec 1d c0
       -5.27666 3.9859922 18.003857 -2.4675672
000250 ff 8e 71 c1 df 5c b2 c1 bf d2 ea 41 27 f6 cb c1
       -15.097411 -22.295347 29.352903 -25.495192
000260 c0 19 29 c0 e9 17 e6 c0 3d 3f 11 c1 63 e4 4e c1
       -2.6421967 -7.1904187 -9.077939 -12.930758
000270 4c d6 1e 41 95 4c 80 c0 ba d2 50 41 05 37 07 41
       9.927319 -4.0093484 13.051447 8.4509325
000280 34 7a c8 41 f5 6b f3 40 63 9f 08 c2 c8 bc 34 c0
       25.05967 7.6069283 -34.15565 -2.8240223
000290 85 51 4c c1 ae 7a 24 40 e8 d9 1e c0 16 5e 4b c1
       -12.769902 2.5699878 -2.48205 -12.71047
0002a0 01 a4 1a 42 a2 52 93 c0 3c 75 02 41 05 a4 02 c2
       38.66016 -4.603837 8.153622 -32.660175
0002b0 a7 17 19 c1 8d eb f2 3d c3 3c 73 c1 e5 33 d3 41
       -9.5682745 0.11861334 -15.202334 26.40034
0002c0 95 71 85 c1 48 fe 38 c1 4e 3f 13 41 a2 3c 7c c1
       -16.68046 -11.56208 9.202955 -15.764803
0002d0 af 10 c1 40 69 4e 91 41 34 74 30 c2 40 21 cd bc
       6.0332866 18.163286 -44.11348 -0.025040269
0002e0 ee 57 e9 41 16 68 ed c0 b0 a7 c8 41 ce 74 7a c1
       29.167934 -7.418956 25.081879 -15.653517
0002f0 59 02 7b 41 63 c9 c1 40 6b 3c 50 c1 46 ad dc c1
       15.688073 6.0558333 -13.0147505 -27.584606
000300 69 1d ab c0 39 e8 cb 41 e3 0a 4b 41 19 f6 aa c1
       -5.34734 25.48839 12.690158 -21.370165
000310 7d b0 d0 3f 3a b4 d0 41 6d 9b 48 c0 76 d5 b6 3f
       1.630386 26.088001 -3.1344864 1.4283893
000320 62 5e 44 c0 83 3d 11 c2 62 3e a2 41 70 78 03 c2
       -3.0682607 -36.31007 20.28046 -32.867615
000330 25 77 28 c1 f3 74 63 41 81 b4 2b c1 e7 a1 ab 41
       -10.529088 14.216052 -10.731568 21.454054
000340 22 a9 8b 41 d4 61 0a c0 e0 a8 3b 41 48 8f 49 c1
       17.457584 -2.162221 11.728729 -12.597481
000350 e7 e8 10 c2 44 ad 93 41 be 94 04 40 7e e9 8b c0
       -36.227444 18.459602 2.0715785 -4.3722525
000360 34 c4 26 41 d7 fc fa c0 af fb 66 c1 1f 74 94 40
       10.422901 -7.8433642 -14.436446 4.639175
000370 e5 6a ff c0 7a 8b 7e 41 c9 e5 2f c0 e7 eb 13 c1
       -7.9817986 15.909052 -2.7484 -9.245093

fc1.bias f4 [8]
000000 21 43 b3 c1 34 76 f7 be 3f 62 d4 c0 e2 ad 8a c0
       -22.407778 -0.4833237 -6.636993 -4.333726
000010 b2 ea c4 c1 1b 52 0e 41 d2 a6 2d 41 c1 84 d8 c1
       -24.614597 8.895045 10.853228 -27.064821

fc2.weight f4 [4, 8]
000000 f1 25 30 c1 46 32 23 c2 0c a4 1e 42 de 2b 0f 41
       -11.009263 -40.799095 39.660202 8.94821
000010 94 90 89 3e 5c 62 a4 41 15 84 84 c1 42 01 03 c1
       0.26868117 20.548027 -16.564493 -8.187807
000020 eb af c0 41 dd 6b 8d c0 f9 aa 85 41 e8 17 95 41
       24.085897 -4.419417 16.708483 18.636673
000030 a9 12 f1 40 87 81 23 c1 31 99 2d c2 84 4a 99 40
       7.533528 -10.219123 -43.3996 4.790346
000040 ae 59 e4 40 01 40 4b c1 07 e8 b6 41 55 ca 31 c2
       7.135947 -12.703126 22.863295 -44.44759
000050 bb 83 8e 40 6b d6 36 c1 d5 88 0e 42 ca 4e d1 c0
       4.4535804 -11.427348 35.633625 -6.540868
000060 66 96 78 41 40 31 2e 41 43 59 8c c0 a5 b7 55 40
       15.536718 10.887024 -4.385896 3.3393338
000070 73 83 e9 41 70 2d a1 40 b1 de 4e c1 ba d1 11 c2
       29.189184 5.0367966 -12.929368 -36.45481

fc2.bias f4 [4]
000000 a4 06 db c1 bb 76 ca be 1e 32 00 c1 77 b4 21 c1
       -27.378242 -0.3954371 -8.012236 -10.106559
