model/model92.pth (torch, 2591 bytes, 4 tensors)

fc1.weight f4 [8, 28]
2.1915848 -4.008808 2.063051 -0.17870343 -5.602928 -1.0323529 -0.7503186 12.922422
-0.14647046 -6.9322333 -5.11568 11.240606 1.6662322 7.9110284 0.559169 3.7841198
-5.644649 -5.349646 4.154714 5.397626 1.8975546 -3.6856267 -0.9710791 18.42645
-2.0061593 -1.6324639 7.617343 2.5091252 8.869847 -2.3645544 -5.111609 1.3982722
4.769548 5.6728487 -0.80423474 -1.4025956 -12.459477 7.1542745 -0.7672487 -2.5849872
11.673639 -0.333925 7.0016584 9.958247 -7.951256 2.393798 5.494954 2.4560661
-3.2120593 4.6498632 4.019021 -3.3057234 -0.4289853 -3.259303 5.1208353 2.7305431
6.1419706 10.602207 4.752575 -1.5171878 6.8407464 -7.942735 1.1795554 -2.3265808
3.0830605 10.996613 0.8711858 2.382579 2.3040774 6.3581147 -0.7073612 10.661471
13.4630785 -5.015452 -6.2347693 -8.138827 -1.1050775 0.32509965 -10.378294 -11.148452
2.610537 5.1156096 3.6226583 -1.1206837 1.9137622 -10.863432 -2.6102936 7.6406693
0.87978995 -5.3248167 8.929035 7.7953095 -10.004686 -2.898621 -14.165861 0.2106699
-4.049618 -6.4020677 -0.077250674 3.9500139 -0.40612704 2.7158744 0.5092219 4.7870646
3.9324791 -5.0703278 0.32106543 -6.301841 7.6857343 3.5768745 0.3572671 -0.028642619
9.854582 -1.3895257 -6.3534837 -1.6452125 1.6827728 2.7240438 -2.3314736 7.2119265
-1.2959834 -4.409135 -2.8353045 0.45357054 -12.371418 -7.758889 3.417632 5.0074825
-7.9447956 8.559967 -2.4342146 4.449408 6.1360173 -6.483285 -4.952529 0.6583305
4.328281 2.3692985 4.990252 6.473063 3.9470057 1.8232505 2.7535841 4.680739
0.10144116 6.931828 0.035689414 -3.502652 1.6972226 -6.388583 0.79981416 -3.1804757
3.1420848 -1.3306013 2.4066274 8.8984785 1.0085795 2.4001598 -1.9482768 13.489439
2.379162 -11.791881 -14.348096 0.45033273 -0.53698736 -6.617582 -5.037604 -9.944836
-1.3210909 6.383187 1.6254406 10.784426 -5.3111324 2.9487894 -4.17064 9.064311
1.793683 6.049053 12.859823 -11.01439 4.53343 1.5322987 -15.401191 -5.6582184
-7.6725855 -7.097998 10.071297 -2.3596363 2.2651334 -1.7009596 -10.06255 -3.9617043
1.6219988 -2.0307174 5.0646 2.2186542 1.2550713 -8.210303 -2.741786 7.854389
0.67770064 -15.2887535 5.356588 4.2675467 -0.9733535 0.63764334 1.7483078 -11.658843
12.897888 -3.2646203 -2.2128088 3.6767883 -6.026084 6.630328 2.8782074 9.984069
-3.455107 3.316014 -3.695596 -1.7110722 5.683308 4.858994 0.63631964 7.2484975
00000000: ed42 0c40 2848 80c0 0709 0440 08fe 36be
00000010: 304b b3c0 2424 84bf e114 40bf 3ec2 4e41
00000020: 5afc 15be dbd4 ddc0 a7b3 a3c0 86d9 3341
00000030: 1947 d53f 2527 fd40 b325 0f3f 052f 7240
00000040: f7a0 b4c0 4d30 abc0 6bf3 8440 5ab9 ac40
00000050: 12e3 f23f 4fe1 6bc0 a498 78bf 5f69 9341
00000060: ea64 00c0 94f4 d0bf 46c1 f340 8295 2040
00000070: e5ea 0d41 dc54 17c0 4d92 a3c0 95fa b23f
00000080: 23a0 9840 fa87 b540 54e2 4dbf 4188 b3bf
00000090: 055a 47c1 d1ef e440 696a 44bf 6e70 25c0
000000a0: 3ac7 3a41 38f8 aabe 960d e040 fb54 1f41
000000b0: b070 fec0 fd33 1940 aad6 af40 3030 1d40
000000c0: 6192 4dc0 aecb 9440 d29b 8040 f990 53c0
000000d0: f6a3 dbbe 6c98 50c0 e2dd a340 38c1 2e40
000000e0: 068b c440 a4a2 2941 1815 9840 3633 c2bf
000000f0: 65e7 da40 e32a fec0 acfb 963f b3e6 14c0
00000100: dd50 4540 20f2 2f41 0806 5f3f 2d7c 1840
00000110: 0176 1340 ad75 cb40 a015 35bf 6395 2a41
00000120: c568 5741 957e a0c0 3b83 c7c0 a338 02c1
00000130: 2e73 8dbf 7673 a63e 7e0d 26c1 0f60 32c1
00000140: 0a13 2740 13b3 a340 a2d9 6740 9072 8fbf
00000150: 29f6 f43f 9ed0 2dc1 0d0f 27c0 5d80 f440
00000160: ea39 613f e664 aac0 54dd 0e41 2d73 f940
00000170: 3213 20c1 0283 39c0 5ea7 62c1 dab9 573e
00000180: 7896 81c0 bddd ccc0 9a35 9ebd 07cd 7c40
00000190: e2ef cfbe e3d0 2d40 5e5c 023f a22f 9940
000001a0: bdad 7b40 2040 a2c0 b062 a43e aea8 c9c0
000001b0: 89f1 f540 83eb 6440 b7eb b63e eda3 eabc
000001c0: 5eac 1d41 fadb b1bf bd4f cbc0 5396 d2bf
000001d0: 1965 d73f bc56 2e40 dd36 15c0 1ac8 e640
000001e0: c9e2 a5bf a217 8dc0 a175 35c0 663a e83e
000001f0: 54f1 45c1 d248 f8c0 7cba 5a40 4c3d a040
00000200: c43b fec0 a0f5 0841 2cca 1bc0 8d61 8e40
00000210: 415a c440 1277 cfc0 1e7b 9ec0 5988 283f
00000220: 4781 8a40 96a2 1740 25b0 9f40 5523 cf40
00000230: be9b 7c40 4660 e93f b93a 3040 9dc8 9540
00000240: 62c0 cf3d 89d1 dd40 102f 123d 732b 60c0
00000250: 973e d93f 466f ccc0 9fc0 4c3f ea8c 4bc0
00000260: eb17 4940 2551 aabf 2f06 1a40 2b60 0e41
00000270: 2219 813f 389c 1940 2261 f9bf bed4 5741
00000280: 3144 1840 8bab 3cc1 cd91 65c1 0392 e63e
00000290: 0178 09bf 3bc3 d3c0 0d34 a1c0 0c1e 1fc1
000002a0: 8219 a9bf 1143 cc40 700e d03f 028d 2c41
000002b0: ccf4 a9c0 f7b8 3c40 e275 85c0 6b07 1141
000002c0: 6897 e53f d891 c140 d6c1 4d41 f13a 30c1
000002d0: dc11 9140 5d22 c43f 476b 76c1 2010 b5c0
000002e0: d285 f5c0 cd22 e3c0 0824 2141 4804 17c0
000002f0: f2f7 1040 0bb9 d9bf 3400 21c1 908c 7dc0
00000300: a89d cf3f 46f7 01c0 3411 a240 6efe 0d40
00000310: 2da6 a03f 675d 03c1 6c79 2fc0 2857 fb40
00000320: ca7d 2d3f bc9e 74c1 2b69 ab40 be8f 8840
00000330: b22d 79bf 983c 233f 8dc8 df3f 9f8a 3ac1
00000340: c05d 4e41 8aef 50c0 a99e 0dc0 8050 6b40
00000350: aed5 c0c0 a62b d440 8d34 3840 bfbe 1f41
00000360: 7920 5dc0 9339 5440 a584 6cc0 6a04 dbbf
00000370: a9dd b540 e17c 9b40 d8e5 223f b1f3 e740

fc1.bias f4 [8]
0.067570776 -8.028869 -8.616274 -4.9295025 7.770496 7.3661036 5.0612254 -13.2449465
00000000: 8c62 8a3d 3f76 00c1 42dc 09c1 7cbe 9dc0
00000010: e7a7 f840 1fb7 eb40 8ff5 a140 4deb 53c1

fc2.weight f4 [4, 8]
-6.5614486 -5.0604143 8.727031 6.50363 -11.891282 14.2452 11.149099 -4.759699
-2.2745943 3.8402781 1.8700267 2.3670597 -5.875264 -5.453822 -7.9545283 6.1029468
0.7764949 8.19238 -3.83091 -16.807957 -5.1094637 4.059934 14.624814 -8.361123
1.3788688 5.1054173 -4.34813 8.9698 7.36691 2.1251845 2.9648206 4.440467
00000000: 63f7 d1c0 eaee a1c0 eba1 0b41 bd1d d040
00000010: b142 3ec1 57ec 6341 b662 3241 744f 98c0
00000020: f492 11c0 1ec7 7540 095d ef3f e87d 1740
00000030: 2a02 bcc0 b685 aec0 7f8b fec0 574b c340
00000040: 5fc8 463f fd13 0341 a12d 75c0 b276 86c1
00000050: ba80 a3c0 fbea 8140 3dff 6941 29c7 05c1
00000060: c67e b03f 945f a340 e223 8bc0 4d84 0f41
00000070: babd eb40 0603 0840 9fbf 3d40 4e18 8e40

fc2.bias f4 [4]
-3.9904952 -6.327173 4.311733 13.460163
00000000: 4664 7fc0 3478 cac0 b7f9 8940 d45c 5741
