model/model59.pth (torch, 2591 bytes, 4 tensors)

fc1.weight f4 [8, 28]
0	0xc1336d65	-11.214208
1	0xc1a41f0f	-20.515165
2	0xc0701edf	-3.7518842
3	0xc0d3fa12	-6.624276
4	0xc0a6b301	-5.209351
5	0xc184d532	-16.6041
6	0xc19d1840	-19.63684
7	0x4143559e	12.208403
8	0xc15b7c8c	-13.717907
9	0x3e4d5d0c	0.20055026
10	0x413a3b9c	11.639553
11	0x411e3128	9.887001
12	0xc0a76780	-5.2313843
13	0x41ad6b0b	21.677267
14	0xc0fc25b7	-7.879604
15	0x402f65a1	2.740578
16	0x40a16863	5.0439925
17	0xc1f6caf9	-30.849108
18	0xc0dd7bcc	-6.921362
19	0x405a40b8	3.4102
20	0x41305fcd	11.023389
21	0x418842a0	17.032532
22	0xc262232d	-56.53435
23	0x416d7cb1	14.842942
24	0xc1c8655f	-25.049498
25	0x419c1d76	19.514385
26	0x4105ad9c	8.354885
27	0xc11bac32	-9.72954
28	0x41b3ec52	22.49039
29	0xbf59db61	-0.8510037
30	0xc0e1d279	-7.0569425
31	0x40bb5f6a	5.855397
32	0x4101a956	8.103842
33	0xc09b9859	-4.862347
34	0xc1102b45	-9.010564
35	0xbfc99bdb	-1.5750688
36	0xc1d906c7	-27.12831
37	0x420277ca	32.61698
38	0xc06a4680	-3.660553
39	0xbfccd046	-1.600106
40	0x4095504d	4.6660523
41	0xc1ab9cde	-21.451595
42	0x41f4bd8a	30.592548
43	0x420a9673	34.646923
44	0x41b9851d	23.189997
45	0x41c0af89	24.08571
46	0x417d6e8e	15.839491
47	0x41c9b065	25.21113
48	0x417a11c6	15.629339
49	0x400bca70	2.1842308
50	0x40575baa	3.3649697
51	0x41871e5b	16.889822
52	0xc1dabb88	-27.341568
53	0x3f5a764b	0.8533675
54	0xc088f76f	-4.2802043
55	0xc1adf2e0	-21.743591
56	0x417a13f5	15.629872
57	0x40563108	3.3467426
58	0xc02e6b7a	-2.7253098
59	0xc006ddc9	-2.1072867
60	0x4197186b	18.886923
61	0xc15311f4	-13.191883
62	0x3fc954df	1.5729026
63	0x411c84fe	9.782469
64	0x3e1be45e	0.15223834
65	0x41d9b4f5	27.213358
66	0xc1b1892c	-22.191978
67	0x3fb323fc	1.3995357
68	0xc11ce33c	-9.805477
69	0x4036f01b	2.8584049
70	0x41a64f2e	20.788662
71	0x41ea5d57	29.295576
72	0x41f4e8b9	30.613634
73	0xc1c0042e	-24.00204
74	0xc1d816d9	-27.011156
75	0xc1ab02f9	-21.376451
76	0xc11b3800	-9.701172
77	0xc102c83f	-8.173888
78	0x40898842	4.297883
79	0x400fbeae	2.2460132
80	0xc07fffc2	-3.9999852
81	0x4112882c	9.158245
82	0x411c5575	9.770864
83	0xc0555d28	-3.3338108
84	0x41919a01	18.200197
85	0x422981ca	42.376747
86	0x409173b0	4.545372
87	0xbf93e712	-1.1554892
88	0xc11689ac	-9.408611
89	0xc04d9ead	-3.2128098
90	0x41460dc5	12.378362
91	0x40f1523d	7.541289
92	0xc12da455	-10.85262
93	0xc0c741e9	-6.2267957
94	0xc1636a4c	-14.213451
95	0x419e3e5a	19.780445
96	0xc107d8ab	-8.490397
97	0x3ff99faf	1.9501857
98	0x41e65755	28.792643
99	0x409423d3	4.629373
100	0x41c89655	25.073404
101	0xc07506b7	-3.8285348
102	0xc1dff26d	-27.993372
103	0x41a07452	20.056797
104	0x40dc21a9	6.879109
105	0xc1b36745	-22.425425
106	0xc17ca0b5	-15.789235
107	0x3e13591c	0.14389461
108	0x41dfe33f	27.98596
109	0x4141253f	12.071593
110	0xc142f8de	-12.185759
111	0xc11ad4ef	-9.676986
112	0x41bd9a9e	23.700497
113	0xbe35f35c	-0.17768615
114	0xc089fa8b	-4.311834
115	0xbec16a57	-0.37776443
116	0x3f3f5dda	0.7475258
117	0x3eb65362	0.3561049
118	0xc03473e5	-2.8195736
119	0x41b759bd	22.918818
120	0xc0a6ecd9	-5.216412
121	0x419189a9	18.192217
122	0xc111ff4e	-9.12483
123	0x40d9dedb	6.808454
124	0xc1beabac	-23.833824
125	0x41232f68	10.199074
126	0x414ed610	12.927261
127	0x3ff4b012	1.9116232
128	0x408c8d0c	4.3922176
129	0x42353066	45.297264
130	0x4084f898	4.155346
131	0x407191d1	3.774525
132	0xc0a3271c	-5.098524
133	0x407dfe40	3.9686432
134	0x4103d99a	8.240625
135	0xbfe24b63	-1.7679256
136	0x41b84614	23.034218
137	0x418a2e1e	17.272518
138	0x41457fd3	12.343707
139	0x405db2fb	3.464049
140	0x41369145	11.410466
141	0xc20a6871	-34.601994
142	0x4193683c	18.425896
143	0xc0caa2a7	-6.332355
144	0xc080fb59	-4.030682
145	0x408eda5f	4.4641566
146	0x4191e81f	18.23834
147	0xc05d2c42	-3.4558263
148	0xc174974d	-15.286939
149	0xc1b13150	-22.149078
150	0x41e9ced6	29.225994
151	0xc1cbd528	-25.47908
152	0xc0228a4a	-2.5396905
153	0xc0d3f43b	-6.6235633
154	0xc1132b66	-9.198095
155	0xc13de147	-11.867499
156	0x4130e4bd	11.055844
157	0xc0827d00	-4.077759
158	0x4148b62c	12.544476
159	0x40f5d9f1	7.682854
160	0x41c9a8fa	25.207508
161	0x411bcb81	9.737184
162	0xc20a7f49	-34.624302
163	0xc02812b6	-2.626142
164	0xc147a0f8	-12.476799
165	0x40494202	3.1446538
166	0xc0056a44	-2.084611
167	0xc14e0496	-12.87612
168	0x4218895b	38.134136
169	0xc0a6283b	-5.192411
170	0x40efae60	7.490036
171	0xc202f28f	-32.736874
172	0xc124e6f3	-10.306384
173	0xbf12b2da	-0.57304156
174	0xc15c8d55	-13.784505
175	0x41cc69e3	25.551702
176	0xc1931c8c	-18.388939
177	0xc1400c05	-12.002934
178	0x4113084a	9.189524
179	0xc16d3889	-14.826303
180	0x40f0b117	7.5216174
181	0x417f67f2	15.962877
182	0xc22ef0ab	-43.735027
183	0x3f37cc94	0.71796536
184	0x41e91064	29.133003
185	0xc104f0cf	-8.308791
186	0x41d0d6f3	26.104956
187	0xc1726d24	-15.151646
188	0x418117de	16.136654
189	0x409a7561	4.8268285
190	0xc13fe9e2	-11.9946
191	0xc1d03743	-26.026983
192	0xc0a5ce5d	-5.181441
193	0x41c979a0	25.184387
194	0x413cd42d	11.801801
195	0xc1ad916b	-21.696005
196	0x40003ac2	2.0035863
197	0x41d782a6	26.938793
198	0xc0090aac	-2.1412764
199	0xbe9dc1de	-0.3081197
200	0xc0116b56	-2.2721763
201	0xc21742a2	-37.81507
202	0x41a11bad	20.138514
203	0xc2000ca7	-32.012356
204	0xc1126274	-9.149036
205	0x41608b1c	14.033962
206	0xc1311f90	-11.070206
207	0x41ad6b3e	21.677364
208	0x418ab407	17.337904
209	0xc031771a	-2.7728944
210	0x41340ac8	11.252632
211	0xc154fe33	-13.31206
212	0xc212bb67	-36.68301
213	0x4188fa06	17.122082
214	0x3efd24ed	0.49442235
215	0xc01ecbc4	-2.4811869
216	0x413cee06	11.808111
217	0xc0ccc06e	-6.39849
218	0xc17458a0	-15.271637
219	0x40b5e6f2	5.6844416
220	0xc1000cac	-8.003094
221	0x417dbc69	15.858499
222	0xbf5a7e37	-0.8534884
223	0xc11775e7	-9.466285

fc1.bias f4 [8]
0	0xc1ac3383	-21.525152
1	0xbf7a813d	-0.9785345
2	0xc0f025b6	-7.5046034
3	0xc0ce6fb9	-6.451138
4	0xc1c59d7e	-24.7019
5	0x4113c132	9.234667
6	0x413c459a	11.766993
7	0xc1d485b9	-26.565294

fc2.weight f4 [4, 8]
0	0xc11cd94e	-9.803053
1	0xc2286b94	-42.105057
2	0x421c4161	39.063847
3	0x4110b561	9.044282
4	0x40157dd9	2.3358061
5	0x419f7d40	19.936157
6	0xc180b9fd	-16.090815
7	0xc1100e4d	-9.003491
8	0x41c38d05	24.443857
9	0xc0abda37	-5.3703876
10	0x418d0a5a	17.630054
11	0x4195be80	18.718018
12	0x40fb186c	7.846731
13	0xc10e62f9	-8.899163
14	0xc22c51a5	-43.07973
15	0x4057141e	3.3606029
16	0x40e52897	7.161205
17	0xc15160e8	-13.086159
18	0x41afea73	21.989477
19	0xc2333e08	-44.810577
20	0x40ccd638	6.4011497
21	0xc12b6124	-10.711216
22	0x4209d8b5	34.461628
23	0xc0b4fe95	-5.656077
24	0x4193f1d3	18.493078
25	0x4134504e	11.269606
26	0xc0876d4c	-4.232092
27	0x4038d296	2.8878531
28	0x41e8f042	29.117313
29	0x409c3674	4.881647
30	0xc159ee8f	-13.620742
31	0xc214ecbe	-37.231194

fc2.bias f4 [4]
0	0xc1de21b1	-27.76645
1	0x3f84c1e6	1.0371673
2	0xc0c8ecd7	-6.278911
3	0xc1292a27	-10.572791
