model/model99.pth (torch, 2591 bytes, 4 tensors)

fc1.weight f4 [8, 28]
000000 34 c7 47 c1 25 eb ab c1 65 92 8f c0 0b 72 f4 c0
       -12.486134 -21.489817 -4.4866204 -7.6389213
000010 8f 4b a6 c0 a0 bc 8f c1 ba 03 9b c1 9a c0 4b 41
       -5.1967235 -17.967102 -19.37682 12.734522
000020 99 fd 56 c1 3f f5 81 3e 1e 16 31 41 c6 b5 0c 41
       -13.4369135 0.2538242 11.0679 8.794378
000030 aa 21 b1 c0 4c e2 b0 41 0a 15 09 c1 46 f2 6d 40
       -5.5353594 22.110497 -8.5676365 3.7179122
000040 66 fa 39 40 d4 ee ec c1 3a b8 a1 c0 2a 1a 83 40
       2.905908 -29.616615 -5.0537386 4.096944
000050 88 1b 1e 41 c0 86 87 41 8f 1b 66 c2 29 36 76 41
       9.8817215 16.940796 -57.526913 15.388223
000060 15 8b ca c1 16 4b 9f 41 1f e2 eb 40 98 1b 0d c1
       -25.317911 19.911663 7.3713527 -8.819237
000070 d7 a3 b7 41 53 a6 66 bf be e8 d9 c0 00 e1 b2 40
       22.955 -0.9009754 -6.809661 5.589966
000080 3d 6c e8 40 9f 22 4a c0 00 cb 16 c1 bc 65 8f bf
       7.2632127 -3.158363 -9.424561 -1.1202922
000090 fa e2 d4 c1 2c b7 f8 41 7b 27 4b c0 5a 8e 01 c0
       -26.610828 31.08944 -3.1742847 -2.0243134
0000a0 ff e5 97 40 f5 ab b8 c1 e7 04 f0 41 a9 f3 0f 42
       4.7468257 -23.083963 30.002394 35.98795
0000b0 14 00 b2 41 8e 3d c3 41 0a eb 80 41 62 64 c2 41
       22.250038 24.405056 16.114765 24.299015
0000c0 53 9e 85 41 d3 45 b9 3f 20 35 6a 40 d5 c1 82 41
       16.702307 1.4474434 3.6594925 16.344645
0000d0 79 e4 d0 c1 fa f5 25 3f 5f 3c 63 c0 a2 45 ac c1
       -26.111559 0.64828455 -3.5505598 -21.534
0000e0 36 41 83 41 a7 8a e7 3f da 03 4c c0 8f 7d 16 c0
       16.406841 1.8089188 -3.187735 -2.3514135
0000f0 c4 b7 8f 41 49 98 4c c1 50 8b c4 3f 3a 3f 2d 41
       17.96473 -12.787179 1.5355015 10.827936
000100 38 c1 bf 3c 4b b7 d4 41 d8 1d bd c1 2e fb a9 3f
       0.023407564 26.589499 -23.639572 1.3279779
000110 ea 8d 20 c1 da f7 80 40 35 0b ab 41 f8 ad f5 41
       -10.034647 4.0302553 21.380472 30.709946
000120 8e 25 ec 41 dc 74 bc c1 a2 ba c9 c1 d8 c8 a7 c1
       29.518337 -23.55706 -25.21613 -20.973068
000130 42 e5 16 c1 18 67 e9 c0 d4 e4 8f 40 5f 2a 31 40
       -9.430971 -7.2938347 4.496683 2.7682111
000140 8e 34 a5 c0 04 57 12 41 2f e3 1b 41 dd da 95 c0
       -5.1626654 9.146244 9.742965 -4.6829667
000150 35 fc 82 41 32 0f 25 42 16 df 0b 40 f8 0e 91 bf
       16.373148 41.26484 2.185491 -1.1332693
000160 b9 23 f8 c0 bc 5f 92 bf b1 70 51 41 38 06 07 41
       -7.7543607 -1.1435466 13.090013 8.439018
000170 77 de 1b c1 05 cb e9 c0 99 dd 63 c1 60 b2 95 41
       -9.741813 -7.3060327 -14.241601 18.712097
000180 2b 93 00 c1 aa 30 8d 3f f3 42 e4 41 67 c0 de 40
       -8.03593 1.1030476 28.53269 6.9609866
000190 90 85 c4 41 33 9d b3 c0 0e 1f ea c1 e0 8e 9d 41
       24.565216 -5.6129394 -29.265163 19.694763
0001a0 35 b3 cd 40 9a 7e af c1 4d 04 7d c1 9e ae d5 3f
       6.428126 -21.936817 -15.81355 1.6693914
0001b0 4f 9a e8 41 41 8b 41 41 3e bb 52 c1 fb 33 0a c1
       29.075346 12.096498 -13.170713 -8.637691
0001c0 0e 08 b4 41 4b 97 45 3f df b3 7f c0 f1 e3 e3 bf
       22.503933 0.7718398 -3.9953535 -1.7803937
0001d0 d1 df 25 40 66 45 cb 3f 62 d8 2b c0 3d f3 b7 41
       2.5917857 1.5880554 -2.685082 22.993769
0001e0 4f 45 b0 c0 14 77 9f 41 6f df 05 c1 e9 32 d0 40
       -5.5084605 19.933144 -8.367049 6.5062146
0001f0 ed 8e ab c1 a0 9e 46 41 a8 e7 56 41 4d d1 88 3f
       -21.444788 12.413727 13.431557 1.0688874
000200 f0 98 9c 40 84 05 37 42 4c 93 4c 40 23 11 a6 40
       4.893669 45.755386 3.1964903 5.189592
000210 4d da 3a c0 e3 65 8b 40 aa c2 ea 40 b6 ce 2d c0
       -2.919574 4.3561873 7.3362627 -2.7157416
000220 92 d0 be 41 d6 e4 99 41 0d c2 5a 41 21 e9 6f 40
       23.851841 19.236736 13.672376 3.748604
000230 e1 7a 3d 41 1f e0 0a c2 ae fb 91 41 86 2a f4 c0
       11.8425 -34.71887 18.24789 -7.630191
000240 da bd 8d c0 51 4b a3 40 32 77 98 41 c0 1d 99 bf
       -4.4294252 5.102944 19.0582 -1.1962204
000250 af 3b 68 c1 d5 4b b0 c1 0f 83 ea 41 e7 71 ca c1
       -14.514571 -22.037027 29.313993 -25.305616
000260 cd 51 91 bf 2e 18 0a c1 a7 72 0e c1 72 9c 39 c1
       -1.1353089 -8.630903 -8.902991 -11.600695
000270 79 fe 26 41 47 38 94 c0 ad d6 35 41 85 04 e9 40
       10.437127 -4.63187 11.364911 7.2818017
000280 6b 77 be 41 cd f0 ee 40 81 56 0a c2 56 cc 17 c0
       23.80831 7.4668946 -34.584476 -2.3718467
000290 77 29 59 c1 de bb 2a 40 bb 68 47 c0 8d 53 4f c1
       -13.572623 2.6677165 -3.1157672 -12.957898
0002a0 62 f2 1a 42 d6 43 a7 c0 ca c8 f6 40 9a a9 01 c2
       38.736702 -5.2270308 7.7120104 -32.415627
0002b0 83 06 30 c1 3f 29 b4 be 14 ff 60 c1 70 25 d2 41
       -11.00159 -0.35187718 -14.062275 26.26828
0002c0 6c 46 88 c1 83 7d 38 c1 2d 71 18 41 27 63 75 c1
       -17.034386 -11.5306425 9.527631 -15.336707
0002d0 3a 4a ca 40 d7 9e 95 41 0e c5 2e c2 70 1b f7 be
       6.321561 18.702559 -43.692436 -0.4826312
0002e0 0f 9b e8 41 58 0b 0c c1 07 df d4 41 73 32 7a c1
       29.075712 -8.752769 26.6089 -15.637317
0002f0 dd 38 72 41 13 f9 aa 40 c4 ba 45 c1 1c 36 d7 c1
       15.138883 5.3429046 -12.358097 -26.90142
000300 04 ce cd c0 3f 97 c7 41 23 45 4d 41 85 ea ab c1
       -6.4313984 24.94885 12.829379 -21.489511
000310 28 f6 e0 3e 1e 6a d4 41 10 50 4d c0 0e 9b 09 3f
       0.43937802 26.551815 -3.2080116 0.5375222
000320 fd 1e 77 c0 d4 21 11 c2 65 6f a2 41 06 e6 f9 c1
       -3.8612664 -36.283035 20.304392 -31.237316
000330 f9 4e 28 c1 85 86 61 41 fa bd 27 c1 84 25 ae 41
       -10.51928 14.095342 -10.483881 21.768318
000340 82 a7 8e 41 1f 1b f9 bf 04 c9 3e 41 a6 3d 4e c1
       17.83179 -1.9461402 11.924076 -12.890051
000350 f2 c2 14 c2 50 c2 99 41 52 06 fc 3f 7b af 6b c0
       -37.190376 19.21988 1.9689429 -3.6825855
000360 b3 53 31 41 87 f8 ee c0 5c f6 72 c1 26 b5 95 40
       11.082934 -7.467838 -15.185146 4.678363
000370 56 3e 0e c1 b8 36 7c 41 4b 6a 2c c0 28 33 1c c1
       -8.890219 15.763359 -2.6939876 -9.762489

fc1.bias f4 [8]
000000 83 c9 ba c1 38 7e 39 be 3d 3e 0a c1 dd 8e 9c c0
       -23.348394 -0.18114555 -8.640195 -4.8924394
000010 8e bd d2 c1 c1 22 fe 40 f0 0c 39 41 4e 62 e0 c1
       -26.342556 7.9417424 11.565659 -28.048

fc2.weight f4 [4, 8]
000000 00 16 1f c1 4c 37 29 c2 dd 75 1f 42 4d 83 18 41
       -9.942871 -42.304 39.8651 9.532056
000010 e9 de 1c 40 2b fb a7 41 96 73 75 c1 90 4f 0f c1
       2.4511054 20.99764 -15.340719 -8.956924
000020 38 69 be 41 63 90 b8 c0 d6 4f 8a 41 79 0c 9b 41
       23.801376 -5.7676253 17.288982 19.38109
000030 c2 4c eb 40 20 28 09 c1 ee 17 2d c2 3d 08 60 40
       7.35312 -8.572296 -43.27337 3.5005028
000040 60 0b fd 40 45 c8 48 c1 a2 db b3 41 9d 7c 36 c2
       7.9076385 -12.548894 22.482243 -45.621693
000050 67 e6 b4 40 16 78 2b c1 74 a8 0a 42 d7 b7 b2 c0
       5.6531253 -10.716818 34.664505 -5.5849414
000060 ff aa 90 41 eb 39 32 41 e2 89 81 c0 31 e0 40 40
       18.083494 11.13914 -4.0480814 3.0136836
000070 de c5 ed 41 18 10 aa 40 ea 63 48 c1 a2 f6 17 c2
       29.721615 5.3144646 -12.524393 -37.990852

fc2.bias f4 [4]
000000 b3 a1 d9 c1 72 d5 d5 bf 43 e1 e8 c0 50 f6 27 c1
       -27.203955 -1.6705763 -7.277498 -10.497635
