model/model99.pth (torch, 2591 bytes, 4 tensors)

fc1.weight f4 [8, 28]
0	0xc12a2aa0	-10.6354065
1	0xc1a392e4	-20.446724
2	0xc05dbd8f	-3.4646947
3	0xc0d458be	-6.635833
4	0xc071ac4e	-3.7761416
5	0xc1844d5d	-16.537775
6	0xc1a211f8	-20.258774
7	0x41425af9	12.14721
8	0xc156d680	-13.427368
9	0xbd929d78	-0.07158941
10	0x414476a6	12.278967
11	0x411adf99	9.679589
12	0xc0a9f5a3	-5.311235
13	0x41b19d07	22.201674
14	0xc0f70f35	-7.7206063
15	0x3fe1b65d	1.7633778
16	0x40a64bb9	5.1967435
17	0xc1fcd29c	-31.602837
18	0xc0eee218	-7.4650993
19	0x403319b4	2.7984438
20	0x412c0458	10.7510605
21	0x418caac8	17.58339
22	0xc2613ad7	-56.30746
23	0x41645121	14.269807
24	0xc1c8f5a0	-25.119934
25	0x419d1e47	19.639784
26	0x411f95d2	9.974077
27	0xc11d6094	-9.836079
28	0x41b719a2	22.887516
29	0xbf66aed9	-0.90110546
30	0xc0daa014	-6.832041
31	0x40a6e249	5.2151227
32	0x4102a48f	8.165175
33	0xc086f955	-4.217936
34	0xc10c8868	-8.783302
35	0xbff1a5d3	-1.887873
36	0xc1d4bfaa	-26.593586
37	0x41fcc333	31.595312
38	0xc051db35	-3.2790043
39	0xc011398f	-2.269138
40	0x40a9d1b5	5.306849
41	0xc1ad0769	-21.628618
42	0x41f401af	30.500822
43	0x420ba712	34.913155
44	0x41bc69fb	23.551748
45	0x41c46411	24.54886
46	0x417bbd12	15.73366
47	0x41cb1c3e	25.38879
48	0x4179ba07	15.607917
49	0x4007dbd6	2.1227927
50	0x405934d3	3.3938491
51	0x417bee2a	15.7456455
52	0xc1d9faf3	-27.247534
53	0x3e70844a	0.23487964
54	0xc0a69453	-5.205606
55	0xc1aedcec	-21.857872
56	0x4182e76e	16.363003
57	0x405973e2	3.397698
58	0xc082ec66	-4.091357
59	0xc0011421	-2.0168536
60	0x4195d488	18.728775
61	0xc1508add	-13.033902
62	0x3f8fee01	1.1244508
63	0x41246126	10.273718
64	0x3d25d19c	0.040483102
65	0x41d92f52	27.148106
66	0xc1a4a8eb	-20.58248
67	0x3fb8b5e4	1.4430509
68	0xc1128a4a	-9.158762
69	0x403dba98	2.9645138
70	0x41aa725f	21.305845
71	0x41e3f8ce	28.496487
72	0x41fa16d7	31.261152
73	0xc1bb8da7	-23.444166
74	0xc1df996a	-27.94991
75	0xc1a5c28e	-20.719997
76	0xc11d622e	-9.83647
77	0xc10e4fda	-8.894495
78	0x4074274e	3.814899
79	0x40203f7c	2.5038748
80	0xc089d8b4	-4.307703
81	0x4117124f	9.44197
82	0x411f103f	9.941466
83	0xc0460c8b	-3.0945156
84	0x4193a856	18.457195
85	0x42280aff	42.01074
86	0x4085f62e	4.186301
87	0xbfac7569	-1.3473331
88	0xc114d95c	-9.303066
89	0xc068fe8d	-3.6405365
90	0x414a3c86	12.639776
91	0x40e5f08e	7.1856146
92	0xc121211b	-10.070582
93	0xc0e2e39f	-7.090286
94	0xc16408e5	-14.2521715
95	0x41a1489e	20.160458
96	0xc10a581d	-8.646512
97	0x40047b73	2.0700347
98	0x41e36349	28.42348
99	0x4095e6c0	4.6844177
100	0x41c92047	25.14076
101	0xc0529a5e	-3.2906718
102	0xc1ddd9e1	-27.731386
103	0x41a05dfb	20.045889
104	0x40d29d23	6.5816817
105	0xc1b759df	-22.918882
106	0xc17cded0	-15.804398
107	0x3ee77588	0.45206857
108	0x41de1551	27.760408
109	0x414003e9	12.000955
110	0xc146e211	-12.430192
111	0xc1268c4c	-10.409252
112	0x41bc9df0	23.577118
113	0xbe13793e	-0.14401719
114	0xc089adde	-4.302474
115	0xbf98a0a6	-1.1924026
116	0x3f3b2ce1	0.73115355
117	0x3f52a09c	0.8227632
118	0xc053a826	-3.307138
119	0x41b3e9ee	22.489223
120	0xc097479b	-4.727491
121	0x41920a84	18.255135
122	0xc11448a2	-9.267733
123	0x40de46a7	6.9461246
124	0xc1bca8da	-23.582447
125	0x41195487	9.583137
126	0x4142e5ad	12.181073
127	0x3fc4c48f	1.5372485
128	0x408ee712	4.465707
129	0x42326e97	44.607998
130	0x406f1172	3.7354398
131	0x40812c6e	4.0366735
132	0xc0a1a5ce	-5.05149
133	0x40849198	4.1427727
134	0x41095dee	8.585432
135	0xbff369ef	-1.9016703
136	0x41be076d	23.753626
137	0x419396f3	18.448706
138	0x415266d0	13.150101
139	0x40942609	4.629643
140	0x4136b0dd	11.4181795
141	0xc20bc485	-34.941914
142	0x4196c480	18.845947
143	0xc0ca171d	-6.3153214
144	0xc081b12b	-4.052877
145	0x40838a10	4.1106033
146	0x41932d5b	18.397146
147	0xc0761d8e	-3.8455539
148	0xc1739683	-15.224246
149	0xc1b94d64	-23.162788
150	0x41ebed1f	29.490782
151	0xc1d14c7c	-26.162346
152	0xc0018259	-2.0235808
153	0xc0c82ded	-6.255606
154	0xc12288e3	-10.15842
155	0xc1422673	-12.134387
156	0x413dd3ca	11.864206
157	0xc086d8f5	-4.213984
158	0x414bd458	12.739342
159	0x40e537af	7.1630473
160	0x41c61723	24.761297
161	0x411dda00	9.865723
162	0xc2094c0c	-34.324265
163	0xc06a5799	-3.6615965
164	0xc144cb99	-12.299706
165	0x40228dfd	2.5399163
166	0xc0132706	-2.2992568
167	0xc14d6e4f	-12.839431
168	0x42199779	38.397923
169	0xc08d13f5	-4.408686
170	0x41038fc7	8.222602
171	0xc2045e0e	-33.09185
172	0xc12f1bdf	-10.944304
173	0xbf470174	-0.7773659
174	0xc1645c13	-14.272479
175	0x41c588f0	24.691864
176	0xc192acd8	-18.334396
177	0xc14fa185	-12.9769335
178	0x41155d05	9.33521
179	0xc157deac	-13.491863
180	0x40e7b2f2	7.240594
181	0x4181bfd3	16.218664
182	0xc2333f56	-44.81185
183	0x3f97bdd0	1.1854801
184	0x41e8d546	29.104137
185	0xc1103cf6	-9.014883
186	0x41d1f027	26.242262
187	0xc176457b	-15.391963
188	0x41771707	15.443122
189	0x40b59648	5.674595
190	0xc13ea15a	-11.914392
191	0xc1c9bccd	-25.217188
192	0xc0a270c7	-5.076267
193	0x41d00a58	26.00505
194	0x41445ebe	12.27313
195	0xc1b32c77	-22.396711
196	0x3fe464cc	1.7843261
197	0x41dba28f	27.454374
198	0xc00ee8e4	-2.2329645
199	0x3eb8539e	0.36001295
200	0xbffbf385	-1.9683691
201	0xc214e64c	-37.2249
202	0x41a5a5d1	20.705965
203	0xc2009ba8	-32.152008
204	0xc10836c9	-8.513375
205	0x4174b5b9	15.294366
206	0xc129f98e	-10.623426
207	0x41aec938	21.848251
208	0x4189df29	17.233965
209	0xc033dea4	-2.810464
210	0x41278a3c	10.471249
211	0xc14d51a7	-12.832435
212	0xc2156b99	-37.355076
213	0x418d896e	17.692104
214	0x3e34a1d8	0.17639863
215	0xc0488dc3	-3.1336524
216	0x4137ca3d	11.486875
217	0xc0ed0757	-7.407146
218	0xc172295f	-15.1351
219	0x40d04653	6.5085845
220	0xc101d799	-8.115136
221	0x4174daac	15.303387
222	0xbfac8bd5	-1.3480173
223	0xc126934c	-10.410961

fc1.bias f4 [8]
0	0xc1b549ea	-22.66109
1	0xbf35af3e	-0.70970523
2	0xc0fe92db	-7.9554267
3	0xc088423c	-4.2580853
4	0xc1c2ace7	-24.334425
5	0x41166ba1	9.401277
6	0x41323f9f	11.1405325
7	0xc1d8f62e	-27.120205

fc2.weight f4 [4, 8]
0	0xc1365952	-11.396807
1	0xc223a6bc	-40.912827
2	0x4220b5a7	40.177395
3	0x411af1db	9.684047
4	0xbd1c08dc	-0.038094386
5	0x41a14c17	20.162153
6	0xc187a690	-16.95633
7	0xc0fc16ac	-7.8777676
8	0x41c383e2	24.439396
9	0xc08f413b	-4.4767127
10	0x41832de0	16.3974
11	0x419f6392	19.923618
12	0x41009a27	8.037635
13	0xc125168e	-10.3180065
14	0xc22d8274	-43.377396
15	0x409b3ff9	4.851559
16	0x40ef0d8a	7.4704027
17	0xc14ec12f	-12.922164
18	0x41b89111	23.070833
19	0xc22fbabf	-43.93237
20	0x40944d83	4.634462
21	0xc1364450	-11.391678
22	0x420d0962	35.259163
23	0xc0dc5d18	-6.886364
24	0x417a4db2	15.643969
25	0x411c5c7b	9.772578
26	0xc0916223	-4.5432296
27	0x40620927	3.5318086
28	0x41e692a6	28.821606
29	0x40a6ad0d	5.2086244
30	0xc149d534	-12.614552
31	0xc2147d9f	-37.122677

fc2.bias f4 [4]
0	0xc1dee983	-27.86402
1	0xbf04b4a6	-0.5183815
2	0xc1032dd2	-8.198687
3	0xc11b61a1	-9.711335
