model/model40.pth (torch, 2591 bytes, 4 tensors)

fc1.weight f4 [8, 28]
-2.9336126 -19.260862 -1.5334977 -6.022278 -8.620474 -17.663 -25.352966 11.602158
-15.437791 -3.6331272 17.706985 -0.8039172 -9.512623 13.638354 -9.991262 1.1190233
-2.9928474 -30.327232 -2.3306928 7.48619 19.07115 6.0825 -54.031773 14.056793
-26.228521 13.747005 6.4845796 -7.049472 33.385426 2.485025 -18.83933 16.727448
17.498075 -2.8609831 -15.279473 0.47450802 -19.737307 35.426228 -12.29006 1.8786846
4.3587613 -24.114311 28.602404 32.779854 13.312896 28.392067 22.630346 23.428696
13.639559 -5.5434437 2.1250062 13.843384 -25.959166 1.9622179 -11.640715 -24.34675
28.243563 5.062662 -0.031103604 -8.379537 27.519585 4.078708 -4.278682 14.479074
0.4648364 28.22592 -21.941679 8.2368 -5.2276454 -2.423494 18.236885 33.715504
23.85252 -23.366747 -18.795084 -15.401167 -6.744896 -4.8681774 7.832395 5.364991
-11.202585 7.192348 8.46827 1.9571159 12.330407 44.49328 6.449013 -0.81533474
-12.914905 7.7321286 1.7907133 6.081464 -10.987055 -7.9465327 -17.153255 16.275473
1.4275713 -1.7563407 24.35394 -7.1302595 20.632084 3.511568 -37.4037 31.37741
4.1337695 -20.902035 -20.743256 -3.8293357 27.708082 7.0131993 -12.982998 -11.761398
29.127058 2.0221326 -7.0903883 12.738145 4.1363463 2.6775553 -9.209559 17.606043
-5.140076 12.574508 -5.8880324 2.7536328 -17.035467 9.458337 19.523521 1.3214147
5.7007103 45.054432 2.099732 1.7605098 -5.133874 -2.7779155 -2.0770118 3.585508
23.549831 11.264176 27.009289 2.4696426 18.453165 -27.787354 16.066324 -5.179804
-9.609132 12.293128 13.763136 -5.6255 -19.52994 -8.302097 36.738026 -28.823069
-2.0774555 -12.385943 -5.6805363 -9.98946 24.582256 -12.262335 7.3731875 -1.8238038
29.784168 -5.8183064 -42.07231 -3.0815713 -11.669969 8.349717 -5.169839 -14.477208
40.594482 -6.584474 1.1132814 -30.998716 -6.2813625 -12.063617 -8.688684 26.595907
-29.644867 -11.623567 2.8628204 -16.138966 2.4963756 14.39676 -44.28531 -3.5581465
24.092216 -2.3049457 33.203777 -17.625734 18.537075 0.41019884 -7.115506 -23.75327
-2.0534494 18.39047 16.88408 -29.50051 -2.6274776 23.72256 0.15475355 -2.2730355
9.561655 -36.39194 4.8949275 -26.545063 -10.2706175 10.219343 -15.739987 18.02902
23.323183 4.911932 7.3670335 -16.883875 -43.09026 16.202805 -7.165812 -1.8392473
20.50407 -10.331836 -13.494102 5.2965717 -13.767537 12.998644 -9.954816 -9.302328
00000000: 4fc0 3bc0 3f16 9ac1 a749 c4bf 80b6 c0c0
00000010: 76ed 09c1 d34d 8dc1 e0d2 cac1 70a2 3941
00000020: 3101 77c1 2885 68c0 e8a7 8d41 85cd 4dbf
00000030: b433 18c1 b336 5a41 36dc 1fc1 283c 8f3f
00000040: d08a 3fc0 2c9e f2c1 122a 15c0 de8e ef40
00000050: b791 9841 d7a3 c240 8920 58c2 a0e8 6041
00000060: 03d4 d1c1 bcf3 5b41 ad81 cf40 4695 e1c0
00000070: ad8a 0542 a60a 1f40 f3b6 96c1 d0d1 8541
00000080: 0ffc 8b41 591a 37c0 b978 74c1 b7f2 f23e
00000090: 01e6 9dc1 75b4 0d42 16a4 44c1 bd78 f03f
000000a0: f97a 8b40 1cea c0c1 b9d1 e441 921e 0342
000000b0: 9f01 5541 f422 e341 f30a b541 f86d bb41
000000c0: a23b 5a41 e463 b1c0 1a00 0840 807e 5d41
000000d0: 5fac cfc1 f529 fb3f 5e40 3ac1 25c6 c2c1
000000e0: d1f2 e141 5401 a240 fccc febc 9512 06c1
000000f0: 1c28 dc41 c784 8240 f7ea 88c0 49aa 6741
00000100: 09ff ed3e afce e141 8f88 afc1 efc9 0341
00000110: df48 a7c0 871a 1bc0 24e5 9141 addc 0642
00000120: f6d1 be41 19ef bac1 555c 96c1 2e6b 76c1
00000130: 30d6 d7c0 1cc8 9bc0 fba2 fa40 02ae ab40
00000140: ca3d 33c1 b727 e640 097e 0741 c682 fa3f
00000150: 5949 4541 1ef9 3142 515e ce40 c7b9 50bf
00000160: 73a3 4ec1 996d f740 1836 e53f 5a9b c240
00000170: faca 2fc1 ff49 fec0 de39 89c1 2b34 8241
00000180: a8ba b63f c6cf e0bf ded4 c241 162b e4c0
00000190: 820e a541 88bd 6040 649d 15c2 f004 fb41
000001a0: d747 8440 5e37 a7c1 30f2 a5c1 d613 75c0
000001b0: 27aa dd41 216c e040 5cba 4fc1 b02e 3cc1
000001c0: 3704 e941 9f6a 0140 76e4 e2c0 71cf 4b41
000001d0: f35c 8440 115d 2b40 5b5a 13c1 2dd9 8c41
000001e0: 817b a4c0 2f31 4941 c36a bcc0 853b 3040
000001f0: a348 88c1 5955 1741 2c30 9c41 1e24 a93f
00000200: 386c b640 bd37 3442 0262 0640 6358 e13f
00000210: b248 a4c0 5ec9 31c0 c3ed 04c0 f778 6540
00000220: 0e66 bc41 113a 3441 0613 d841 a00e 1e40
00000230: 15a0 9341 804c dec1 d587 8041 f4c0 a5c0
00000240: 01bf 19c1 a7b0 4441 ce35 5c41 1904 b4c0
00000250: 513d 9cc1 64d5 04c1 bdf3 1242 a595 e6c1
00000260: 08f5 04c0 d32c 46c1 f4c6 b5c0 d4d4 1fc1
00000270: 76a8 c441 8632 44c1 27f1 eb40 6772 e9bf
00000280: fa45 ee41 912f bac0 0c4a 28c2 7738 45c0
00000290: 31b8 3ac1 7198 0541 526f a5c0 a5a2 67c1
000002a0: c060 2242 03b4 d2c0 0180 8e3f 5ffd f7c1
000002b0: ec00 c9c0 9304 41c1 da04 0bc1 6bc4 d441
000002c0: b028 edc1 21fa 39c1 7338 3740 9a1c 81c1
000002d0: 9ec4 1f40 2159 6641 2824 31c2 acb8 63c0
000002e0: dcbc c041 3b84 13c0 abd0 0442 8101 8dc1
000002f0: ee4b 9441 9505 d23e 3ab2 e3c0 b206 bec1
00000300: b76b 03c0 af1f 9341 9912 8741 0b01 ecc1
00000310: 9828 28c0 cec7 bd41 b777 1e3e 6a79 11c0
00000320: 8afc 1841 5991 11c2 3fa3 9c40 4a5c d4c1
00000330: 7354 24c1 6e82 2341 fdd6 7bc1 6f3b 9041
00000340: e195 ba41 8c2e 9d40 bdbe eb40 2d12 87c1
00000350: 6d5c 2cc2 589f 8141 554e e5c0 756c ebbf
00000360: 5608 a441 334f 25c1 d7e7 57c1 847d a940
00000370: d547 5cc1 72fa 4f41 ed46 1fc1 56d6 14c1

fc1.bias f4 [8]
-24.26785 -7.5389423 -7.4231014 1.5917655 -32.058796 5.234122 13.468899 -28.999035
00000000: 8f24 c2c1 043f f1c0 0c8a edc0 f9be cb3f
00000010: 353c 00c2 ed7d a740 9c80 5741 06fe e7c1

fc2.weight f4 [4, 8]
-5.294764 -45.709644 36.62704 2.8229463 6.6305532 35.29818 -19.028578 -15.863867
29.132782 -0.87771106 19.124954 27.382015 8.917252 -11.347153 -47.713524 6.455734
8.388611 -14.124299 30.472656 -53.494675 8.472152 -7.9198017 29.308634 5.3085713
10.569524 17.225542 -1.717285 -0.19909193 32.681835 14.458106 -16.206324 -33.740246
00000000: b56e a9c0 add6 36c2 1782 1242 27ab 3440
00000010: 7e2d d440 5631 0d42 873a 98c1 66d2 7dc1
00000020: f00f e941 acb1 60bf e8ff 9841 5e0e db41
00000030: 10ad 0e41 f08d 35c1 a6da 3ec2 5f95 ce40
00000040: c037 0641 21fd 61c1 00c8 f341 8cfa 55c2
00000050: ef8d 0741 046f fdc0 1578 ea41 d1df a940
00000060: c51c 2941 e9cd 8941 ffcf dbbf c1de 4bbe
00000070: 33ba 0242 6754 6741 8da6 81c1 03f6 06c2

fc2.bias f4 [4]
-24.854176 2.1687593 -0.0008241888 -7.6022034
00000000: 5ad5 c6c1 f4cc 0a40 600e 58ba 4045 f3c0
