model/model81.pth (torch, 2591 bytes, 4 tensors)

fc1.weight f4 [8, 28]
000000 4c 19 3c c1 06 54 ab c1 99 64 97 c0 2b fe f4 c0
       -11.756176 -21.416027 -4.73103 -7.6560264
000010 f4 c2 a3 c0 77 b9 90 c1 ab 0c 9a c1 82 8a 47 41
       -5.117548 -18.090559 -19.256186 12.471315
000020 9d 9b 57 c1 77 ea b4 3e be 8f 3d 41 ea 54 0e 41
       -13.475492 0.35335132 11.847593 8.895731
000030 29 19 aa c0 fc bd b5 41 1e ec 12 c1 56 fc 85 40
       -5.3155713 22.717766 -9.182646 4.1870527
000040 f3 27 61 40 4b 8f ed c1 57 45 ab c0 dd 4a 81 40
       3.5180633 -29.694967 -5.3522143 4.0403886
000050 81 55 21 41 e7 b7 83 41 17 1a 66 c2 92 46 6a 41
       10.083375 16.464796 -57.52548 14.642229
000060 72 5a cd c1 32 7f a2 41 b6 2a ec 40 b4 93 0c c1
       -25.669163 20.312107 7.3802137 -8.78606
000070 d2 e8 b4 41 ee f5 c7 bf 36 14 d8 c0 ca df d1 40
       22.613682 -1.5621927 -6.752467 6.558568
000080 43 8f d5 40 11 e9 5d c0 c6 12 18 c1 f3 b4 c5 be
       6.673738 -3.4673502 -9.504583 -0.38614616
000090 58 3b ce c1 0a c3 f9 41 d8 fa 5a c0 a3 b0 08 c0
       -25.778976 31.220234 -3.4215603 -2.135781
0000a0 5f f5 93 40 89 08 b3 c1 eb 40 f0 41 60 f6 0e 42
       4.6237025 -22.379168 30.031698 35.7406
0000b0 02 09 b4 41 d7 50 c9 41 1d 55 78 41 31 df bc 41
       22.504398 25.164473 15.52078 23.60898
0000c0 32 fe 86 41 f9 5d c1 3f 5a a9 64 40 72 78 80 41
       16.874119 1.5106803 3.5728364 16.058811
0000d0 e1 df d1 c1 47 3b 96 3f 91 6b 48 c0 af 91 a9 c1
       -26.234316 1.173684 -3.1315653 -21.196135
0000e0 b9 a9 84 41 f5 a2 0e 40 9e e5 62 c0 6a 95 de bf
       16.582872 2.228696 -3.5452647 -1.7389348
0000f0 7f 48 91 41 61 d8 54 c1 ca 9e ba 3f 7e 92 1c 41
       18.160398 -13.302827 1.4579709 9.785765
000100 94 bf 38 bf 64 b5 da 41 91 fa bb c1 08 da 8b 3f
       -0.72167325 27.33857 -23.497347 1.0925913
000110 d3 3f 17 c1 58 5c 98 40 ee ef a7 41 8c 22 f1 41
       -9.453082 4.7612724 20.992153 30.141869
000120 1d bf ed 41 93 f1 bd c1 23 bf c6 c1 69 37 ad c1
       29.718317 -23.742956 -24.843328 -21.652056
000130 4c 6f 18 c1 e8 c2 ef c0 aa 2d 86 40 31 2b 2b 40
       -9.527172 -7.4925423 4.193074 2.6745112
000140 97 80 ac c0 42 ef 1c 41 43 e5 24 41 84 f9 83 c0
       -5.390697 9.808413 10.305972 -4.1242085
000150 c5 4d 87 41 d8 c9 25 42 2d 40 2f 40 ae a6 eb bf
       16.912973 41.447113 2.738292 -1.8410242
000160 a1 53 f8 c0 42 57 e2 bf 9d 9a 45 41 8d 13 06 41
       -7.7602086 -1.7682879 12.350247 8.379773
000170 e3 86 20 c1 d4 af cc c0 7c 6a 63 c1 f7 d1 96 41
       -10.032931 -6.3964634 -14.213497 18.852522
000180 d3 1c 03 c1 49 20 6e 3f b2 c0 e0 41 da 98 d2 40
       -8.194537 0.93018013 28.09409 6.5811586
000190 e5 8c c3 41 49 89 98 c0 22 3e e8 c1 94 4d a1 41
       24.443796 -4.7667584 -29.030338 20.16288
0001a0 78 bb b6 40 ea a2 ad c1 c5 40 7c c1 3a c6 e5 3f
       5.7103844 -21.704548 -15.765813 1.7951119
0001b0 fe d4 e8 41 a5 7f 3b 41 29 62 50 c1 8e f0 11 c1
       29.104 11.718663 -13.023965 -9.121229
0001c0 16 0b b5 41 97 f7 b6 3e 59 62 89 c0 c9 30 d2 bf
       22.630413 0.3573577 -4.2932553 -1.6421138
0001d0 64 d0 23 40 44 36 a5 3f 61 78 36 c0 77 a3 bd 41
       2.5595942 1.2907186 -2.8510973 23.704817
0001e0 d7 81 bb c0 b0 2c 99 41 08 c3 f6 c0 82 99 d4 40
       -5.8595996 19.14682 -7.7113075 6.6437387
0001f0 f8 2b b1 c1 84 24 3a 41 f2 d7 47 41 84 58 ba 3f
       -22.14647 11.633915 12.490221 1.4558263
000200 c0 f8 86 40 dc 4e 37 42 db 55 82 40 0a 29 a2 40
       4.217865 45.82701 4.0729804 5.0675097
000210 50 2f 40 c0 d8 11 74 40 da 24 ea 40 ed fd 2e c0
       -3.0028877 3.813589 7.3169985 -2.7342484
000220 8a 39 c0 41 bc 4c 99 41 01 f2 63 41 ff 7a 92 40
       24.028095 19.162468 14.246583 4.577514
000230 cd 9a 3f 41 77 ed 0b c2 31 a8 8c 41 62 be ec c0
       11.975293 -34.9819 17.582125 -7.39824
000240 6c f9 84 c0 0e f3 9e 40 66 db 96 41 68 61 09 c0
       -4.155447 4.96717 18.857128 -2.1465702
000250 a4 61 6c c1 d2 15 b4 c1 35 bb e9 41 90 cf cf c1
       -14.773838 -22.510654 29.21641 -25.976349
000260 dc 88 b3 bf d6 7b 02 c1 d7 3e 15 c1 95 be 3c c1
       -1.4026141 -8.155233 -9.327842 -11.796529
000270 d3 70 2f 41 59 fa 8b c0 9b a6 41 41 c7 03 f7 40
       10.965045 -4.37431 12.103175 7.719211
000280 cf 6c bd 41 25 4f e8 40 5d 0c 0b c2 1b dc 02 c0
       23.67813 7.259661 -34.762074 -2.0446842
000290 2a 7b 5a c1 98 0d 49 40 08 a4 69 c0 26 78 51 c1
       -13.655069 3.1414547 -3.6506367 -13.091833
0002a0 22 b7 19 42 57 19 a5 c0 3f 92 ff 40 44 39 02 c2
       38.42884 -5.1593432 7.9866023 -32.555923
0002b0 6d 55 32 c1 e4 1c 1e bf 7c 15 61 c1 83 8e ce 41
       -11.145856 -0.61762834 -14.067745 25.819586
0002c0 44 41 84 c1 4a 5e 40 c1 d2 b3 0d 41 3e 66 77 c1
       -16.531868 -12.02302 8.856401 -15.462461
0002d0 58 22 c7 40 a2 46 9c 41 67 e9 2d c2 33 d2 82 bf
       6.2229424 19.534489 -43.477932 -1.0220398
0002e0 76 58 e7 41 8a 29 0a c1 a4 1e d6 41 67 23 70 c1
       28.918194 -8.635141 26.764961 -15.008643
0002f0 44 15 78 41 f9 5b ba 40 e2 ec 44 c1 e4 ab dd c1
       15.505192 5.823727 -12.307833 -27.708931
000300 73 e3 bd c0 b8 9d c9 41 a0 01 4b 41 c0 ed ab c1
       -5.934015 25.202011 12.687897 -21.491089
000310 22 98 b8 be 9d dd d5 41 17 90 2f c0 05 17 28 3e
       -0.36053568 26.73321 -2.7431695 0.16415031
000320 58 37 42 c0 0d 6a 12 c2 f3 65 a3 41 89 25 fb c1
       -3.034628 -36.603565 20.42478 -31.393328
000330 32 0b 25 c1 cb 95 66 41 95 08 24 c1 81 d2 b2 41
       -10.315233 14.411571 -10.252095 22.352785
000340 e9 61 8b 41 d1 2c 13 c0 70 fb 42 41 46 4c 4c c1
       17.422808 -2.2996104 12.186386 -12.768621
000350 bb 40 12 c2 0e 7b 9b 41 7a ab 33 40 56 75 8d c0
       -36.563213 19.435085 2.807341 -4.420573
000360 ba 85 2c 41 2a 9a ef c0 39 61 79 c1 94 7f 9c 40
       10.782648 -7.487569 -15.586236 4.8905735
000370 df 60 02 c1 48 e0 79 41 33 8b 34 c0 c0 2f 22 c1
       -8.14865 15.617256 -2.820996 -10.136658

fc1.bias f4 [8]
000000 46 6f bb c1 a8 62 e2 be 5a 0b 12 c1 b0 d1 8b c0
       -23.429333 -0.44215894 -9.127771 -4.3693466
000010 ec d1 d4 c1 01 cc 01 41 7b 52 2c 41 38 c2 da c1
       -26.6025 8.112306 10.770137 -27.344833

fc2.weight f4 [4, 8]
000000 4f a4 42 c1 34 c0 24 c2 31 ef 1e 42 74 f3 09 41
       -12.165114 -41.1877 39.733585 8.621937
000010 86 e6 86 3f 42 66 bd 41 e0 c8 89 c1 83 17 2f c1
       1.05391 23.67493 -17.223083 -10.94324
000020 9a 16 c7 41 17 15 16 c0 6c 73 a6 41 0c c3 99 41
       24.886036 -2.3450372 20.806358 19.220238
000030 b5 e7 16 41 9a 1c f5 c0 51 d7 2b c2 b5 c6 79 40
       9.431569 -7.6597414 -42.96027 3.902753
000040 ca b6 e6 40 ad f8 5d c1 db 4b a9 41 30 a8 35 c2
       7.209813 -13.873212 21.162039 -45.414246
000050 a0 58 38 40 0c 3c 0c c1 43 ff 04 42 f2 4e 98 c0
       2.8804092 -8.76466 33.24928 -4.759637
000060 86 4f 78 41 4f f3 f3 40 f2 0b 8e c0 65 d6 29 40
       15.519415 7.6234508 -4.438958 2.6537106
000070 15 04 e3 41 6f 37 ca 40 88 d2 74 c1 7a 53 1a c2
       28.376993 6.319267 -15.301399 -38.58152

fc2.bias f4 [4]
000000 07 2e e4 c1 27 8d 17 c0 47 d4 d2 c0 71 99 2a c1
       -28.522474 -2.3679903 -6.588413 -10.662461
