model/model94.pth (torch, 2591 bytes, 4 tensors)

fc1.weight f4 [8, 28]
0	0x4001cde6	2.028192
1	0xc0770edb	-3.8602817
2	0x402b4ddf	2.6766279
3	0xbc8fe040	-0.017562985
4	0xc0bec55a	-5.961591
5	0xbfaac435	-1.3341128
6	0xbf139e5e	-0.57663524
7	0x4152901a	13.160181
8	0xbf62d682	-0.8860856
9	0xc0d0d442	-6.5259104
10	0xc0a96d66	-5.2946043
11	0x41381abe	11.506529
12	0x3feeb700	1.8649597
13	0x40fc4fda	7.8847475
14	0x3eb3ccc0	0.3511715
15	0x406eeddb	3.7332675
16	0xc0b518a4	-5.659258
17	0xc0d4883a	-6.641629
18	0x408d2e01	4.4118657
19	0x40b4d679	5.6511807
20	0x4001abd3	2.0261123
21	0xc0621edc	-3.5331335
22	0xbf753316	-0.95781076
23	0x418fbca1	17.967104
24	0xc01d9d8f	-2.4627416
25	0xbfb20548	-1.3907862
26	0x40e60661	7.1882787
27	0x4025929e	2.5870738
28	0x410c4be1	8.768525
29	0xc039a53b	-2.9007099
30	0xc0904848	-4.5088234
31	0x3fef70e8	1.8706331
32	0x40aef82e	5.4677954
33	0x40abe2f0	5.3714523
34	0xbf37b8dd	-0.71766454
35	0xbf46d0fa	-0.7766262
36	0xc142c65a	-12.173426
37	0x40dc5abd	6.8860765
38	0xbf3c9258	-0.736608
39	0xc01e2d65	-2.4715207
40	0x4131e8d2	11.119341
41	0xbeb14cee	-0.34629005
42	0x40ef146f	7.4712443
43	0x41270077	10.4376135
44	0xc0f6b8ba	-7.7100496
45	0x40085134	2.1299562
46	0x40abd4c5	5.369723
47	0x4032460c	2.7855253
48	0xc05333a5	-3.3000271
49	0x409ad2b5	4.838221
50	0x405f75e6	3.491571
51	0xc08075bb	-4.0143714
52	0xbf13022e	-0.574252
53	0xc03e89d4	-2.9771624
54	0x40b09242	5.5178537
55	0x4019cd8c	2.4031706
56	0x40c5d98b	6.1828055
57	0x4129fbb6	10.623953
58	0x4092c8a1	4.586991
59	0xc00b7b31	-2.179394
60	0x40e8e8cf	7.278419
61	0xc0f834d9	-7.756451
62	0x3fb5aee4	1.4193997
63	0xc034d718	-2.8256283
64	0x406bdd58	3.6853848
65	0x412c0c46	10.752996
66	0x3f887df6	1.066344
67	0x3fdd3660	1.7282219
68	0x401069ec	2.256465
69	0x40c6cbd1	6.21238
70	0xbea6822b	-0.32521185
71	0x412dd975	10.86559
72	0x41558e06	13.347174
73	0xc0a227f1	-5.0673757
74	0xc0ca6e83	-6.32599
75	0xc10e7be1	-8.905244
76	0xbeaf2cc1	-0.34213832
77	0xbcfcf5c8	-0.030878916
78	0xc120aa7f	-10.041625
79	0xc13584fd	-11.344968
80	0x401867b8	2.3813305
81	0x40b491ca	5.6427965
82	0x40780411	3.8752482
83	0xbdfc6848	-0.123245776
84	0x3feccb34	1.8499513
85	0xc12bbfd9	-10.734338
86	0xc017f68d	-2.3744233
87	0x4108371f	8.513457
88	0x3f7e0e97	0.9924101
89	0xc0ac1577	-5.37762
90	0x410028bc	8.009945
91	0x40ef9ab8	7.4876366
92	0xc1254ed0	-10.331741
93	0xc0417d5b	-3.023276
94	0xc16db66f	-14.857039
95	0x3edc73f2	0.4305721
96	0xc08190c1	-4.04892
97	0xc0b8a213	-5.7697845
98	0xbce80028	-0.028320387
99	0x4083fa5a	4.1243105
100	0x3d5893d4	0.052875355
101	0x403ed6a7	2.9818513
102	0x3e868aef	0.26277873
103	0x408809bd	4.2511888
104	0x4081ed27	4.0601993
105	0xc09e5a7d	-4.948546
106	0xbf172619	-0.5904251
107	0xc0ce9b33	-6.456445
108	0x4106dc7a	8.428827
109	0x4057e3fb	3.3732898
110	0x3f2e221f	0.68020815
111	0x3da93d45	0.08263639
112	0x411a7d23	9.655551
113	0xbf9aca52	-1.2092993
114	0xc0d02c02	-6.505372
115	0xbfc6d7e8	-1.5534639
116	0x3fba02a4	1.4532056
117	0x4042d06f	3.0439718
118	0xc0320464	-2.781518
119	0x40f164f9	7.543576
120	0xbeb9e7ce	-0.36309665
121	0xc07c82fb	-3.9454944
122	0xc056f89f	-3.3589246
123	0x3eeb31ae	0.4593634
124	0xc145da27	-12.36576
125	0xc0f1bef9	-7.554562
126	0x4049527a	3.145659
127	0x40a857ff	5.2607417
128	0xc0f1a04e	-7.5508184
129	0x410aa192	8.664446
130	0xc03aa81f	-2.9165113
131	0x409f2753	4.9735503
132	0x40d492aa	6.6429033
133	0xc0b4ac30	-5.646019
134	0xc0a127dd	-5.036116
135	0x3e84c6fa	0.25933057
136	0x406e4c85	3.7234204
137	0x403559b4	2.8336
138	0x409be8e6	4.87218
139	0x40c1e1e5	6.058825
140	0x40600bbe	3.5007167
141	0x3fd0e4cd	1.6319824
142	0x401ba811	2.432133
143	0x409d01e8	4.9064827
144	0x3cb1c250	0.0216991
145	0x40d8311b	6.7559943
146	0xbe790586	-0.24318513
147	0xc063fde6	-3.5623717
148	0x400f572e	2.239696
149	0xc0cc5328	-6.385151
150	0x3f50a59b	0.81502694
151	0xc0143745	-2.3158734
152	0x4045f8c6	3.093309
153	0xbf843793	-1.032946
154	0x4007f4a9	2.1243079
155	0x4110112b	9.004191
156	0x3f42ea88	0.76139116
157	0x3fbf65fa	1.4952996
158	0xbfaec084	-1.3652501
159	0x41555050	13.332108
160	0x4016bd11	2.3552897
161	0xc132e432	-11.180712
162	0xc16e4278	-14.891228
163	0x3ef0c0f8	0.47022223
164	0xbcf60c65	-0.030035207
165	0xc0dedd92	-6.964547
166	0xc0943e56	-4.6326094
167	0xc11c76a0	-9.778961
168	0xbfac82be	-1.3477399
169	0x40d7bf50	6.7421036
170	0x3fef05e7	1.8673676
171	0x413489ef	11.283675
172	0xc0b93848	-5.7881203
173	0x404799ae	3.1187549
174	0xc05a479c	-3.4106207
175	0x41175b1e	9.459745
176	0x401eb284	2.4796457
177	0x40cb9ab8	6.3626366
178	0x4149aaf0	12.604233
179	0xc129339d	-10.575101
180	0x408724af	4.223228
181	0x3fb93b5d	1.4471241
182	0xc17d2287	-15.82093
183	0xc0bea6f4	-5.95788
184	0xc0ea0082	-7.312562
185	0xc0ec6325	-7.3871026
186	0x411d7af4	9.842518
187	0xbfebd459	-1.8424178
188	0x402f10f7	2.7354105
189	0xc026888c	-2.6020842
190	0xc13047a0	-11.017487
191	0xc0875c93	-4.2300506
192	0x3fe0f4ed	1.7574745
193	0xbff72c67	-1.9310426
194	0x4092aa24	4.583269
195	0x402cd13e	2.7002711
196	0x3fd2e5ae	1.6476343
197	0xc104722e	-8.277876
198	0xc03714d3	-2.860646
199	0x4105deaa	8.366861
200	0x3f83279e	1.0246465
201	0xc17e86e4	-15.907932
202	0x40c07662	6.014451
203	0x40792ad0	3.893238
204	0xbfa6263f	-1.2980422
205	0x3fa04f9f	1.2524298
206	0x4009edf3	2.1551483
207	0xc13ceb96	-11.807516
208	0x4151c29c	13.110012
209	0xc0477891	-3.1167338
210	0xc0091012	-2.1416059
211	0x405e2335	3.4708989
212	0xc0c81653	-6.252725
213	0x40de79c4	6.952364
214	0x401c78c5	2.4448712
215	0x411640e3	9.3908415
216	0xc0586c8b	-3.381625
217	0x4046f8b8	3.1089306
218	0xc0434c43	-3.0515296
219	0xbf9ccbc2	-1.2249682
220	0x40b80f9a	5.7519045
221	0x40a69db1	5.2067494
222	0x3f801592	1.0006583
223	0x40e1f0d7	7.0606494

fc1.bias f4 [8]
0	0xbea1e31f	-0.31618592
1	0xc0f78c07	-7.735843
2	0xc10c1f09	-8.757577
3	0xc0bef18d	-5.966986
4	0x4102b748	8.169746
5	0x40dcf41b	6.904798
6	0x4074a531	3.8225825
7	0xc153a151	-13.226884

fc2.weight f4 [4, 8]
0	0xc04d8b44	-3.211625
1	0xc10a6450	-8.64949
2	0x40f8a703	7.770387
3	0x4080d62f	4.0261455
4	0xc109abf0	-8.604477
5	0x41303f12	11.015398
6	0x40e72f44	7.2245197
7	0xbfa25618	-1.2682524
8	0xbfdc3466	-1.7203491
9	0x40e50882	7.1572886
10	0x3ece92b3	0.40346298
11	0x403d5c49	2.9587576
12	0xc113cdd9	-9.237756
13	0xc0cac7cc	-6.3368893
14	0xc1106925	-9.02567
15	0x408da0ea	4.425893
16	0x3f473084	0.77808404
17	0x40e8b0b0	7.2715683
18	0xc08a18ec	-4.315542
19	0xc17822f2	-15.508532
20	0xc0805158	-4.0099297
21	0x404059a9	3.0054724
22	0x41696014	14.585957
23	0xc0ad8b47	-5.4232516
24	0xc017e830	-2.3735466
25	0x40afb6cc	5.491064
26	0xc0cf7776	-6.4833326
27	0x40f549ca	7.6652575
28	0x410ec22d	8.922406
29	0x402c4011	2.6914103
30	0x3ef3576c	0.47527635
31	0x407e7d72	3.9764066

fc2.bias f4 [4]
0	0xc0a9eeda	-5.3104067
1	0xc0b9e848	-5.8096046
2	0x409f0798	4.969677
3	0x4121bb51	10.108232
