model/model99.pth (torch, 2591 bytes, 4 tensors)

fc1.weight f4 [8, 28]
00000000: c6d4 7cc0 7525 8ac1 d231 38c0 44b7 edc0
00000010: e4d7 13c1 e64b 9fc1 b994 cac1 701f 4d41
00000020: 372a 80c1 82b1 a5c0 fb69 6441 cee0 08c0
00000030: 1a44 0fc1 4b12 7b41 896d 1dc1 aabd f33f
00000040: 7328 4fc0 ba9c ebc1 0e96 84c0 9e70 f740
00000050: b05e 8841 3988 0641 b265 5ac2 d5e2 5141
00000060: 9d44 d7c1 78cc 5941 5e60 cd40 c9b3 d5c0
00000070: 9721 0142 23fb ea3f a584 87c1 2ee4 6d41
00000080: 0d29 8c41 8c36 47c0 0653 84c1 384d 643e
00000090: 6466 b4c1 98c0 0342 1ea6 55c1 5b8e f83f
000000a0: f327 2140 dc9a bec1 cf3a d741 e41c f641
000000b0: 8ae4 5341 0275 ed41 9dbd bf41 e1f3 bd41
000000c0: 0b10 7641 5a2c 1dc0 1687 ec3f 736e 7341
000000d0: 5cb4 c4c1 d404 0b40 050e 3ac1 5d13 b9c1
000000e0: 78f7 ea41 9f1c 8240 a3f9 00bf 1134 fcc0
000000f0: 3722 da41 ded2 8440 cfcd 5cc0 9fc7 6641
00000100: 41d8 a43e d19e d741 48bb b2c1 49e7 1241
00000110: 0265 a6c0 3be8 57c0 8553 8d41 0243 ff41
00000120: 1d53 ca41 8a66 b4c1 4ccf a6c1 0392 48c1
00000130: 303e 0fc1 532c b5c0 a1ad fc40 4bca 8a40
00000140: dd22 2ec1 3889 ca40 13fd 0541 247f 2840
00000150: e03a 4e41 1fca 2b42 308b fb40 cb3a 87bf
00000160: fdb2 27c1 6642 d340 2513 3440 408c 8c40
00000170: 9d1f 41c1 9ce3 28c1 7b82 75c1 15e3 9041
00000180: 8612 d03f ac2b 12c0 59f5 b341 aa8d 93c0
00000190: db57 a041 ae7c 9740 9bc9 01c2 c797 0a42
000001a0: 0c04 8b40 e458 91c1 9c63 8dc1 6fde 8dc0
000001b0: 619a ed41 9b2b 0441 24f0 36c1 6d01 32c1
000001c0: 76e2 f541 0234 4ebf 5458 e0c0 5a9b 5341
000001d0: 4634 01be e178 c6bf 9235 2bc1 56ee a541
000001e0: 0e00 a2c0 0585 5341 f2ca 7cc0 f7bd 2b40
000001f0: d206 80c1 a2fb 2741 f792 8c41 0916 3640
00000200: 5be6 fa40 65c2 3b42 4881 a83f adc5 353f
00000210: 0c56 b2c0 fc48 63c0 6894 17c0 e15a 563f
00000220: 4399 aa41 acd9 3841 6f79 da41 05fb 203f
00000230: f6a0 9841 39a8 d3c1 a34b 6a41 0be5 a6c0
00000240: 0f31 15c1 3b07 3941 8922 8441 fbc4 5cc0
00000250: 7af6 9ec1 db13 05c1 5057 1742 c7a1 e4c1
00000260: 604a 6bc0 baaf 5cc1 f4e6 e5c0 76a5 37c1
00000270: d2dd ba41 930c 59c1 fa63 df40 1221 e5bf
00000280: 568b e541 73d5 62c0 b445 1ec2 772a 84c0
00000290: 47d8 5bc1 0c40 2441 8269 c2c0 6785 68c1
000002a0: 518a 1842 8000 35c0 a1a4 4540 0c11 05c2
000002b0: e206 18c1 9696 35c1 3539 01c1 2a63 df41
000002c0: 23e5 dbc1 dd3e 62c1 e392 ca3f 0fc6 76c1
000002d0: 76b0 2340 2b30 6441 2422 39c2 c83f 5bc0
000002e0: 2bf5 be41 46a5 66be 0f63 0b42 1a6a 92c1
000002f0: 1811 9841 5ad7 bfbe e460 c9c0 2d85 afc1
00000300: 3dc9 d7bf 5127 af41 e62b 9141 4c63 e1c1
00000310: ca50 6fc0 a8a6 d541 be0f bc3e b1b9 42c0
00000320: a8f3 fc40 3ed4 14c2 be81 4340 95ef d5c1
00000330: 1d62 21c1 9432 4541 a7f9 6dc1 89e1 9941
00000340: 0b93 c041 ca76 d340 7b68 c840 112f 84c1
00000350: 236d 2cc2 6477 6741 8f4b a1c0 89c7 20bf
00000360: ad43 a241 dfee 1ac1 47df 6dc1 b578 8240
00000370: e274 5cc1 c07b 4741 5942 10c1 0cf7 2ec1
-3.9504867 -17.26829 -2.8780408 -7.4286213 -9.240208 -19.91206 -25.322618 12.820175
-16.020613 -5.1779184 14.275874 -2.138721 -8.954126 15.691966 -9.839242 1.9042256
-3.2368438 -29.451527 -4.143317 7.732497 17.046234 8.4082575 -54.59931 13.117879
-26.908503 13.612419 6.4180136 -6.6781964 32.282803 1.8357891 -16.939768 14.868208
17.520044 -3.1127043 -16.540539 0.22295082 -22.549995 32.93808 -13.353056 1.9418443
2.5180633 -23.825615 26.903715 30.764107 13.243296 29.682133 23.967585 23.744081
15.378917 -2.455832 1.8478725 15.214465 -24.588066 2.1721697 -11.628423 -23.134455
29.370834 4.065994 -0.50380915 -7.881356 27.266706 4.1507406 -3.4500616 14.423736
0.3219624 26.952547 -22.341446 9.181466 -5.19983 -3.3735492 17.665781 31.907719
25.290583 -22.550068 -20.85122 -12.535647 -8.9526825 -5.6616607 7.896195 4.337194
-10.883512 6.3292503 8.374286 2.63276 12.889374 42.947384 7.8607407 -1.0564817
-10.481198 6.6018553 2.8136685 4.3921204 -12.070218 -10.555569 -15.344356 18.11088
1.6255653 -2.2839155 22.494799 -4.611043 20.042898 4.7339697 -32.44688 34.64822
4.344244 -18.168404 -17.673637 -4.4334025 29.70038 8.260646 -11.433628 -11.125348
30.735577 -0.8054811 -7.0107822 13.225428 -0.12617597 -1.5505639 -10.700579 20.741375
-5.0625067 13.219975 -3.9498868 2.6834695 -16.00333 10.498934 17.57176 2.845095
7.8406196 46.93984 1.3164454 0.71004754 -5.573004 -3.5513296 -2.368433 0.8373242
21.324835 11.553143 27.309294 0.62883025 19.078594 -26.45714 14.643466 -5.2154593
-9.324477 11.564265 16.516863 -3.4495227 -19.87035 -8.317348 37.835266 -28.578993
-3.6764145 -13.792902 -7.1844425 -11.477896 23.35831 -13.56557 6.980954 -1.7900717
28.693035 -3.544278 -39.56807 -4.1301837 -13.740302 10.265636 -6.0753794 -14.532569
38.135075 -2.8281555 3.0881732 -33.266647 -9.50168 -11.349264 -8.076467 27.92342
-27.486883 -14.1403475 1.5826076 -15.423354 2.5576453 14.26176 -46.28334 -3.425768
23.86971 -0.22523984 34.846737 -18.301807 19.008347 -0.37468988 -6.2930775 -21.940027
-1.6858288 21.894197 18.146435 -28.173485 -3.739306 26.706375 0.3673076 -3.0425837
7.904743 -37.207268 3.0547938 -26.741983 -10.086453 12.324848 -14.87345 19.235125
24.071798 6.6082506 6.262754 -16.522982 -43.10658 14.466648 -5.0404735 -0.62804466
20.283045 -9.683318 -14.867011 4.0772347 -13.778536 12.467712 -9.016198 -10.935314

fc1.bias f4 [8]
00000000: c07a b8c1 ecd5 eac0 39c5 efc0 54b3 063f
00000010: ad9a f6c1 c7b3 b440 f029 4541 7766 e6c1
-23.059937 -7.3386135 -7.492825 0.52617383 -30.825525 5.6469455 12.322739 -28.800032

fc2.weight f4 [4, 8]
00000000: 5c6e a8c0 ac9f 2cc2 3391 0d42 62d4 9a3f
00000010: 8661 cf40 0246 0f42 bcd6 83c1 d80b 6fc1
00000020: cfea e941 6576 173f 6bfa 9041 9a02 e241
00000030: e839 0441 253f 41c1 d7bc 3fc2 b47f 8240
00000040: 6ed1 3541 7dd7 62c1 711d e741 39d4 53c2
00000050: a91f 0e41 c2bb bac0 88c5 e041 9916 a540
00000060: 6b3a 4541 b5d8 8841 3256 90c0 49f2 06be
00000070: 684b f641 dcde 6241 2776 74c1 9f71 f1c1
-5.2634716 -43.15593 35.391796 1.2096064 6.4806547 35.818367 -16.47985 -14.940392
29.239653 0.5916503 18.122274 28.25127 8.264137 -12.077916 -47.934414 4.0780888
11.36363 -14.177609 28.889376 -52.95725 8.88273 -5.8354197 28.09645 5.1590085
12.326762 17.105814 -4.510522 -0.13178362 30.78682 14.179409 -15.278846 -30.18048

fc2.bias f4 [4]
00000000: 6dc8 cec1 0081 9d40 2342 aebe 3c31 e9c0
-25.847864 4.921997 -0.34034833 -7.28726
