model/model38.pth (torch, 2591 bytes, 4 tensors)

fc1.weight f4 [8, 28]
2.005307 -3.8318973 2.1107976 0.25410217 -5.8109 -1.306798 -0.9681666 13.281542
-0.48753563 -6.6665063 -5.01798 11.151333 1.9050056 7.9023004 0.091830686 3.818254
-5.304157 -5.949453 4.3886914 5.411762 2.059786 -3.6746466 -0.7533276 18.606726
-2.060601 -1.246731 7.1075025 2.190603 8.637309 -2.7884133 -4.925515 1.8263714
4.6776223 5.411689 -0.46712044 -1.188123 -12.272047 7.0777535 -0.77478635 -2.4589405
11.1699095 -0.13494937 7.3439875 10.264222 -7.8434734 2.002593 5.719505 2.750864
-3.3418968 4.712931 3.7798588 -3.827279 -0.92365235 -3.5673552 5.3442383 2.7803903
6.0585747 10.41358 4.085752 -1.7848109 6.731052 -7.8647475 1.1242621 -2.5454342
3.3809326 10.62274 0.8914129 1.7877843 2.0139027 6.4927344 -0.80134076 11.2905
13.39943 -5.34566 -6.272786 -8.46464 -0.2723759 0.026317745 -10.186706 -11.316093
2.2527602 5.293193 3.501737 -0.62510383 1.8775767 -10.743412 -2.2408962 7.750049
0.8275739 -5.2672677 8.570527 7.539463 -10.4640875 -2.7870975 -14.056623 -0.024459735
-3.9769063 -5.538773 0.1689883 3.8062072 -0.12505122 2.884817 -0.149694 4.2402654
4.2567215 -5.1037803 0.03449458 -6.3432446 8.143951 3.4711607 0.35644728 -0.012298368
9.632284 -1.3449177 -6.4732075 -1.1356792 1.847729 3.0195036 -2.6255782 7.145839
-0.8330863 -4.1522245 -2.78569 0.24293214 -12.518371 -7.6611457 3.4840176 5.0297275
-7.232934 8.53946 -2.899218 4.784405 6.4225273 -5.8545647 -5.126391 0.26911485
3.93116 2.7633774 4.9081287 6.233272 3.472435 1.6846485 2.4770901 4.6296334
-0.13032982 6.874908 -0.26694942 -3.448556 1.9321201 -6.1754856 1.0142195 -2.6729405
2.8599656 -1.172759 2.5283194 8.932476 1.2869167 2.1097553 -1.6158369 13.602363
2.530218 -11.190422 -14.685803 0.04737693 -0.051497012 -6.5419774 -5.2199616 -9.664381
-1.2856984 6.3677135 1.84015 11.10952 -5.4816003 3.1888413 -3.959084 9.052532
2.7920654 6.2636843 12.503631 -10.895681 4.535459 1.8211062 -15.220643 -5.579449
-7.426217 -7.5303073 10.459772 -2.2578275 2.2606173 -1.9886413 -10.940916 -3.9837375
1.7480748 -1.8548746 5.236314 2.2609534 1.3689688 -8.240039 -2.8995085 8.388117
0.5631121 -15.366257 5.8038464 4.1866455 -1.3326359 0.98040193 1.6726938 -11.834722
12.479981 -3.176813 -2.5346105 3.4010315 -6.2338443 6.852852 2.5308428 9.334018
-3.5508587 2.8419745 -3.801628 -1.8474526 5.753854 4.7724285 0.5964512 7.103562
00000000: f356 0040 ce3d 75c0 4f17 0740 ae19 823e
00000010: e5f2 b9c0 2845 a7bf c4d9 77bf 3281 5441
00000020: 459e f9be 0554 d5c0 4b93 a0c0 dc6b 3241
00000030: 39d7 f33f a5df fc40 ba11 bc3d 465e 7440
00000040: a7bb a9c0 eb61 bec0 2970 8c40 282d ad40
00000050: 89d3 0340 692d 6bc0 14da 40bf 93da 9441
00000060: e3e0 03c0 e294 9fbf a970 e340 d732 0c40
00000070: 6b32 0a41 5d75 32c0 d29d 9dc0 8ac6 e93f
00000080: 15af 9540 8e2c ad40 692a efbe 6a14 98bf
00000090: 4e5a 44c1 f57c e240 6658 46bf 485f 1dc0
000000a0: f3b7 3241 2b30 0abe f201 eb40 413a 2441
000000b0: bcfd fac0 7c2a 0040 2f06 b740 280e 3040
000000c0: a3e1 55c0 55d0 9640 35e9 7140 24f2 74c0
000000d0: 7b74 6cbf 8c4f 64c0 0004 ab40 eaf1 3140
000000e0: d8df c140 069e 2641 7bbe 8240 af74 e4bf
000000f0: c764 d740 03ac fbc0 d2e7 8f3f 65e8 22c0
00000100: 3361 5840 bef6 2941 a333 643f 1ed6 e43f
00000110: c8e3 0040 7bc4 cf40 ab24 4dbf e3a5 3441
00000120: 1164 5641 a60f abc0 aaba c8c0 2a6f 07c1
00000130: db74 8bbe 5098 d73c bffc 22c1 b80e 35c1
00000140: 392d 1040 d661 a940 761c 6040 ce06 20bf
00000150: 6f54 f03f 04e5 2bc1 d86a 0fc0 6700 f840
00000160: e2db 533f 758d a8c0 e120 0941 4843 f140
00000170: e76c 27c1 ce5f 32c0 eee7 60c1 c85f c8bc
00000180: a285 7ec0 a13d b1c0 450b 2d3e e698 7340
00000190: 6d0d 00be d7a0 3840 6249 19be 41b0 8740
000001a0: 1037 8840 2b52 a3c0 304a 0d3d dcfb cac0
000001b0: a04d 0241 7f27 5e40 4280 b63e 187f 49bc
000001c0: d61d 1a41 4326 acbf 8424 cfc0 f05d 91bf
000001d0: 6282 ec3f 8c3f 4140 7909 28c0 b7aa e440
000001e0: 2545 55bf 06df 84c0 bf48 32c0 34c3 783e
000001f0: 3f4b 48c1 1b28 f5c0 25fa 5e40 87f3 a040
00000200: 3274 e7c0 a1a1 0841 ca8c 39c0 d919 9940
00000210: 5885 cd40 9858 bbc0 650b a4c0 6cc9 893e
00000220: 2098 7b40 2ddb 3040 640f 9d40 f776 c740
00000230: 603c 5e40 90a2 d73f a588 1e40 f525 9440
00000240: 2e75 05be 3fff db40 98ad 88be 24b5 5cc0
00000250: b64f f73f 949d c5c0 f2d1 813f 7511 2bc0
00000260: ad09 3740 f81c 96bf fccf 2140 6ceb 0e41
00000270: b0b9 a43f 3b06 0740 bed3 cebf 47a3 5941
00000280: 17ef 2140 f80b 33c1 0df9 6ac1 500e 423d
00000290: 88ee 52bd e157 d1c0 ed09 a7c0 4ea1 1ac1
000002a0: c491 a4bf 4fc4 cb40 098a eb3f 98c0 3141
000002b0: 4569 afc0 fa15 4c40 a261 7dc0 2cd7 1041
000002c0: 33b1 3240 1a70 c840 df0e 4841 b654 2ec1
000002d0: 7b22 9140 021a e93f c187 73c1 d98a b2c0
000002e0: 92a3 edc0 47f8 f0c0 3a5b 2741 3f80 10c0
000002f0: f4ad 1040 cc8b febf fe0d 2fc1 8ef5 7ec0
00000300: eac0 df3f 886c edbf e28f a740 76b3 1040
00000310: 5f3a af3f 33d7 03c1 8c91 39c0 ba35 0641
00000320: 1d28 103f 30dc 75c1 1cb9 b940 00f9 8540
00000330: d093 aabf 9ffb 7a3f d51a d63f 055b 3dc1
00000340: 01ae 4741 e750 4bc0 0f37 22c0 80aa 5940
00000350: a77b c7c0 904a db40 54f9 2140 2358 1541
00000360: 4541 63c0 e9e2 3540 e04d 73c0 5479 ecbf
00000370: 921f b840 bcb7 9840 07b1 183f 6150 e340

fc1.bias f4 [8]
1.3290182 -8.276211 -7.448547 -6.490527 7.405973 6.8530936 6.171131 -13.12818
00000000: 451d aa3f 5c6b 04c1 7f5a eec0 66b2 cfc0
00000010: bbfd ec40 8b4c db40 e879 c540 060d 52c1

fc2.weight f4 [4, 8]
-3.304791 -10.024667 6.858492 6.283285 -9.952966 11.842602 7.216699 -1.3528684
-2.702192 6.332607 0.38789853 3.207 -9.6003895 -6.3950205 -8.251874 5.1445165
0.54822373 9.11843 -4.080675 -14.572084 -3.5362356 1.9829097 13.320736 -6.65609
0.16815144 6.541855 -8.756992 4.723044 10.443043 2.6327572 2.2240257 5.8410783
00000000: b281 53c0 0965 20c1 c478 db40 ac10 c940
00000010: 593f 1fc1 4c7b 3d41 33ef e640 cb2a adbf
00000020: b7f0 2cc0 b7a4 ca40 a39a c63e 7d3f 4d40
00000030: 329b 19c1 02a4 ccc0 ad07 04c1 e19f a440
00000040: 6458 0c3f 17e5 1141 e494 82c0 4227 69c1
00000050: af51 62c0 fccf fd3f bc21 5541 b0fe d4c0
00000060: e42f 2c3e e056 d140 a41c 0cc1 2d23 9740
00000070: b416 2741 187f 2840 7056 0e40 1dea ba40

fc2.bias f4 [4]
-5.450559 -5.9679832 4.0288115 9.230439
00000000: fb6a aec0 b8f9 bec0 06ec 8040 e1af 1341
