model/model21.pth (torch, 2591 bytes, 4 tensors)

fc1.weight f4 [8, 28]
000000 17 14 3c c0 a7 a4 99 c1 cf bc c7 bf 9c ba c1 c0
       -2.9387262 -19.205397 -1.5604495 -6.0540295
000010 3b 73 0a c1 96 56 8d c1 cd c3 ca c1 f5 a1 39 41
       -8.653132 -17.667278 -25.345606 11.60204
000020 ba af 76 c1 6a 67 6c c0 b2 5d 8d 41 f0 0f 64 bf
       -15.417902 -3.693812 17.67075 -0.8908682
000030 c6 3b 17 c1 6f 29 5a 41 f9 e9 1f c1 95 2b 87 3f
       -9.452093 13.635116 -9.994622 1.0560175
000040 35 85 3f c0 aa f5 f1 c1 1f 73 18 c0 ef c6 ef 40
       -2.9925053 -30.244953 -2.3820264 7.493034
000050 87 2a 98 41 64 06 c3 40 6e 29 58 c2 bc bf 60 41
       19.020765 6.09453 -54.04046 14.04681
000060 f6 e2 d1 c1 df 21 5c 41 8b e1 cd 40 e7 9f df c0
       -26.23582 13.758269 6.433782 -6.9882693
000070 5f 6a 05 42 84 23 1e 40 e4 0a 97 c1 7f 09 86 41
       33.353878 2.4709177 -18.880318 16.754637
000080 d9 23 8c 41 e9 b0 36 c0 f3 64 75 c1 15 b7 fe 3e
       17.517504 -2.8545477 -15.337146 0.49749056
000090 ac 20 9e c1 60 95 0d 42 9b ab 44 c1 41 ef ed 3f
       -19.765953 35.395874 -12.291896 1.858864
0000a0 ef a4 8b 40 d9 72 c0 c1 7e a9 e4 41 da 4c 03 42
       4.3638835 -24.056078 28.58276 32.82505
0000b0 72 46 55 41 b5 9e e2 41 ff 26 b5 41 f4 7b bb 41
       13.329699 28.327494 22.644041 23.435524
0000c0 fd c4 59 41 bb 5b b0 c0 8b 27 08 40 b3 e5 5c 41
       13.610593 -5.5111976 2.1274135 13.806079
0000d0 6f 6b cf c1 d3 e3 f4 3f 5a 54 3a c1 81 45 c3 c1
       -25.927458 1.9132026 -11.645594 -24.408937
0000e0 c8 08 e2 41 9b 97 a3 40 80 5e 16 bd 1d 80 06 c1
       28.254288 5.1122565 -0.036711216 -8.406278
0000f0 dd 59 dc 41 9a a5 81 40 49 9f 87 c0 87 9a 67 41
       27.543879 4.051465 -4.238194 14.475226
000100 9f 1c dc 3e 2b 0f e2 41 3d 81 af c1 ff 41 04 41
       0.42990586 28.257406 -21.938105 8.266112
000110 21 05 a9 c0 3b bf 1a c0 28 e5 91 41 cc ce 06 42
       -5.281876 -2.4179218 18.236893 33.70195
000120 c8 6a be 41 82 c6 ba c1 d6 48 96 c1 7e 27 76 c1
       23.80214 -23.346928 -18.785564 -15.384642
000130 33 c0 d8 c0 8a 61 9a c0 1c e8 f9 40 b1 8e ac 40
       -6.773462 -4.8244066 7.8095837 5.3924184
000140 13 29 33 c1 71 56 e5 40 d5 bc 07 41 69 be f8 3f
       -11.197528 7.166802 8.483602 1.9433109
000150 62 f1 44 41 74 e9 31 42 82 54 cf 40 8b ba 51 bf
       12.308931 44.47798 6.479066 -0.81925267
000160 43 ce 4e c1 14 0e f9 40 99 b0 dc 3f 1c 3a c3 40
       -12.925357 7.7829685 1.7241393 6.1008434
000170 82 db 2f c1 d2 25 fe c0 c1 93 89 c1 49 e4 81 41
       -10.991091 -7.9421167 -17.197145 16.236467
000180 2a 65 b8 3f 6e bf d8 bf d4 33 c3 41 17 05 e4 c0
       1.4405873 -1.693342 24.400307 -7.1256213
000190 15 8a a4 41 ca 66 60 40 ec e0 15 c2 78 e2 fa 41
       20.567423 3.5062737 -37.46965 31.36058
0001a0 80 4b 85 40 cf 05 a7 c1 19 84 a5 c1 c7 3b 73 c0
       4.1654663 -20.877836 -20.6895 -3.8005235
0001b0 a5 d9 dd 41 cf 2d e1 40 d2 b5 4e c1 cc a1 3b c1
       27.731272 7.036842 -12.91939 -11.727001
0001c0 a0 23 e9 41 3f 9d 00 40 aa aa e3 c0 18 16 4b 41
       29.142395 2.0095975 -7.114583 12.692894
0001d0 39 02 85 40 85 0c 2b 40 55 6e 12 c1 2d bf 8c 41
       4.1565213 2.6726391 -9.151937 17.593348
0001e0 12 97 a3 c0 90 43 49 41 db 7a bc c0 a7 50 2e 40
       -5.112191 12.578995 -5.889997 2.7236726
0001f0 b6 1b 88 c1 c4 2e 18 41 4a 14 9c 41 98 e2 b0 3f
       -17.01353 9.511417 19.509907 1.3819151
000200 7c dc b7 40 d3 47 34 42 ed 50 05 40 2a eb de 3f
       5.7456646 45.07014 2.0830643 1.7415516
000210 9c 1c a5 c0 8a 33 35 c0 45 53 02 c0 c0 91 66 40
       -5.1597424 -2.8312707 -2.0363324 3.6026459
000220 3e 79 bc 41 54 1a 34 41 b0 e9 d7 41 e9 df 1e 40
       23.5592 11.256428 26.989105 2.4824164
000230 ac b3 93 41 30 0b de c1 fc a1 80 41 ea e5 a4 c0
       18.46273 -27.755463 16.079094 -5.1530657
000240 22 3b 19 c1 9c e0 44 41 5b 23 5c 41 2a 18 b3 c0
       -9.576937 12.304836 13.758632 -5.5966997
000250 48 3d 9c c1 01 ca 04 c1 3d d4 12 42 a4 4f e6 c1
       -19.529922 -8.299317 36.707264 -28.788887
000260 8e fc 03 c0 17 64 46 c1 fa a2 b6 c0 91 3b 20 c1
       -2.0622897 -12.399436 -5.7073946 -10.014543
000270 aa 90 c4 41 32 c4 43 c1 2f 7b ec 40 51 f0 e8 bf
       24.570637 -12.235399 7.390037 -1.8198339
000280 cd 05 ee 41 06 a1 bb c0 8f 4e 28 c2 3b 7d 47 c0
       29.752832 -5.863406 -42.076717 -3.1170185
000290 11 c8 39 c1 6a 2b 06 41 74 eb a3 c0 24 7d 68 c1
       -11.611344 8.385599 -5.122492 -14.530552
0002a0 7f 6d 22 42 62 d1 d2 c0 46 40 8c 3f bf e9 f7 c1
       40.60693 -6.5880594 1.0957115 -30.989134
0002b0 6d 6d c7 c0 ac 3b 41 c1 13 92 0b c1 85 e1 d4 41
       -6.2321076 -12.077068 -8.723163 26.610117
0002c0 11 5b ed c1 98 fe 39 c1 c5 56 3a 40 63 af 80 c1
       -29.669466 -11.624657 2.911546 -16.085638
0002d0 8e 43 1f 40 1a 8e 65 41 de 49 31 c2 c2 28 68 c0
       2.4884982 14.347193 -44.322136 -3.6274877
0002e0 4e d6 c0 41 73 ec 13 c0 89 e8 04 42 17 f3 8c c1
       24.104641 -2.3113067 33.227085 -17.618696
0002f0 aa 1b 94 41 29 2f d3 3e c8 5d e2 c0 7d 46 be c1
       18.513508 0.41246918 -7.073948 -23.784418
000300 18 f2 01 c0 dd 08 93 41 e3 4e 87 41 ca b2 eb c1
       -2.0304012 18.379328 16.913519 -29.4623
000310 72 ea 24 c0 b7 e4 bd 41 94 71 09 3e fa 7b 13 c0
       -2.5768094 23.736677 0.13422233 -2.304442
000320 5a 92 19 41 53 b1 11 c2 31 78 9d 40 1a 53 d4 c1
       9.59823 -36.42317 4.920922 -26.540577
000330 02 e8 23 c1 c2 b8 22 41 0c 43 7b c1 a0 88 90 41
       -10.244143 10.170107 -15.703869 18.066711
000340 e1 dd ba 41 6f 74 9d 40 b1 e1 ea 40 30 06 87 c1
       23.35834 4.920463 7.34005 -16.878021
000350 28 51 2c c2 a6 93 81 41 e3 a8 e5 c0 b5 11 e6 bf
       -43.079254 16.197094 -7.176866 -1.7974154
000360 da 19 a4 41 69 7a 24 c1 e5 ed 57 c1 e1 4e aa 40
       20.512623 -10.279885 -13.49558 5.322129
000370 4c 1e 5c c1 eb f3 4f 41 b1 f9 1e c1 5f 74 14 c1
       -13.757397 12.99705 -9.93596 -9.278411

fc1.bias f4 [8]
000000 72 35 c2 c1 b2 ec f2 c0 6e 63 ee c0 b7 4b cd 3f
       -24.276096 -7.5913935 -7.4496374 1.6038731
000010 fc 13 00 c2 0e 34 a8 40 ec 50 57 41 57 ea e7 c1
       -32.019516 5.2563543 13.457256 -28.989424

fc2.weight f4 [4, 8]
000000 74 a8 a9 c0 cd c7 36 c2 70 9b 12 42 bf 74 36 40
       -5.301813 -45.695118 36.651794 2.8508756
000010 43 d7 d5 40 99 20 0d 42 fd d3 97 c1 0b 9d 7d c1
       6.682527 35.281834 -18.97851 -15.850841
000020 3c 7c e8 41 b1 85 64 bf 4d 8f 99 41 20 94 db 41
       29.060661 -0.89266497 19.194971 27.447327
000030 40 66 10 41 92 cb 34 c1 a9 02 3f c2 e5 cd ce 40
       9.024963 -11.2997 -47.752598 6.4626336
000040 d4 a2 05 41 b4 d4 61 c1 dd fc f3 41 fb 15 56 c2
       8.352253 -14.114429 30.498468 -53.521465
000050 b5 00 08 41 ad 38 f9 c0 5b 78 ea 41 eb ae aa 40
       8.500173 -7.7881684 29.308767 5.3338523
000060 f1 27 2a 41 93 03 8a 41 fc db e1 bf 3e 65 5a be
       10.634751 17.251745 -1.7645259 -0.21327683
000070 dd 86 02 42 12 a0 67 41 30 a9 81 c1 d6 d5 06 c2
       32.631702 14.47658 -16.207611 -33.708824

fc2.bias f4 [4]
000000 df d4 c6 c1 4a e2 0a 40 6f 60 55 3c de d7 f3 c0
       -24.853941 2.1700616 0.01302348 -7.620101
