model/model70.pth (torch, 2591 bytes, 4 tensors)

fc1.weight f4 [8, 28]
-0.1801695 -6.469165 2.7246518 0.90689707 -4.729731 -2.7207456 -3.588586 13.541859
1.4909792 -4.409396 -7.082917 11.224931 1.7315761 6.791301 1.188582 4.6416516
-4.2828355 -6.514113 4.650217 5.581601 1.328171 -5.459697 -0.86237437 19.140093
-2.668771 -1.7788532 8.360842 1.9767612 8.252447 -4.1367593 -5.3743057 0.28017694
5.744875 6.0958414 -0.22884679 -0.5193949 -13.229708 7.217401 -1.8234172 -2.0394108
9.084627 0.9171064 6.7305336 8.891796 -8.175406 1.4076903 6.64897 3.7184525
-2.958421 5.3102655 5.4524517 -2.6536849 0.7523098 -2.3913808 5.3756266 2.315018
8.262679 8.868834 4.6540375 -0.7765095 6.2356563 -7.670055 0.37259418 -2.6520753
1.9207021 10.973969 1.9179206 2.047217 2.8911004 7.2839003 -2.1750467 10.76096
13.636024 -5.856315 -7.0079546 -7.1081715 -1.2590722 -1.3876418 -11.437668 -11.708667
0.6844213 5.1346197 3.6026058 -0.27812514 -0.6131749 -11.816106 -1.4688826 7.4852953
2.3042476 -4.6654015 8.544699 5.713931 -11.982967 -2.328126 -13.656728 -0.36292276
-6.2203345 -5.448186 0.46366382 3.8756561 -0.20804513 4.5437636 -2.4327765 5.60217
4.6502438 -6.1921916 0.494107 -5.723412 7.196007 3.9323905 0.10211191 -0.5076576
8.272527 -1.7286494 -7.5239882 -0.30969974 2.4400294 3.3283677 -1.8981733 4.782319
-0.40074873 -2.832463 -1.2451144 -0.28033137 -11.346657 -7.4377294 3.5267792 5.0892534
-6.55055 7.9520063 -3.1685824 5.145411 5.8044744 -4.681316 -4.6961308 -1.1432614
5.6454926 3.4750319 4.2559576 6.198302 2.402523 2.8143208 3.5535645 5.274486
0.48813817 6.983286 -1.611791 -4.5372577 1.6529347 -8.167695 3.837433 -2.4594529
1.6253622 -1.6136055 2.9885528 8.65873 1.7186757 2.1979206 -0.27067196 15.570512
3.260169 -10.308966 -14.2804985 0.4303335 -1.3535907 -6.028026 -4.7003865 -8.59023
0.13284327 5.635885 2.152018 12.833877 -3.1638472 3.903835 -4.3203707 9.785968
4.24431 6.3797417 13.39467 -11.999488 5.128827 -0.04498002 -13.893444 -4.9045362
-5.2496223 -7.818165 8.846149 -3.3128564 1.5047154 -1.8738309 -10.906645 -4.478551
2.5620747 -0.788068 4.1407123 2.812023 1.1948062 -7.7050056 -2.763944 7.2802386
1.5105495 -16.941723 7.484917 3.7772236 -1.2525713 2.4618962 1.8967364 -12.034877
12.920099 -4.4029217 0.320286 5.140139 -5.567992 6.970429 4.2229476 9.97504
-3.8073707 0.987644 -6.0684457 -1.9427872 3.2241924 2.498969 -1.1774837 7.430964
00000000: 5a7e 38be 6603 cfc0 b260 2e40 682a 683f
00000010: f559 97c0 b220 2ec0 65ab 65c0 74ab 5841
00000020: 68d8 be3f c619 8dc0 42a7 e2c0 5199 3341
00000030: 49a4 dd3f 5652 d940 7423 983f 6988 9440
00000040: fd0c 89c0 9d73 d0c0 94ce 9440 7a9c b240
00000050: 8201 aa3f d6b5 aec0 91c4 5cbf e91e 9941
00000060: 25cd 2ac0 76b1 e3bf 02c6 0541 8306 fd3f
00000070: 060a 0441 5560 84c0 50fa abc0 5a73 8f3e
00000080: 04d6 b740 2211 c340 d056 6abe 10f7 04bf
00000090: e2ac 53c1 f3f4 e640 bc65 e9bf b585 02c0
000000a0: a25a 1141 7cc7 6a3f 8860 d740 cc44 0e41
000000b0: 77ce 02c1 322f b43f 5dc4 d440 20fb 6d40
000000c0: c556 3dc0 b2ed a940 7c7a ae40 f9d5 29c0
000000d0: 6097 403f 620c 19c0 2205 ac40 4129 1440
000000e0: ef33 0441 bee6 0d41 e0ed 9440 54c9 46bf
000000f0: 7f8a c740 1771 f5c0 aac4 be3e 9abb 29c0
00000100: 91d9 f53f 6195 2f41 6c7e f53f 9a05 0340
00000110: ca07 3940 b615 e940 f733 0bc0 e42c 2c41
00000120: 282d 5a41 ef66 bbc0 2a41 e0c0 2476 e3c0
00000130: 4729 a1bf 3f9e b1bf b000 37c1 b356 3bc1
00000140: 3c36 2f3f ce4e a440 1891 6640 6b66 8ebe
00000150: 08f9 1cbf c50e 3dc1 5804 bcbf 8a87 ef40
00000160: cb78 1340 f84a 95c0 16b7 0841 86d8 b640
00000170: 3cba 3fc1 0400 15c0 f581 5ac1 03d1 b9be
00000180: fb0c c7c0 8a57 aec0 5865 ed3e c00a 7840
00000190: c809 55be 8366 9140 9cb2 1bc0 fa44 b340
000001a0: ccce 9440 6f26 c6c0 98fb fc3e 3126 b7c0
000001b0: b045 e640 49ac 7b40 0d20 d13d d9f5 01bf
000001c0: 455c 0441 6244 ddbf 83c4 f0c0 f790 9ebe
000001d0: 7129 1c40 fa03 5540 58f7 f2bf c208 9940
000001e0: f02e cdbe 1347 35c0 e95f 9fbf 9887 8fbe
000001f0: e88b 35c1 e101 eec0 c0b6 6140 2adb a240
00000200: 1b9e d1c0 d676 fe40 0eca 4ac0 35a7 a440
00000210: 41be b940 57cd 95c0 b446 96c0 6456 92bf
00000220: e0a7 b440 ec66 5e40 ce30 8840 7d58 c640
00000230: f0c2 1940 d51d 3440 9a6d 6340 97c8 a840
00000240: 3fed f93e 1477 df40 2b4f cebf 3731 91c0
00000250: 5d93 d33f e1ae 02c1 8198 7540 ad67 1dc0
00000260: de0b d03f a08a cebf 7344 3f40 288a 0a41
00000270: 91fd db3f bbaa 0c40 8495 8abe d120 7941
00000280: 9ca6 5040 86f1 24c1 ec7c 64c1 ac54 dc3e
00000290: 7642 adbf 97e5 c0c0 9169 96c0 9571 09c1
000002a0: 1108 083e 2b59 b440 aaba 0940 8f57 4d41
000002b0: 797c 4ac0 6fd8 7940 7a40 8ac0 5393 1c41
000002c0: 63d1 8740 d826 cc40 9150 5641 e7fd 3fc1
000002d0: 5a1f a440 f83c 38bd 8c4b 5ec1 f6f1 9cc0
000002e0: e8fc a7c0 682e fac0 d489 0d41 d705 54c0
000002f0: 849a c03f b1d9 efbf 9e81 2ec1 4a50 8fc0
00000300: 08f9 2340 d3be 49bf b780 8440 2ff8 3340
00000310: 69ef 983f 688f f6c0 75e4 30c0 b7f7 e840
00000320: b059 c13f a688 87c1 7184 ef40 08be 7140
00000330: 4254 a0bf b58f 1d40 42c8 f23f db8e 40c1
00000340: bab8 4e41 bce4 8cc0 87fc a33e 057c a440
00000350: fe2c b2c0 c10d df40 6322 8740 c499 1f41
00000360: f6ab 73c0 3dd6 7c3f b530 c2c0 40ad f8bf
00000370: 2b59 4e40 1cef 1f40 c9b7 96bf 75ca ed40

fc1.bias f4 [8]
2.1120024 -7.9955173 -8.572005 -5.289908 7.187826 7.8619094 4.7865396 -14.3876915
00000000: 0c2b 0740 47db ffc0 ef26 09c1 ed46 a9c0
00000010: ac02 e640 c394 fb40 552b 9940 fc33 66c1

fc2.weight f4 [4, 8]
-7.0430098 -5.8168626 9.509683 5.6541266 -13.32863 12.493317 9.176415 -4.108259
-2.9651716 4.591323 4.0419755 0.8172825 -7.529137 -3.366373 -5.3883896 6.487841
2.4871712 4.4442916 -3.241069 -17.483805 -5.0659857 5.7876506 14.117554 -4.0812054
0.18709263 5.5760713 -5.721101 5.7193255 10.266845 1.7510976 3.5995886 2.9344845
00000000: 5660 e1c0 bd23 bac0 a927 1841 9bee b440
00000010: 1242 55c1 a0e4 4741 99d2 1241 dc76 83c0
00000020: 5fc5 3dc0 1eec 9240 dd57 8140 6d39 513f
00000030: b1ee f0c0 a872 57c0 b06d acc0 659c cf40
00000040: d02d 1f40 a337 8e40 ad6d 4fc0 d5de 8bc1
00000050: 8e1c a2c0 6f34 b940 80e1 6141 3c99 82c0
00000060: 3695 3f3e 2d6f b240 4213 b7c0 b704 b740
00000070: ff44 2441 f723 e03f a95f 6640 98ce 3b40

fc2.bias f4 [4]
-4.7887125 -5.486564 3.1494393 8.989341
00000000: 223d 99c0 ef91 afc0 6a90 4940 57d4 0f41
