model/model1.pth (torch, 2585 bytes, 4 tensors)

fc1.weight f4 [8, 28]
-2.923185 -19.219824 -1.6150649 -6.016833 -8.644241 -17.636229 -25.327873 11.540595
-15.453256 -3.6626506 17.669508 -0.89957404 -9.481559 13.606801 -9.96896 1.0270522
-2.9905245 -30.274937 -2.3245153 7.498969 19.009756 6.1361966 -54.08237 14.043649
-26.210623 13.735007 6.4556713 -6.990849 33.337936 2.4681168 -18.848896 16.749323
17.48802 -2.8578415 -15.313215 0.4939892 -19.734213 35.416843 -12.28473 1.8274431
4.3911057 -24.04335 28.570047 32.795357 13.3498125 28.354557 22.640018 23.402245
13.641916 -5.568452 2.1178346 13.846566 -25.948204 1.9377562 -11.6412115 -24.385612
28.25977 5.0837107 -0.049570505 -8.414053 27.558466 4.064068 -4.2220793 14.517628
0.4641247 28.247051 -21.989344 8.275548 -5.2188125 -2.4436507 18.227846 33.707977
23.816494 -23.340433 -18.754818 -15.3723545 -6.7464905 -4.816034 7.8178444 5.4256635
-11.198297 7.1806636 8.470488 1.9517653 12.293969 44.471725 6.49329 -0.83309364
-12.900611 7.7725797 1.7223727 6.0650992 -10.941489 -7.986617 -17.155329 16.267683
1.4455636 -1.6955141 24.394096 -7.1053863 20.566597 3.4985566 -37.471626 31.33871
4.142443 -20.83306 -20.657251 -3.828239 27.690573 7.0388136 -12.910556 -11.71213
29.099289 1.9932123 -7.0966945 12.733588 4.148593 2.6755817 -9.155295 17.58629
-5.1118197 12.567112 -5.889902 2.7537994 -17.029095 9.467249 19.481785 1.3919379
5.7104917 45.024548 2.1075711 1.7034564 -5.1607156 -2.8375819 -2.0051658 3.59037
23.520586 11.223714 27.027292 2.4951503 18.484627 -27.755373 16.089739 -5.1560483
-9.630252 12.300117 13.722209 -5.618605 -19.52113 -8.3066845 36.71749 -28.804153
-2.060418 -12.3978 -5.7540817 -10.001178 24.564714 -12.221447 7.3587584 -1.8248194
29.773401 -5.864328 -42.040417 -3.1226947 -11.658553 8.368927 -5.134574 -14.523268
40.600452 -6.644095 1.1058455 -31.005379 -6.270491 -12.081813 -8.711073 26.5932
-29.682714 -11.618186 2.8478892 -16.116407 2.527956 14.379736 -44.313572 -3.645847
24.112309 -2.3751736 33.20653 -17.674229 18.46979 0.4024743 -7.1173744 -23.774452
-2.0195343 18.390385 16.881685 -29.454264 -2.5508578 23.688263 0.18903156 -2.254776
9.53747 -36.407455 4.9017773 -26.540823 -10.236455 10.1634655 -15.718909 18.059746
23.287241 4.9262543 7.3555408 -16.839293 -43.104908 16.194447 -7.169136 -1.8667995
20.547312 -10.316567 -13.494249 5.3388257 -13.724284 12.98252 -9.945899 -9.260943
00000000: 7715 3bc0 33c2 99c1 72ba cebf e589 c0c0
00000010: d04e 0ac1 ff16 8dc1 7c9f cac1 47a6 3841
00000020: 8940 77c1 de68 6ac0 275b 8d41 7c4a 66bf
00000030: 77b4 17c1 75b5 5941 dc80 1fc1 7276 833f
00000040: c164 3fc0 1233 f2c1 dcc4 14c0 8ef7 ef40
00000050: fb13 9841 b95b c440 5954 58c2 c9b2 6041
00000060: 5baf d1c1 97c2 5b41 dc94 ce40 09b5 dfc0
00000070: 0c5a 0542 a0f5 1d40 8aca 96c1 9dfe 8541
00000080: 77e7 8b41 e0e6 36c0 ee02 75c1 27ec fc3e
00000090: abdf 9dc1 d9aa 0d42 418e 44c1 a8e9 e93f
000000a0: f083 8c40 c858 c0c1 758f e441 722e 0342
000000b0: d598 5541 22d6 e241 c21e b541 cc37 bb41
000000c0: 4a45 5a41 c230 b2c0 9a8a 0740 898b 5d41
000000d0: ec95 cfc1 6508 f83f 6742 3ac1 bc15 c3c1
000000e0: 0214 e241 c2ad a240 710a 4bbd f69f 06c1
000000f0: bd77 dc41 d80c 8240 461b 87c0 3448 6841
00000100: c1a1 ed3e f6f9 e141 2dea afc1 a568 0441
00000110: 8300 a7c0 c664 1cc0 a1d2 9141 f8d4 0642
00000120: 2e88 be41 35b9 bac1 de09 96c1 2af5 75c1
00000130: 40e3 d7c0 f31c 9ac0 c82b fa40 099f ad40
00000140: 392c 33c1 ffc7 e540 1e87 0741 72d3 f93f
00000150: 19b4 4441 0ce3 3142 08c9 cf40 a045 55bf
00000160: e768 4ec1 f9b8 f840 b576 dc3f 4b15 c240
00000170: 5710 2fc1 5e92 ffc0 1d3e 89c1 3724 8241
00000180: 3a08 b93f 9b06 d9bf 1c27 c341 535f e3c0
00000190: 6488 a441 5ae8 5f40 f2e2 15c2 aeb5 fa41
000001a0: e58e 8440 1baa a6c1 0d42 a5c1 de01 75c0
000001b0: 4b86 dd41 f63d e140 a391 4ec1 e264 3bc1
000001c0: 58cb e841 9521 ff3f 1f18 e3c0 c7bc 4b41
000001d0: 46c1 8440 bb3c 2b40 177c 12c1 b9b0 8c41
000001e0: 0794 a3c0 e412 4941 147a bcc0 403e 3040
000001f0: 963b 88c1 da79 1741 b2da 9b41 052b b23f
00000200: 59bc b640 2319 3442 72e2 0640 dc0a da3f
00000210: 9524 a5c0 f19a 35c0 a354 00c0 9fc8 6540
00000220: 292a bc41 5594 3341 e537 d841 8bb0 1f40
00000230: 84e0 9341 010b dec1 c9b7 8041 59fe a4c0
00000240: 8315 1ac1 47cd 4441 2b8e 5b41 9dcb b3c0
00000250: 462b 9cc1 2ee8 04c1 b6de 1242 e86e e6c1
00000260: e3dd 03c0 645d 46c1 7021 b8c0 d304 20c1
00000270: 8984 c441 0c8b 43c1 f37a eb40 af93 e9bf
00000280: ed2f ee41 93a8 bbc0 6329 28c2 3bda 47c0
00000290: 6f89 3ac1 20e7 0541 6e4e a4c0 4e5f 68c1
000002a0: dd66 2242 6d9c d4c0 588c 8d3f 040b f8c1
000002b0: dda7 c8c0 1b4f 41c1 8e60 0bc1 e0be d441
000002c0: 3376 edc1 17e4 39c1 d143 3640 67ee 80c1
000002d0: 08ca 2140 6613 6641 1941 31c2 8f55 69c0
000002e0: 02e6 c041 d802 18c0 7dd3 0442 d264 8dc1
000002f0: 21c2 9341 1d11 ce3e 88c1 e3c0 1432 bec1
00000300: 0d40 01c0 821f 9341 b10d 8741 55a2 ebc1
00000310: 4141 23c0 9081 bd41 7d91 413e 404e 10c0
00000320: 7a99 1841 3ca1 11c2 5cdb 9c40 9b53 d4c1
00000330: 85c8 23c1 8e9d 2241 a780 7bc1 5c7a 9041
00000340: 454c ba41 e0a3 9d40 9760 eb40 dfb6 86c1
00000350: 6d6b 2cc2 3a8e 8141 9069 e5c0 49f3 eebf
00000360: e560 a441 a910 25c1 72e8 57c1 a9d7 aa40
00000370: ab96 5bc1 67b8 4f41 6722 1fc1 d32c 14c1

fc1.bias f4 [8]
-24.257864 -7.528168 -7.4474382 1.573241 -32.04331 5.2200484 13.423803 -29.01107
00000000: 1b10 c2c1 c1e6 f0c0 6a51 eec0 f65f c93f
00000010: 592c 00c2 a30a a740 e6c7 5641 ac16 e8c1

fc2.weight f4 [4, 8]
-5.301781 -45.730797 36.63664 2.8632946 6.648357 35.294693 -19.00048 -15.838588
29.066406 -0.8745957 19.183105 27.420506 9.015014 -11.337043 -47.772945 6.448291
8.326005 -14.114507 30.528559 -53.52407 8.486117 -7.828769 29.311846 5.2890706
10.60948 17.212767 -1.7602836 -0.2173946 32.66617 14.452334 -16.176664 -33.674934
00000000: 31a8 a9c0 56ec 36c2 eb8b 1242 3840 3740
00000010: 57bf d440 c42d 0d42 fc00 98c1 db6a 7dc1
00000020: 0088 e841 81e5 5fbf 0077 9941 325d db41
00000030: 7f3d 1041 8764 35c1 7f17 3fc2 6658 ce40
00000040: 5137 0541 05d5 61c1 7d3a f441 a618 56c2
00000050: 23c7 0741 4785 fac0 a97e ea41 1140 a940
00000060: 6ec0 2941 bfb3 8941 f950 e1bf b19c 5ebe
00000070: 28aa 0242 c33c 6741 cf69 81c1 22b3 06c2

fc2.bias f4 [4]
-24.077477 3.8267536 -0.6620842 -7.5831523
00000000: ac9e c0c1 88e9 7440 5a7e 29bf 2fa9 f2c0
