model/model34.pth (torch, 2591 bytes, 4 tensors)

fc1.weight f4 [8, 28]
000000 7e 4f 54 c0 89 4f 88 c1 6d 0f 59 c0 e3 4a f3 c0
       -3.3173518 -17.038836 -3.3915665 -7.6028914
000010 27 c4 1c c1 67 0e a1 c1 be f4 c5 c1 5f 09 49 41
       -9.797889 -20.132032 -24.744503 12.564788
000020 a0 af 81 c1 d5 8a 9a c0 99 85 6d 41 76 fe e2 bf
       -16.210754 -4.8294473 14.845117 -1.7733905
000030 ca 59 16 c1 ac f6 7a 41 a5 9e 18 c1 b6 a7 c2 3f
       -9.396921 15.685223 -9.538732 1.5207431
000040 76 18 8f c0 1b ea ec c1 77 3f 8e c0 06 64 ee 40
       -4.471736 -29.61431 -4.445247 7.44971
000050 02 13 85 41 7c d4 09 41 c1 6c 58 c2 8a 71 50 41
       16.634281 8.614376 -54.106205 13.0277195
000060 62 b7 d5 c1 ba 90 4b 41 60 8a e1 40 36 08 d1 c0
       -26.714542 12.722834 7.0481415 -6.5322523
000070 91 ec 00 42 ce 71 c3 3f 0d 08 8b c1 37 03 68 41
       32.23102 1.5269105 -17.378931 14.500785
000080 b8 99 8e 41 fc b1 54 c0 06 70 84 c1 92 f0 82 3f
       17.825058 -3.3233633 -16.554699 1.0229666
000090 1d e6 b1 c1 77 4a 03 42 84 12 5f c1 f0 32 93 3f
       -22.23736 32.82272 -13.94202 1.149992
0000a0 cc 25 4f 40 f7 c1 c1 c1 48 1e d3 41 ea 8a fb 41
       3.236682 -24.21971 26.389786 31.44283
0000b0 32 d9 58 41 86 9d ea 41 fe e1 b7 41 54 b3 bf 41
       13.553026 29.326916 22.985348 23.962563
0000c0 8e 37 74 41 f1 3a 1e c0 06 f6 e0 3f a2 c2 78 41
       15.263563 -2.4723475 1.757508 15.547518
0000d0 3c 31 be c1 58 67 3c 40 24 87 35 c1 73 6f b2 c1
       -23.77404 2.9438076 -11.345493 -22.304419
0000e0 cc fe e6 41 1a 84 4d 40 7a 84 07 be 14 c6 09 c1
       28.874413 3.2111878 -0.1323413 -8.610859
0000f0 0b 86 d8 41 13 38 a6 40 27 90 8a c0 3c a0 63 41
       27.06545 5.194345 -4.3300967 14.22662
000100 4c 96 1d bf 6c 27 db 41 dc f7 b0 c1 4e 72 10 41
       -0.6155746 27.394249 -22.121025 9.027906
000110 f9 1b 98 c0 54 89 5a c0 9f d8 8c 41 4a 6c 00 42
       -4.7534146 -3.4146318 17.605772 32.10575
000120 b3 8a ca 41 a4 80 b7 c1 59 01 a0 c1 ee 88 4e c1
       25.317724 -22.937813 -20.000658 -12.90843
000130 a0 89 0a c1 44 5b 9e c0 2c 2f f5 40 ec 67 89 40
       -8.6586 -4.948641 7.6620083 4.293936
000140 8e 8b 37 c1 8f 1d c2 40 06 88 0e 41 c8 45 0d 40
       -11.471571 6.066108 8.908209 2.207384
000150 43 06 47 41 cf 6e 28 42 46 f8 e8 40 a5 7f a9 bf
       12.439029 42.10821 7.280307 -1.3242079
000160 f8 e1 2a c1 e2 c6 dc 40 fd 70 f2 3f c6 12 94 40
       -10.680168 6.8992777 1.8940731 4.6272917
000170 4d 25 3a c1 4c f4 1f c1 74 9a 8b c1 96 f4 8f 41
       -11.634107 -9.997143 -17.450417 17.994427
000180 89 46 ab 3f e0 17 ff bf 2a 3c b4 41 0a 70 b4 c0
       1.3380901 -1.9929161 22.529377 -5.6386766
000190 cf 62 a8 41 8f 5b 9d 40 fb fe 07 c2 9e a3 09 42
       21.048246 4.9174266 -33.999004 34.409782
0001a0 46 0d 95 40 80 6f 9a c1 ab 94 94 c1 a7 a1 84 c0
       4.6578703 -19.304443 -18.572592 -4.144733
0001b0 d9 f3 ed 41 86 41 07 41 94 c2 3d c1 f3 32 30 c1
       29.744066 8.453497 -11.860004 -11.012439
0001c0 df 13 f1 41 68 fb 3b 3f 3a cc c8 c0 26 42 5d 41
       30.134703 0.7343049 -6.27493 13.8286495
0001d0 0a ce 1f 3e 4e d5 fa bf 9e 80 21 c1 5f 27 9d 41
       0.15605941 -1.9596345 -10.093901 19.644224
0001e0 38 ac 93 c0 22 49 43 41 19 c2 89 c0 aa 17 27 40
       -4.614773 12.205355 -4.3049436 2.6108193
0001f0 17 4b 7b c1 79 8d 39 41 fb 90 8d 41 57 7a 1c 40
       -15.7058325 11.597039 17.695791 2.444967
000200 07 6a 01 41 37 33 38 42 d7 18 d8 3f 23 0c 85 3f
       8.088386 46.050014 1.688258 1.0394329
000210 7a 63 9e c0 66 fd 60 c0 12 93 3e c0 fb 6c a2 3f
       -4.949643 -3.5154662 -2.9777265 1.2689508
000220 70 1e a5 41 53 c8 4c 41 b7 fc e0 41 f6 94 23 3e
       20.639862 12.798907 28.123396 0.15974793
000230 4f 51 9c 41 39 fa d0 c1 a6 75 71 41 45 98 b7 c0
       19.539701 -26.122179 15.091223 -5.7373376
000240 c0 aa 15 c1 eb 1f 3c 41 f4 4b 83 41 f6 78 6d c0
       -9.354187 11.757792 16.412086 -3.7105079
000250 90 3d 9f c1 45 0e 0c c1 91 c5 17 42 73 7f e2 c1
       -19.90506 -8.753484 37.942936 -28.312231
000260 51 3b 5d c0 1d bd 5d c1 8c 35 ce c0 dc b6 46 c1
       -3.4567454 -13.85867 -6.4440365 -12.419643
000270 aa 15 bb 41 84 a4 56 c1 e4 0c d7 40 e1 9d 03 c0
       23.385578 -13.415165 6.7203236 -2.0565112
000280 eb c0 eb 41 a1 d5 8a c0 b5 37 21 c2 38 7b 86 c0
       29.469198 -4.3385777 -40.3044 -4.2025414
000290 af a5 55 c1 b4 4a 22 41 b3 bd d5 c0 13 ba 80 c1
       -13.35295 10.143238 -6.6794066 -16.090857
0002a0 33 32 18 42 ce 34 38 c0 06 4a 1d 40 a7 ee 05 c2
       38.049023 -2.878223 2.457643 -33.48306
0002b0 aa 0d 0a c1 b6 36 29 c1 65 14 02 c1 7a e3 e1 41
       -8.628336 -10.575857 -8.129979 28.236073
0002c0 33 35 db c1 40 72 52 c1 5a 29 c3 3f c6 0e 81 c1
       -27.400976 -13.152893 1.5246994 -16.132214
0002d0 3b 5e 21 40 61 96 5e 41 dd 06 39 c2 b6 41 78 c0
       2.5213764 13.911714 -46.256702 -3.8790107
0002e0 8b 64 c4 41 d5 12 ba be 1a f9 0c 42 99 0f 98 c1
       24.549093 -0.36342493 35.243263 -19.007616
0002f0 b5 47 9c 41 c7 15 3e bf d4 8a dd c0 60 46 b1 c1
       19.535013 -0.7425198 -6.923197 -22.159363
000300 82 3a 42 bf 99 25 b4 41 4b e7 8e 41 28 94 e4 c1
       -0.75870526 22.518358 17.862936 -28.572342
000310 01 8d 61 c0 8e 57 cf 41 9c ce fa 3e 7f 20 31 c0
       -3.5242312 25.917751 0.48985755 -2.7676084
000320 3e f4 ff 40 c8 16 15 c2 3b 1e 53 40 41 c9 de c1
       7.9985647 -37.272247 3.2987201 -27.848269
000330 cb fa 22 c1 6e c2 5b 41 28 67 73 c1 ed f1 97 41
       -10.186229 13.734968 -15.212685 18.993128
000340 c5 51 c2 41 26 6a dd 40 41 60 b1 40 52 33 86 c1
       24.289927 6.9192076 5.5429997 -16.775059
000350 97 e7 2a c2 36 06 63 41 75 dc 95 c0 47 da cc bf
       -42.726162 14.189016 -4.6831613 -1.6004113
000360 85 74 a4 41 25 f5 2a c1 1c 6b 72 c1 c0 7a ac 40
       20.556894 -10.68485 -15.15115 5.389984
000370 ac d8 64 c1 75 c3 49 41 2d 75 0d c1 e1 a3 21 c1
       -14.302898 12.610219 -8.841107 -10.1025095

fc1.bias f4 [8]
000000 11 57 b7 c1 2a 36 c2 c0 52 4e f1 c0 e4 b3 57 3f
       -22.917513 -6.069112 -7.5408106 0.84258866
000010 92 93 f6 c1 6b bb a2 40 de 1d 4c 41 c0 f0 e3 c1
       -30.822056 5.085378 12.757292 -28.492554

fc2.weight f4 [4, 8]
000000 66 34 bb c0 5e ec 31 c2 32 3c 0f 42 dc 28 b3 3f
       -5.8501463 -44.480827 35.808784 1.3996844
000010 3e 85 fb 40 bc 1a 0e 42 72 18 6a c1 88 89 77 c1
       7.860015 35.526108 -14.630968 -15.471077
000020 49 f5 e7 41 80 db 1a 3d 23 18 91 41 b6 b3 d9 41
       28.994768 0.037806988 18.136786 27.21275
000030 77 85 2c 41 b6 53 47 c1 f7 da 40 c2 f5 f8 9a 40
       10.782584 -12.457937 -48.213833 4.8428903
000040 2c 5c 21 41 48 e7 79 c1 41 55 e3 41 fa 23 51 c2
       10.085003 -15.618965 28.416628 -52.285133
000050 1a 82 07 41 ae 9f b8 c0 25 b3 e4 41 5f b1 9f 40
       8.469263 -5.769492 28.587473 4.9904017
000060 f7 b9 3b 41 d0 bb 86 41 d5 fd 9c c0 99 f6 16 3f
       11.732902 16.841705 -4.9059854 0.5897003
000070 a9 3e ef 41 7d 33 4d 41 40 b1 7c c1 de 1b f4 c1
       29.905596 12.82507 -15.793274 -30.513607

fc2.bias f4 [4]
000000 49 43 c5 c1 94 cd 87 40 1e 2c 89 bf 36 4d ec c0
       -24.657854 4.243845 -1.0716588 -7.384425
